MejoresPesos/best_model_MLP_P.pth (torch, 8738 bytes, 5 tensors)

h1.weight f4 [10, 141]
00000000: ce2b 48bc 7c7a a73d 794d 643d ee6f 02bc
00000010: 89b1 62bc 3f88 44bc 733a ca3c f0f7 99bd
00000020: 50b0 3a3d fa15 0ebd 04b2 013f 8271 6e3c
00000030: 4adc 823c e24c 44bc 49f5 223b b215 a63c
00000040: 6faa d3bb 560a 9c3e 3657 8e3d 1eaa efbc
00000050: f88b 2dbc 8afb 733a 1008 1bbd 1127 bd3b
00000060: 5381 f83c 4842 ceba f653 5fb9 dac5 fc3c
00000070: 689d 113b 34a9 e63b c4ae b23c e7c2 4e3c
00000080: 7ba1 35bc b9da 87bb 9893 09bc da6f cd3c
00000090: 9525 46bc 335b c5ba c8eb 5a3b 0c19 343c
000000a0: f48d bcba e4ac 59bc 2b41 603c 8dd0 8e3b
000000b0: 7bdf 5abc 0da4 4238 4bd7 47bd 018a 7a3b
000000c0: 7490 34bc 2386 5abc 74ed d5ba 4f8d dabb
000000d0: 14fd 23bd be49 80bc 883b e0bb ea3b 2bbb
000000e0: 0fbc d43b d3a4 1cbd ee6c c2bc 502b 2dba
000000f0: 8e31 b33c 350d 3dba 292f b0b6 17dc 3d39
00000100: 8198 073c 0093 a13b efeb 83bb 8ded 093d
00000110: c07d e9bc 37f7 083c 995e e73a 768f 0fbb
00000120: dde6 063b ee4f 06b7 713d 1abc 23fc 373b
00000130: 3ede d7bc 8df8 cf3b c0a4 e6b9 f105 383a
00000140: 068e 84bb 359d c13c 0c7d 023d 138f b7bb
00000150: beda c43b 8d6f 94bc 4a1f bfbc fc49 9c3c
00000160: 4081 c3bb 5ad8 6dbb 3efc 03bb 5689 e2bb
00000170: 7fe5 46bb 0073 aaba 1c1f e2b9 0bb1 ec3b
00000180: 90b4 cfbb 04a3 503c 0690 213c 1c83 d9bc
00000190: c176 143c dcdd 793c 5e8d b0bc 44e8 233d
000001a0: a7e7 de3a cba9 1abb c36c 133b 0c15 733b
000001b0: f04d 833b e51f 053c ee26 4fba 4fcd a2bc
000001c0: eb4c 96bc 28b6 943a 069c 813c ea9a d03b
000001d0: 3b7a 97bc 3c6f 3b3c 7d18 573c a118 c539
000001e0: 3edd 8938 ee4e 193b 931d 85bb e35f 583b
000001f0: 5d95 263d b7a9 943c e6db 0036 48dd d5ba
00000200: 8d00 6dbd e088 2cba c309 a23a 1964 f4ba
00000210: 17bf 70bb 7ee2 c9ba cec8 aabb ceae 343c
00000220: ae07 dbba df5f 98bb aad0 883d b999 a03b
00000230: d041 6b3c c955 b33c 8304 a6bc dc3d a83b
00000240: 99fa 4b3d f3ff 6d3d 796e 5fbd bc74 823d
00000250: c8d0 a53c e594 d23b 8592 243d 023a 5f3f
00000260: 52cf 6d3c 81f5 853c 3a28 ea3c 9041 933d
00000270: 974e f83c 5af9 c93d 3295 543f 3e5a 233d
00000280: 1c89 dbbc 1d7f 363c 30f2 8cbb 28c0 04bd
00000290: d26d 233d 7b73 173d 3dc7 70bb a68c 56bc
000002a0: 0af3 aa3d 60e9 3e3b 102b adbb 0507 b3ba
000002b0: 8df0 f9bb 5d8f d4bc 8b35 b0bc 3ba1 edbc
000002c0: 3008 cd3d 7223 6fbd c3ab 52bc 5cea c938
000002d0: 9c3c 353d 18c4 40bc 7d80 3a3b 6660 f53b
000002e0: 81eb 6e3d 7868 f5bb f419 c2bb 097e b3bd
000002f0: 5d7c 29bb 1e15 d13b 80b2 c7bc 1117 67bc
00000300: 5bf1 46bd 0e27 053d f2c9 83bd f765 bdbc
00000310: 7d43 393b b455 f43c f04c c43d bfb5 64bd
00000320: c216 61ba 144b 443d 73c6 aabb 9470 22ba
00000330: b0c0 fd3b 9a66 bcbc 56e9 de3c 8c91 1ebd
00000340: 1368 8abc f8c4 28bd 37f9 ccb9 f653 b33c
00000350: cae4 78bc 2b5b bfb9 6784 d5bb 9e88 abbc
00000360: 741e 44ba c2fb 39bd bd63 503b d95e 0a3c
00000370: 6235 7e3a d516 aebb 056b 623c 9260 1d3e
00000380: 6b88 4bbc 4631 2a3c 70f9 0fbd 0d0e d0bd
00000390: 820a e33d 30e4 d5bc 7bb0 95bc 0a77 c1bc
000003a0: 8841 7fbb b7f7 963c 4578 afbb 0750 733d
000003b0: 8715 86bd a60e 50bc 6bae dc3c f065 203d
000003c0: b70c dabd 07ff a33c 9dcf d83c c3f7 1abd
000003d0: cc51 f13d e546 07bc 02ab 26bc 5273 78bc
000003e0: 2aff de3b 0f11 643d 7756 d53b e9b1 92bc
000003f0: 458b a43c aa78 963d 73dd 57bc 04c5 be3d
-0.012217475 0.08177659 0.055737946 -0.007961256 -0.013836273 -0.011995374 0.024686074 -0.075179935
0.0455783 -0.034688927 0.50662255 0.01455343 0.015974183 -0.011981221 0.002486544 0.020274017
-0.0064595263 0.30476636 0.06950228 -0.029255923 -0.010592453 0.00093071966 -0.037849486 0.0057724793
0.030335104 -0.0015736306 -0.00021298215 0.030856062 0.0022219066 0.0070392136 0.02181185 0.0126197105
-0.011085863 -0.004145947 -0.0083970055 0.025077749 -0.012093921 -0.0015057087 0.0033404697 0.0109923
-0.0014385567 -0.013285849 0.013687412 0.0043583573 -0.013358946 4.640599e-05 -0.048789304 0.003822923
-0.011020768 -0.013337645 -0.0016321377 -0.0066696773 -0.040036276 -0.015660163 -0.006843034 -0.002612824
0.006492145 -0.038243126 -0.023733582 -0.00066058803 0.021874215 -0.0007211746 -5.250699e-06 0.00018106434
0.008276106 0.004930854 -0.004025928 0.03367381 -0.028502345 0.008359722 0.0017652094 -0.0021905578
0.0020584383 -8.0056325e-06 -0.009414063 0.002807387 -0.02635109 0.0063467682 -0.00043991767 0.00070199283
-0.004045251 0.023634532 0.031857535 -0.0056017726 0.0060075214 -0.018119598 -0.02333035 0.019078247
-0.0059663355 -0.0036292286 -0.0020139362 -0.0069133444 -0.0030349193 -0.0013004243 -0.00043129257 0.0072232536
-0.0063386634 0.012734178 0.009860998 -0.026551776 0.009061516 0.015250649 -0.021551784 0.040016428
0.0017006294 -0.002359974 0.0022495247 0.0037091402 0.0040070936 0.00812528 -0.00079022243 -0.01987329
-0.018347224 0.0011345791 0.015821468 0.0063661234 -0.018490901 0.011440095 0.013128397 0.00037593118
6.5738786e-05 0.0023392993 -0.0040623634 0.0033016137 0.040669788 0.018147333 1.9201484e-06 -0.0016316557
-0.057861853 -0.0006581675 0.0012362528 -0.0018645554 -0.0036734992 -0.0015402583 -0.005211926 0.011028005
-0.0016710663 -0.0046501006 0.066804245 0.0049011377 0.014358953 0.021891491 -0.020265823 0.0051343273
0.049799535 0.05810542 -0.054548714 0.063699216 0.020241156 0.006426441 0.040178794 0.8719789
0.014514761 0.016352417 0.028583635 0.071902394 0.030310912 0.09862013 0.83040154 0.039880984
-0.026798777 0.011138705 -0.004301332 -0.032409817 0.039899655 0.036975365 -0.003673985 -0.013095057
0.08347137 0.0029130802 -0.0052846745 -0.0013658708 -0.007627553 -0.025947267 -0.021509906 -0.029007545
0.10011327 -0.058383413 -0.012858334 9.62808e-05 0.044247255 -0.011765502 0.0028457933 0.007488298
0.058330063 -0.0074892603 -0.005923504 -0.08764274 -0.002586148 0.006380691 -0.024377108 -0.014104621
-0.04857002 0.03250795 -0.064350024 -0.02311991 0.0028268986 0.029826023 0.09584987 -0.05583739
-0.000858646 0.047923163 -0.0052116453 -0.0006196585 0.0077439174 -0.022998143 0.027210873 -0.038713023
-0.01689533 -0.04120347 -0.00039095592 0.021890622 -0.015191266 -0.00036498284 -0.0065160277 -0.020939168
-0.00074813445 -0.04540611 0.003179773 0.008445465 0.0009697286 -0.0053127804 0.013819461 0.1536887
-0.012422661 0.010387724 -0.03514999 -0.1015893 0.110859886 -0.026109785 -0.018272629 -0.023616333
-0.0038948972 0.018428667 -0.0053549134 0.059402492 -0.06547075 -0.012698805 0.026938638 0.039159715
-0.106469564 0.020019067 0.026466185 -0.03783394 0.1178318 -0.008256649 -0.010172607 -0.015164213
0.0068053203 0.05568033 0.0065105516 -0.0179071 0.02008594 0.073472336 -0.013175356 0.093149215

h1.bias f4 [10]
00000000: 7a62 8bbb bfed 2d3c 55f0 6cbd 2fcc 8b3d
00000010: 1153 d4bc 9a80 293d 2b41 8cbc 6edd 80bd
00000020: 0867 fbbc a8cd 84bb
-0.0042536827 0.010615765 -0.057846386 0.06826054 -0.025918515 0.04138241 -0.017120918 -0.06292234
-0.030688778 -0.0040528364

h2.weight f4 [10, 10]
00000000: 9807 933e 7c73 8abc 2d2a 97be 5caa 51be
00000010: 7771 c2bc f9a9 a43d 4cce 5a3c 0f28 6b3e
00000020: 26fa 253e 4077 8e3e 7b1b 20be f13b 9f3a
00000030: c10a 96b9 20cd 02bd 2e95 a83c 71f0 a63c
00000040: 9de6 4cbe d0d8 7ebd ba30 c63d e7a9 60bc
00000050: 4637 3c3d 4979 8b3e c584 773c f492 9cbe
00000060: 7861 83be 4cf8 abbd cd10 df39 096b fb3d
00000070: 068b 18bb a556 993d 94cb 233e 62f2 2c3d
00000080: 3515 c43c 92ab cf3d 9094 613e 738f 763d
00000090: 4fce 4ebe e941 afbd 0f48 453e 1c42 4b3e
000000a0: e405 953e 2e75 133e 3887 313e 703a 67be
000000b0: 695d 6c3e e080 68be ce79 b8bd 024f 25be
000000c0: 2337 3e3e 59fa 093e 989a f7bc 969a 60be
000000d0: f56a 803c ce74 233d 72d3 833e 7db4 4fbd
000000e0: d318 c8bc 75b5 5cbe 3813 c6bd b4e9 f23c
000000f0: 195c b43d 0822 71be b4d2 813e 796c 1b3e
00000100: b394 afbd ff21 263e a16d 47be d4f6 253d
00000110: 3a5a 27be ce00 613b e3b6 f13d cf88 ac3e
00000120: 8d01 91bd 08c4 8ebe 8feb 3cbe ac84 6cbe
00000130: 76cc 053e 7d9e 113d 5cbf 0f3c 4fd7 263e
00000140: 1fcb 2b3e eb26 5c3d c16a 90be 3976 4dbd
00000150: f13c 113e 2169 b2ba e176 27bd c00f 5f3d
00000160: f3bb 5f3e 3729 b13d e740 803e 2af3 4bbe
00000170: 80f2 87be c124 54be 97b8 153e 0b13 d8bd
00000180: 941f 343d e330 fa3b 0c3b 4cbe 72ee a5bc
0.2871673 -0.01690077 -0.29524365 -0.20475143 -0.023735745 0.08040232 0.013354849 0.229645
0.16208705 0.27825356 -0.15635483 0.0012148601 -0.00028618242 -0.031933904 0.020578947 0.020378323
-0.20009847 -0.062218487 0.096772626 -0.013712383 0.04595115 0.2724097 0.015107338 -0.30580866
-0.256603 -0.08396968 0.00042546392 0.12276275 -0.0023276224 0.07487229 0.15995628 0.04222334
0.023935894 0.10140146 0.22029328 0.060195398 -0.20195888 -0.08557493 0.1926577 0.19849437
0.29106057 0.14400169 0.17336738 -0.22580886 0.23082508 -0.22705412 -0.090076074 -0.1614342
0.1857572 0.13474406 -0.030225083 -0.2193397 0.015676001 0.039906316 0.25747257 -0.050709236
-0.0244259 -0.21553595 -0.096716344 0.029652454 0.08806629 -0.23548138 0.25356066 0.15178098
-0.08573284 0.16223906 -0.19475414 0.040518597 -0.16343012 0.0034332755 0.11802461 0.33698127
-0.07080374 -0.27883935 -0.18449233 -0.23097485 0.13066277 0.035551537 0.008773651 0.16293071
0.16776703 0.053748053 -0.28206447 -0.050161574 0.14183404 -0.0013611653 -0.040884856 0.05445838
0.2184904 0.08650439 0.25049517 -0.19916978 -0.265522 -0.20717146 0.14621197 -0.10550507
0.043975428 0.0076352223 -0.199444 -0.020255301

h2.bias f4 [10]
00000000: d2ad 4b3d 0c97 a7bd 192a e93d bc07 0e3e
00000010: 9af3 8cbe a34d ad3d 52c5 84be ab35 693e
00000020: e573 81be 6957 05be
0.049726315 -0.08183107 0.113849826 0.13870138 -0.27529603 0.08462074 -0.25931793 0.22774379
-0.25283733 -0.13021626

out.weight f4 [1, 10]
00000000: c4e8 333e 2c56 a93b e769 3a3d 05a6 6abe
00000010: b264 9a3e e398 17be a424 83be b666 d93d
00000020: 3a35 62bc 8a08 97be
0.17569262 0.005167743 0.045511153 -0.22914894 0.3015495 -0.14804415 -0.25613892 0.10615294
-0.0138066355 -0.29498702
