MejoresPesos/best_model_MLP_P3.pth (torch, 11538 bytes, 11 tensors)

h1.weight f4 [10, 141]
00000000: d15a 68bd 930c de3d a164 df3c 6842 5fbd
00000010: cfaa 3d3d 8a37 91bd 96df 5fbd 1383 7bbb
00000020: 454b 28bd c8b8 bb3a b183 a33f f25b 43bc
00000030: 2ff8 acbb 920d cabe 88dd 6cbb e43a 153c
00000040: 8b6b d03d 65b9 413f 581d 84bd 29ae 723d
00000050: 87a5 f53a 723a 373b d66a c6bb 77e6 063d
00000060: 3873 4bbc b6c6 86bc 1e4c a63c 9a8f 8b3c
00000070: d9fc 453a bd74 1dbd 7c54 9dbb f95b 09bb
00000080: bab3 8bbd cc64 fbbb a4f1 88bc cf49 533d
00000090: f8d0 18bd 7a85 0fbc fc45 793b 4ec9 053c
000000a0: 4ca9 12bc be02 763d b812 34bc 6c4c 213c
000000b0: 46af c93c 65e1 a13a b0fd 6bbd bb11 efbb
000000c0: 3ac2 44bb 79d4 8bbc 1b5a 83bc ea31 adbc
000000d0: 6713 823d ac8d e0bc c127 08bd bebd b93c
000000e0: 3e9b 693d 625c 4c3e 7ec9 d2bc d0ff 96ba
000000f0: 23d0 333c 83ff eabb 1601 0b3b 31d1 d73a
00000100: 1613 63bd ae68 703d c4a0 28bd 887f a3bc
00000110: 1826 45bc d0b5 553c d63e 11bc 8729 9fbc
00000120: 6a76 1fbd 0a9f f6bb 72e3 88bc 800a a2bc
00000130: f344 fabc 8e86 703b 482a 883c 346c 76bc
00000140: 0ae3 99bc fbf9 0fbc dee9 b43d 3100 063c
00000150: 94b4 38b9 53c6 8b3a 5203 58bd d880 b43d
00000160: 2e03 83bc 0ac6 c3bc f1f6 0ebc 09db 073d
00000170: 47e3 bf3d 672d 52bc 2dfe 2e3e 61f2 23bd
00000180: 5ef3 93bc 613f 81bc 1ab6 623d 2f99 ddbd
00000190: 20c8 263d 074c a33b 4022 99bd b7b3 e83d
000001a0: bb51 58bb 885f 96bc 2b6e 3f3b be28 b6bb
000001b0: 2c0d 063e c3d8 5d3c a9b6 10bd fe29 613d
000001c0: 0ed0 8f3e 0f48 dcbc 101d 933c 21a7 ffbc
000001d0: ae68 4ebd 437a d8bc c20a 03bc 6a0e c53c
000001e0: 4eaf 99ba fd00 91bb 9218 54bd af96 0bbc
000001f0: 17fb 5c3e 4b35 0f3e bab6 f9ba 3bdd cc3c
00000200: 8534 253d 3d1d 96bb 600e 9c3c 2284 2c3d
00000210: d31f febc 2808 dc3c 2ec5 613d cae7 94bb
00000220: 4dc9 863c efcc 9cbc b618 8f3e c507 093d
00000230: 2edc f2bc 8f68 8abc 4c02 e1bc b76a 43bc
00000240: a9d4 3abb 7e90 18bd c99a 0e3b 9a82 0dbd
00000250: 32c4 87ba a825 c2bc 1c2d 5d3d bc61 8bbb
00000260: ff65 3a3b 571d acba b1e9 60bc ebe3 97bb
00000270: 1a1a b238 aec1 dd3b 0905 dcbb 9752 7a3b
00000280: 4b41 a03c 623d a0bb 7835 f3b8 aea2 c83b
00000290: 1fe2 8d3a 3cff e3ba 958b b1b9 9a02 903b
000002a0: 6749 5a3b 248f fb3b 1d5c fcbb d973 1dbb
000002b0: 54cc 0bbb 3a5a 283b 86d4 da36 ca8e 433a
000002c0: f6de d83a 9e43 053c 6a78 303b e316 4cbb
000002d0: 9925 6a3a a6a9 9d3a b8bc dabb 4785 02bc
000002e0: ee95 caba 032b 8cbb b342 b939 b1e6 2c3b
000002f0: b3fe 653b 9589 81bb 5eac 1d3a 3e24 44bb
00000300: c3e1 273b 580b be38 cb2f 45ba 5b08 6d3a
00000310: b54f 13b8 509a 9a3b 0a18 82bb 1d1f a8ba
00000320: c639 003a 5e97 4b3b 23e1 f736 b222 88b8
00000330: 7a6d 17ba 901b c73b 473c ee3a 08ea 8c38
00000340: e2d3 18ba 0dc4 5db8 867f 8dbb 52c3 913c
00000350: ef84 fe38 771b 1b39 6813 27b0 db58 dfba
00000360: 0269 793a a735 4138 dd40 e438 cac7 8ab7
00000370: 4826 acb5 b489 1d39 e31d 1abb 281a 7abb
00000380: 1fce e73a 3e2a 8bba 1942 88ba 3b16 813b
00000390: 32f2 3a3a c535 7d39 28b5 3bba d178 9c37
000003a0: 877f 28bb 46b1 c53a 1711 d6b9 3a7c 27ba
000003b0: 79ea 9fbc ab2a 97ba 9946 ceba a875 a0ba
000003c0: 2403 a03a 1c92 b2ba 8bf9 11b9 6a45 62ba
000003d0: 94d3 d0b9 7a66 883a 687c 0eba cbdf b1ba
000003e0: df71 1938 6896 733a 407d 17bb eb86 6eba
000003f0: 7369 84ba 041d 4d3c d3b0 0a3b a49b 2c3c
-0.056727234 0.10842242 0.027269663 -0.05450669 0.046305474 -0.07090671 -0.054656588 -0.0038377687
-0.041087408 0.0014322037 1.2774564 -0.011923777 -0.005278609 -0.39463478 -0.0036142785 0.009108279
0.10176762 0.75673515 -0.064509094 0.059248123 0.0018741348 0.002795842 -0.0060552163 0.032934632
-0.012417607 -0.016452175 0.020299967 0.017036248 0.0007552631 -0.03844141 -0.004801331 -0.002095936
-0.068213895 -0.007671928 -0.016716786 0.05158406 -0.037308663 -0.008759851 0.0038036099 0.008165671
-0.008951496 0.06006121 -0.010990791 0.009844881 0.02461971 0.0012350498 -0.057614982 -0.007295815
-0.0030022995 -0.017069088 -0.016034177 -0.021141965 0.06351357 -0.027411304 -0.033241037 0.022673484
0.057032816 0.19957116 -0.025730845 -0.001152033 0.010974917 -0.0071715727 0.0021210364 0.0016465542
-0.055438124 0.05869358 -0.041168943 -0.019958273 -0.012033008 0.013043836 -0.008865079 -0.019428981
-0.038931288 -0.007526283 -0.016710017 -0.019780397 -0.030550456 0.0036701295 0.016621724 -0.015040446
-0.018785018 -0.008787627 0.08833669 0.008178757 -0.00017614878 0.0010663964 -0.05273754 0.088136375
-0.015992727 -0.023898143 -0.008725868 0.033167873 0.093695216 -0.012828208 0.17089148 -0.040026072
-0.018060382 -0.015777292 0.055349447 -0.10820233 0.040718198 0.0049834284 -0.07477236 0.11362403
-0.00330077 -0.0183561 0.0029209952 -0.005559056 0.13090962 0.01354045 -0.03533045 0.054971687
0.2808842 -0.026889829 0.017958194 -0.031207623 -0.0503928 -0.026425486 -0.00799817 0.024054725
-0.0011725219 -0.0044251666 -0.051781245 -0.0085198125 0.21580158 0.13985173 -0.0019051649 0.025007835
0.04033329 -0.004581122 0.019049823 0.0421182 -0.031021034 0.026859358 0.055119686 -0.004544233
0.01645341 -0.019140689 0.2794854 0.033454675 -0.029646005 -0.01689556 -0.027466916 -0.011927298
-0.0028508103 -0.037247173 0.002175974 -0.03454838 -0.0010358153 -0.023699597 0.053998098 -0.004253594
0.0028442142 -0.0013131303 -0.013727591 -0.0046353242 8.492563e-05 0.006767473 -0.0067144674 0.00381962
0.019562384 -0.00489013 -0.00011597102 0.0061229086 0.0010824836 -0.0017394791 -0.00033864068 0.0043948414
0.0033307911 0.007676976 -0.0077014104 -0.002402535 -0.0021331506 0.0025688545 6.5216473e-06 0.0007459937
0.001654594 0.008133797 0.002692724 -0.0031141571 0.0008931994 0.0012028709 -0.006675329 -0.007966346
-0.001545606 -0.0042775883 0.00035335644 0.002638262 0.003509444 -0.0039531686 0.00060147594 -0.0029928829
0.0025616742 9.062019e-05 -0.00075220753 0.00090420776 -3.5121764e-05 0.0047181025 -0.003970151 -0.0012826655
0.00048914214 0.0031065564 7.387383e-06 -6.491448e-05 -0.0005776506 0.0060762838 0.0018175923 6.719312e-05
-0.0005829913 -5.2873092e-05 -0.0043181805 0.017793331 0.000121364246 0.00014792183 -6.0781824e-10 -0.0017040031
0.00095142436 4.6064753e-05 0.00010883969 -1.6543916e-05 -1.282614e-06 0.00015023985 -0.002351635 -0.0038162563
0.001768533 -0.0010617448 -0.0010395675 0.0039394177 0.0007131427 0.00024147991 -0.0007160478 1.8652909e-05
-0.0025710778 0.0015082739 -0.00040829994 -0.00063890556 -0.019520985 -0.0011533102 -0.0015737592 -0.0012242096
0.0012207967 -0.0013623866 -0.0001392124 -0.00086315593 -0.0003983049 0.0010406517 -0.0005435408 -0.0013570724
3.6584093e-05 0.00092921266 -0.0023115426 -0.0009099084 -0.0010102227 0.012519125 0.0021162524 0.0105351545

h1.bias f4 [10]
00000000: 8cf6 713c e4a1 9c38 6e5f f83b 226a 12bb
00000010: cf3a 9fbd e31f 09bc f6b3 aebc 5ba4 20bb
00000020: 5c81 053c 0dcf 22bc
0.014768254 7.468814e-05 0.0075797355 -0.0022341092 -0.07774889 -0.008369419 -0.021326046 -0.0024512026
0.008148517 -0.00993706

h2.weight f4 [10, 10]
00000000: 2791 2cbc 3ac7 5b3e 746c d03d d3fe 03be
00000010: a284 9ebd 8687 0e3e 4742 973d 54b6 f03d
00000020: f7b1 513e 391c 053e 2517 a4bd 723c c8bd
00000030: e2cb 2e3e 8e0e 19be 101c 5ebe f558 223d
00000040: 4a82 46be 7e38 3fbe a2da 10be 94e5 9b3c
00000050: 8275 27be 2fc0 283e f1bf 353e 0a44 553c
00000060: aac2 e93d 6c29 823e ce32 d1bd 8aa2 88be
00000070: a136 7ebd 8380 90bd 3505 083e 4265 53bd
00000080: f2a5 9ebd 8bd1 21be ea4d e9be a73f 243d
00000090: 0c8e 6cbe 1ece 273e f037 45bd 476b c33d
000000a0: f578 1f3e 2894 da3d f0b4 1c3e 471a cf3d
000000b0: 50f3 97be 8db3 71bd 6bc1 27be 626f a63d
000000c0: 1df8 d93d a3f8 063d bbb0 dfbd 0b19 d63d
000000d0: 43c6 4a3d 7d15 493d 5677 a93e 9c86 0cbe
000000e0: 93e6 893d aeea f0bd d6e3 b63e ca43 b73d
000000f0: e11f d5bd fb53 a0bc 16df 9bbd 5819 96be
00000100: 8682 053e cdc9 d63d a385 813e 0574 a03d
00000110: ee2a 28be 7f11 1abc 3282 81be 6624 36be
00000120: 97ad 223d f1a0 acbd bd3d c43e 54c1 8f3d
00000130: 8383 783e a5b8 5f3e 5a11 c3bd 027b f6bc
00000140: f363 0dbd c0c4 3abe f417 8abd ea69 c9bd
00000150: 71b6 88be 5e6f 2e3e 250c efbe b481 15bd
00000160: ddd1 ba3d 57b1 37be a910 90bc 4583 b83d
00000170: 0569 473e 5332 f4bd b047 bebc 0773 023e
00000180: 11e6 2a3e 73b3 d63c 65fe 663e 475d 2ebd
-0.010532654 0.21462718 0.10176936 -0.12890176 -0.077401415 0.13918886 0.07385688 0.11753526
0.20478044 0.12999047 -0.08012227 -0.09777154 0.17069963 -0.14946958 -0.21690392 0.039635617
-0.19385639 -0.18673894 -0.14145902 0.01903037 -0.1635342 0.16479562 0.17749001 0.01301671
0.11414082 0.25422227 -0.10214768 -0.26686507 -0.062063817 -0.07055762 0.13283236 -0.05161024
-0.07746495 -0.1580259 -0.45567256 0.040099766 -0.23101062 0.16387221 -0.04814905 0.09541946
0.15573485 0.1067279 0.15303397 0.10112434 -0.2967782 -0.059009124 -0.16382377 0.08126713
0.10643027 0.032951962 -0.109223805 0.10453995 0.049505483 0.04909276 0.3309886 -0.13723224
0.06733432 -0.117635116 0.357207 0.089484766 -0.10406471 -0.019571295 -0.0761091 -0.2931621
0.13038072 0.10487709 0.2529727 0.07834629 -0.16422626 -0.009403585 -0.25294644 -0.17787322
0.03971633 -0.08429135 0.38328353 0.07019296 0.24268918 0.2184778 -0.09524794 -0.030087952
-0.034519147 -0.18239117 -0.0674285 -0.09834655 -0.26701692 0.1703467 -0.46688953 -0.036500648
0.091220595 -0.17938744 -0.01758607 0.09009413 0.19473656 -0.11923661 -0.023227543 0.12739192
0.16689326 0.026208615 0.22557981 -0.042569425

h2.bias f4 [10]
00000000: 6505 123e 7505 a1be 53e0 44bd 01f8 4c3c
00000010: cf49 d43d 0873 823d 7836 453d 32e9 52bd
00000020: efdc 45bc 0f62 213d
0.1425987 -0.31449476 -0.048065495 0.012510301 0.1036564 0.06369597 0.04814765 -0.051491924
-0.0120766 0.039400157

h3.weight f4 [10, 10]
00000000: 6c19 c33d 00a7 76bb 269f 0abe 0e88 0f3e
00000010: ac81 e13d d83b 313e 60e5 043e 6e47 683e
00000020: d85e 243e 6863 9c3d c0de 743d 46a5 4fbe
00000030: 5eee a6bd a31d a0be d268 163e 6ad1 7e3e
00000040: c4f3 3dbe 3864 fd3d 8fbd 993e 2125 9dbe
00000050: 4edf 0fbe 4952 a03e c0eb ee3b 52eb 2cbe
00000060: c0f0 85be cb89 97be d8c0 2b3e e5c4 3bbe
00000070: a3b8 863e b282 c3bd 9884 2d3e 5150 873e
00000080: aa4f 8abe 7da5 48be ca02 543e 4e7e 4bbe
00000090: ecb6 bf3d 32f1 693e 035f 9cbe 273c 3bbe
000000a0: 962b 0abe 4018 2abc 0403 d9bd 649f b03d
000000b0: 3a6e f2bd cea7 543e 2041 11be 2080 2fbd
000000c0: 6e41 533e b070 5dbe fa96 603e 96af 653e
000000d0: 1c49 92be 4097 66bd 4eae 163e 1c89 9e3d
000000e0: d893 5ebe 4254 c1bd e0d8 95bc 48ac 123e
000000f0: 326f 493e 12dd 7b3e 88ef 8b3d 6104 68be
00000100: ae50 78be 3811 47be 34e8 6dbe 920f 313e
00000110: c31c 853e bfe5 2abe 2987 8b3e 85d6 863e
00000120: e61e 99be 0bf2 8e3e 60b4 753c 1b83 9a3e
00000130: 0096 16bb ba17 94be ebd9 15be c072 c1bc
00000140: 562f 89be 4023 57bd 7af9 95be e059 68bd
00000150: ed3e 8e3e 5b66 9abe 7c1a 8d3d 3c98 d03d
00000160: e256 8abe 633a 9f3e d9e5 8a3e 882c 72bd
00000170: 88d0 07bd fa4d 363e 246f 90be 6040 cf3c
00000180: c430 e03d aafa 013e 0a4f b2bd 2307 953e
0.09526333 -0.003763616 -0.13537273 0.14016744 0.11011061 0.17307985 0.12978125 0.22683498
0.16051805 0.07636148 0.059782743 -0.2027789 -0.08150934 -0.3127261 0.14688423 0.24884573
-0.1855002 0.12372631 0.30027434 -0.3069239 -0.14050028 0.3131278 0.007291287 -0.16886643
-0.2616024 -0.29597315 0.16772783 -0.18336828 0.26312742 -0.095464125 0.16945112 0.26428464
-0.27013904 -0.19594379 0.20704189 -0.198724 0.093610615 0.22845915 -0.30541238 -0.18284665
-0.13493189 -0.010381758 -0.10596278 0.08624151 -0.1183743 0.20767137 -0.14185 -0.0428468
0.20630428 -0.21625018 0.21932593 0.22430262 -0.28571403 -0.056296587 0.1471493 0.07740995
-0.21736085 -0.09439899 -0.01829189 0.14323533 0.19671324 0.2459605 0.06832796 -0.2265792
-0.24249527 -0.19440162 -0.2323311 0.17291096 0.25998506 -0.16689204 0.27251557 0.2633554
-0.29906386 0.2791904 0.014996618 0.3017815 -0.002297759 -0.28924352 -0.1463391 -0.023614287
-0.26793927 -0.05252385 -0.29291898 -0.056726336 0.27782384 -0.30156216 0.06889817 0.101852864
-0.2701941 0.31099233 0.27128485 -0.0591245 -0.033157855 0.17803183 -0.28209794 0.025299251
0.10946801 0.12693277 -0.08706482 0.29107007

h3.bias f4 [10]
00000000: 494e 86be a77a 9b3e ae91 92be 12c7 9fbd
00000010: 0054 9a3d dab5 b1bd 91a4 8fbe b67d 85be
00000020: 5c68 4abe 403a cebb
-0.26231602 0.30367014 -0.2862677 -0.078016415 0.07535553 -0.086772636 -0.28055242 -0.26072472
-0.19766372 -0.006293565

h4.weight f4 [10, 10]
00000000: 1740 1dbe 8caa 363e 078a 3dbe 00fa bebc
00000010: 9184 873e 125e 283e 2596 7cbe c59d 89be
00000020: a035 3b3d 4ce0 60be c693 633e d654 73be
00000030: 10bd 883c be40 453e a0c3 173e c08c a8bc
00000040: 20fe c7bd 0b2f 72be b88d 17be 60bd e2bc
00000050: 8052 85bb 6706 8d3e dbf8 963e d027 81bc
00000060: 1ea3 093e f445 993d 80bd 7f3d e8c8 00bd
00000070: 9ca8 d53d 2679 523e f0c0 84be c899 133e
00000080: 2d36 a13e 5ff2 913e 9c3f 253e 885a e7bd
00000090: f825 543d a237 173e e015 b13d 2818 7bbd
000000a0: ae16 89bd 0c48 e03d 26e5 203e 3817 b73d
000000b0: 20af e2bc d720 30be 3290 613e 401d c1bd
000000c0: e843 b13d 05c7 90be 6d2e 8b3e 803e 333c
000000d0: e289 8fbe 55af 7abe 8011 e03c f0f0 b03c
000000e0: 7ecc 8cbd 6015 5bbd b82e 55bd 0e3d 7c3e
000000f0: 947c 3a3e 6401 57be c450 34be 85ce 9a3e
00000100: 4c1e 253e 08cf 4bbe 80f8 873d c927 963e
00000110: e05f a43d 8a34 35be 1fb3 913e 8078 363d
00000120: 9e9d 3abe e0b7 e3bc e21f 10be ad9a a13e
00000130: 3405 fa3d 00ac 0abd fce9 6cbe e9ea 913e
00000140: 202a a53c fc1a 0a3e 822f 84be 1e66 6e3e
00000150: d4b6 27be 9c13 5bbe d6ad 043e d57c a1be
00000160: 1f59 80be 0077 023d 70f2 b03d a847 89bd
00000170: 3395 a0be 663c 3a3e 10dd 34be e0e1 b7bc
00000180: 594d 963e 504e 9bbe 9a3b 8bbe 92a0 b5bd
-0.1535648 0.17838496 -0.18509685 -0.023312569 0.26468328 0.16442135 -0.2466665 -0.2687818
0.045705438 -0.21960562 0.2222434 -0.23762831 0.016691715 0.19262978 0.14820719 -0.020574927
-0.09765267 -0.23650758 -0.14800155 -0.027678192 -0.0040686727 0.27543947 0.29486737 -0.015766054
0.1344113 0.074840456 0.06243658 -0.0314416 0.1043255 0.20554027 -0.2592845 0.14414132
0.31486645 0.28505227 0.16137546 -0.11296564 0.051794022 0.14767316 0.086467505 -0.061302334
-0.06693779 0.10951242 0.15712413 0.089399755 -0.027671397 -0.17200027 0.22027662 -0.09429407
0.0865553 -0.2827684 0.27183858 0.010940194 -0.28034884 -0.24480946 0.027352095 0.021599263
-0.06874941 -0.05348718 -0.052046508 0.24632666 0.18211585 -0.20996624 -0.17608935 0.30235687
0.16124839 -0.19903195 0.066391945 0.2932723 0.08026099 -0.17695823 0.2845697 0.04454851
-0.18224189 -0.02779764 -0.14074662 0.3156332 0.12208024 -0.03385544 -0.23136133 0.28499535
0.020161688 0.13486856 -0.25817496 0.23281142 -0.16378337 -0.21394199 0.12956938 -0.31540552
-0.25067994 0.03185177 0.08639991 -0.067031205 -0.3136383 0.18187103 -0.17662454 -0.022446573
0.29355887 -0.30333185 -0.2719391 -0.08868517

h4.bias f4 [10]
00000000: 463c 503e ef94 8cbe 82db 3d3e 34d9 203e
00000010: a82d 8f3d 58a4 3a3e ec8d 87bd e28f e5bd
00000020: dca5 833d b637 5cbe
0.20335492 -0.27457377 0.18540767 0.15707856 0.0699113 0.18226755 -0.06618866 -0.11209084
0.064281195 -0.21505627

h5.weight f4 [10, 10]
00000000: cb90 5bbe f6c7 503e d944 943e 9aa0 403e
00000010: fe71 503e 2229 323e 0dff 8e3e 579a 9c3e
00000020: 00d2 293c 7033 ba3c aadd 9fbe f8c3 15bd
00000030: b2c2 553e 39d1 903e 58d9 5b3d 0b89 87be
00000040: 6053 e0bd d33e 82be e059 983c 8ce8 6ebe
00000050: d048 4fbd 003b c4ba 0595 93be 2077 063e
00000060: a078 3b3e e050 36bc e75f 25be b1cb 863e
00000070: 69b2 8b3e e521 873e 7a4a 683e a01b d0bc
00000080: 2ebd 44be e8b7 b7bd 20ef 69bd 53d1 39be
00000090: cb04 9e3e 9a7e 743e c012 803d 2856 3a3e
000000a0: 805e 44bd d651 563e 8ab8 243e a004 703d
000000b0: 9fd4 44be 5734 a13e 86f1 30be 70fd 2dbd
000000c0: 9662 043e b854 31bd 7872 c43d d082 803c
000000d0: 43d7 9cbe 568b 523e e0ae 52bc c339 68be
000000e0: 57da 9b3e 9aac 0c3e 0032 d53c 9080 083e
000000f0: 339e 9abe eae2 793e 76e4 7d3e ec68 a13d
00000100: a8f7 85bd ca26 88be 003f b33a 4099 373d
00000110: 4047 f43c e4c7 be3d c88a 3a3e 9883 c8bd
00000120: 0610 2abe 5e0a 563e 5798 0dbe a468 ff3d
00000130: 88d7 473d b09e 203e c893 48be da40 733e
00000140: 94c1 b9bd c240 073e f813 07be 701e 14bd
00000150: 9292 8dbd 9034 343d c08f d33c f475 73be
00000160: 9c0e 7dbe 86ac 95be 5cbc 993d 1c26 ce3d
00000170: 403b 9ebe 00ff 683b 6f45 9d3e 62fc 1d3e
00000180: 8484 34be 534d 69be f049 75be 5d09 35be
-0.21441953 0.20388779 0.28958777 0.18811265 0.20355985 0.17398503 0.27928963 0.30586502
0.010365009 0.022729605 -0.31223804 -0.036563843 0.20875052 0.28284624 0.053674072 -0.26471743
-0.109534025 -0.25438556 0.018597543 -0.23330897 -0.05060655 -0.0014971197 -0.2882463 0.1313138
0.18307734 -0.011127681 -0.16149865 0.2632728 0.27284554 0.26393047 0.2268466 -0.025403798
-0.19212791 -0.08970624 -0.057112813 -0.18146257 0.30863032 0.2387642 0.06253576 0.18196929
-0.047941685 0.20929655 0.16086021 0.05859816 -0.19221734 0.31485245 -0.17279634 -0.042478025
0.12928233 -0.043293685 0.09592146 0.015687376 -0.30632982 0.20560965 -0.012859076 -0.22678284
0.30440018 0.13737717 0.026024818 0.13330293 -0.3019882 0.24402967 0.24794182 0.078813404
-0.06541377 -0.26592094 0.0013675392 0.044823885 0.02981913 0.0931547 0.18217003 -0.097907245
-0.16607675 0.20902392 -0.13827644 0.124711305 0.04878953 0.15685534 -0.19587624 0.23755208
-0.09070125 0.13208297 -0.13191211 -0.03616184 -0.06912722 0.04399544 0.025825381 -0.23775464
-0.24712604 -0.29233187 0.0750663 0.100658625 -0.3090458 0.0035552382 0.30717036 0.15428308
-0.17628676 -0.22783403 -0.23953986 -0.17679353

h5.bias f4 [10]
00000000: e6f9 81be 00a6 d23b 66e7 703e 34a9 b83d
00000010: ac3e 8d3d 04db 103e 5853 0a3d c8b6 113e
00000020: 64e6 e43d d891 923d
-0.2538597 0.00642848 0.23525771 0.09016648 0.06896719 0.14146048 0.03377089 0.14229882
0.11176756 0.07156724

out.weight f4 [1, 10]
00000000: 9819 1c3e d54b ad3e f8ce 983d a6b0 b3bd
00000010: 999c 2f3e 0677 033e 9ee6 2abd 5db1 8abd
00000020: 2014 62bd a2dd 493e
0.15244138 0.33846918 0.07461351 -0.087739274 0.17149581 0.12838373 -0.04172384 -0.067721106
-0.055194974 0.19713452
