MejoresPesos/best_model_MLP_P4.pth (torch, 15242 bytes, 19 tensors)

h1.weight f4 [10, 141]
000000 7e 85 f0 bc 56 13 8c 3e 6c 43 17 bc 45 9e b0 bd
       -0.029360529 0.27358502 -0.009232383 -0.086239375
000010 d4 d7 ad 3d 81 b2 6e 3d 50 64 b4 bd 06 12 8e 3b
       0.084884316 0.058275703 -0.088081956 0.0043356447
000020 b8 3f dc bc fd 75 bb 3d 3e 4c f6 bb 8d 27 09 3c
       -0.026885852 0.09153364 -0.007516413 0.008371246
000030 c2 a6 7c 3b a3 15 c4 bb 8b 05 51 3b 5b 2b 1d 3b
       0.0038551544 -0.0059840246 0.0031894173 0.002398214
000040 b6 d2 c6 3b f6 ac 0e bc 63 d0 5f 3a 0a e3 12 3d
       0.006067599 -0.008708229 0.0008537827 0.035861053
000050 d2 30 48 bb 1f 17 d9 ba 26 93 c9 3a 32 6c 39 3c
       -0.0030546677 -0.0016562677 0.0015378937 0.0113173
000060 f4 70 4a 3c 27 5b a0 3a a6 04 12 3c 21 68 fa ba
       0.012356032 0.0012234197 0.008912241 -0.0019104519
000070 92 db 6c ba 32 44 30 bb 66 19 fe b8 6e 0b 31 3c
       -0.0009035404 -0.0026896116 -0.00012116395 0.010805948
000080 e8 b7 2f 3b 30 30 84 3b 19 3d 0c bc 1c 62 60 bb
       0.0026812498 0.0040340647 -0.008559489 -0.0034238165
000090 d1 79 1f bc 59 fb 79 3b 2e 0f cc b9 cf cf 7c 3b
       -0.009733633 0.00381442 -0.00038921222 0.0038576012
0000a0 49 fa ed ba aa 9b 37 ba 48 68 0d 3c 0f de e0 bb
       -0.0018156256 -0.0007004092 0.00863082 -0.006862409
0000b0 04 a6 f9 3b 69 d1 84 3b ad d0 7e 3c d9 64 b4 3b
       0.0076186676 0.004053284 0.015552682 0.005505186
0000c0 f9 94 f6 3b 69 17 9f 3b 93 02 ca 3b a7 b3 39 3c
       0.007525083 0.0048550856 0.0061648577 0.011334336
0000d0 24 4d 8b bb dd 84 1d 3b dd 91 15 3a c7 2c bc ba
       -0.0042511392 0.0024035492 0.0005705634 -0.0014356606
0000e0 09 91 5e bb d9 fb 45 bc f3 30 de 3b 3b 26 53 3a
       -0.003396096 -0.012083971 0.0067807375 0.0008054708
0000f0 56 67 36 3c de 2e 95 3a e9 48 57 b9 fa 4c 5c 39
       0.011133036 0.0011381765 -0.00020531159 0.00021009511
000100 3f ab 15 3c ec 0c 46 3b 43 75 3d b9 b3 52 fa ba
       0.0091350665 0.0030220104 -0.00018068128 -0.0019098133
000110 56 7b b1 39 f9 79 1b 3c d0 d2 8b 3c b0 01 79 39
       0.00033851963 0.00948953 0.017068297 0.00023747119
000120 73 16 48 3b a0 73 58 af 70 30 fd 3b 15 bb bd ba
       0.003053096 -1.9686164e-10 0.0077267215 -0.001447531
000130 06 bd 9e 3a ec 8c 7f 3a a2 70 09 3b 02 8d cf 38
       0.0012110777 0.0009748477 0.0020971675 9.896794e-05
000140 04 c8 1f 3b 6a c6 3a 3c ae 88 e3 3b 81 31 a3 bb
       0.0024380693 0.011399845 0.0069437837 -0.0049802666
000150 09 2b 0b 3a 23 37 cb bb 6d 6a 08 3b 36 ad 34 3c
       0.0005308842 -0.006201641 0.0020815388 0.011027625
000160 36 d9 e5 3a 9b db 0b 39 ef 03 c3 b7 87 be 8e bb
       0.0017536047 0.00013337882 -2.3247643e-05 -0.0043562087
000170 7b 30 3f 3c 79 85 44 ba 01 ac b6 bb 56 b3 05 bb
       0.0116692735 -0.00074966956 -0.0055747037 -0.0020401082
000180 18 9c a9 3a 07 e5 9a ba 6b 85 78 3b 2d 1d 2e bb
       0.0012940196 -0.0011817523 0.003792132 -0.0026567683
000190 5c ac 73 bb 56 cb b9 3a 42 40 9a 3b ca 31 4f 3b
       -0.0037181592 0.0014174979 0.004707367 0.003161537
0001a0 4c 70 b6 b9 1f 11 27 3a f8 5b 9b bb f5 5c 40 3b
       -0.00034797413 0.00063730957 -0.004741188 0.0029352282
0001b0 4c 20 1e 3b f9 7b fb ba 1a 10 52 3b 7e fc 3a 3b
       0.0024128137 -0.0019186727 0.0032053054 0.0028531845
0001c0 88 4e 01 3c cf 9d b9 bb 63 e3 01 bc 70 d1 f0 bb
       0.007892258 -0.005664564 -0.007927748 -0.0073491856
0001d0 25 0d 92 b8 20 e4 9c 3b f6 76 2a ba 58 5f 1c 3c
       -6.964271e-05 0.004787937 -0.0006502712 0.009544216
0001e0 dd 9d fb b7 93 d7 65 3a 95 95 fa ba fb 4c 55 bb
       -2.9995042e-05 0.000876778 -0.0019118065 -0.0032547105
0001f0 4b 73 08 3b 44 3d 36 3c 3a 5f 62 b5 79 41 96 3a
       0.0020820673 0.011123005 -8.4330134e-07 0.0011463604
000200 13 96 30 3b e4 ee 2a b8 92 0b e7 bb 8e d3 a0 3b
       0.002694492 -4.0753643e-05 -0.00705094 0.004908032
000210 99 99 4a 3c ba 7d 69 3b fc a2 43 bb d8 ae 8b ba
       0.012365722 0.0035627917 -0.0029851785 -0.0010656966
000220 18 63 1c 3b dc b3 14 3c e4 63 c5 ba aa 04 b8 3a
       0.0023862775 0.009076085 -0.0015059677 0.0014039476
000230 d9 90 1a 3c 34 30 ed 3a 96 80 22 3b cb fa 9d 3b
       0.009433948 0.0018096031 0.0024795881 0.0048211566
000240 0d de be 3a e7 8d 66 bb c6 21 04 3d 83 33 85 3c
       0.0014562026 -0.0035179795 0.03225877 0.016259914
000250 ab 7d db bb ba 48 51 3c e5 8c d0 bd c4 73 df bc
       -0.0066983304 0.012773687 -0.101831235 -0.027276881
000260 b3 cf 27 3c 43 02 e6 3a ae 58 1a bd 1c 58 51 bc
       0.01024239 0.0017548281 -0.037682228 -0.012777355
000270 62 b9 07 3b 22 82 a9 b9 c3 a3 de bc ec 81 d6 bc
       0.0020709862 -0.00032331148 -0.027177697 -0.026184998
000280 14 58 86 bb de 15 87 3b 74 4d a9 ba 30 47 f7 3a
       -0.004099855 0.00412248 -0.001291676 0.001886582
000290 1a fd 75 3b a5 e9 80 ba c8 80 a0 b9 cc be 01 3c
       0.0037534893 -0.0009835256 -0.00030613528 0.007919025
0002a0 61 cd 75 bb f6 c4 4f 3b 1a f6 a9 ba 0a 6e 3e 3b
       -0.0037506449 0.0031703091 -0.0012967021 0.0029057288
0002b0 6d f5 8a 3a a5 92 cb 3b 80 b5 29 3b 3e a9 f0 ba
       0.0010601707 0.0062125497 0.0025895536 -0.0018360985
0002c0 3c 48 2b bb 6a f9 23 3c 55 a2 8c bb b2 15 3b bb
       -0.0026135584 0.010008195 -0.0042918124 -0.0028546867
0002d0 b0 4b 8a b9 0d 6b 68 3b de 2e e3 ba 7b 97 5b bc
       -0.00026377803 0.0035464198 -0.0017332693 -0.013402815
0002e0 36 77 b1 3a 88 39 14 3b e3 09 a2 3a 44 22 29 bb
       0.0013539556 0.00226173 0.0012362566 -0.0025807777
0002f0 98 74 ca ba ce 38 2b 3a c8 b5 08 3b 6d d2 6e ba
       -0.0015446125 0.0006531597 0.0020860303 -0.00091103354
000300 93 00 76 3b c8 40 a1 3b a3 bc 4f 3a b6 ef 86 ba
       0.0037536963 0.0049210526 0.00079245324 -0.0010294828
000310 78 ff c3 bb 29 2e 2d 3b dd 49 80 3c 8b 46 19 bb
       -0.005981382 0.0026425219 0.01566022 -0.0023387994
000320 9e d8 a8 39 ac 3d 69 3a 01 7e 97 36 74 33 a4 b7
       0.0003220485 0.00088974345 4.5148195e-06 -1.9574283e-05
000330 63 89 97 39 73 15 b0 3a d7 99 d7 bb 65 51 cf ba
       0.00028903325 0.0013434127 -0.0065796184 -0.0015817104
000340 08 9d fd ba 23 24 b7 b9 0d 30 a5 bc bf b7 0a 3c
       -0.0019349167 -0.00034931404 -0.020164514 0.00846666
000350 f8 17 32 ba c9 4d ac 3b e2 1b c3 35 72 9b 39 bb
       -0.0006793733 0.005258296 1.4536747e-06 -0.0028321412
000360 e1 e6 a9 b8 65 dc 1a bb f3 bd a1 ba 70 ac 75 ba
       -8.1015525e-05 -0.00236299 -0.0012339934 -0.00093717035
000370 5d 1c 47 39 9c 2f 88 b9 41 23 26 3b 9b c8 97 bb
       0.00018988685 -0.00025975413 0.0025350603 -0.0046320683
000380 70 3a 6f bb 73 5c 34 3b 5b 96 eb 3a f7 1e 5c 3a
       -0.0036503337 0.0027520924 0.0017973887 0.0008396948
000390 ce ef 41 3a cc ed e9 b8 46 26 44 3a b5 38 a7 b6
       0.00073980994 -0.00011154599 0.000748251 -4.9835894e-06
0003a0 ee 8f 3f bb ef 6a 30 bb 31 25 df b9 9f ab 33 bb
       -0.0029230076 -0.0026919206 -0.00042561584 -0.0027415527
0003b0 10 a9 54 bc 2e a1 4c bb 95 b3 38 ba 61 a2 bc 3b
       -0.012979761 -0.0031224 -0.0007045803 0.0057566618
0003c0 60 a5 9b 3a d1 2a ee bb 56 f3 0a bb 09 77 28 3a
       0.0011874847 -0.0072682877 -0.0021202168 0.0006426429
0003d0 97 d0 9e bb c1 54 d0 37 6d f8 cc b9 40 92 9e 3a
       -0.004846643 2.4834999e-05 -0.00039095004 0.0012098029
0003e0 f0 c7 10 3a 47 53 d9 3b 0d 27 ad 39 a2 f8 1c bb
       0.0005522957 0.006632242 0.00033026226 -0.0023951908
0003f0 33 54 17 bb 2d 7c 5f 3c 3c a2 46 bb ea a8 b2 3b
       -0.0023090958 0.013640446 -0.0030309102 0.005452265

h1.bias f4 [10]
000000 ed b9 c6 3b ee 4b c9 3b be e2 3f 3b c5 57 b5 3b
       0.0060646445 0.0061430847 0.0029279436 0.0055341446
000010 ae 27 64 3a 02 36 09 3c 5b be bf 3a 44 be 26 bc
       0.00087034225 0.008374693 0.0014628874 -0.010177199
000020 f4 8a e7 bb d9 20 57 bc
       -0.007066125 -0.01313039

h2.weight f4 [10, 10]
000000 3d 4b 77 be 7c 61 a3 bd 3d 80 a2 3d ff 95 94 bd
       -0.24149795 -0.07977578 0.07934616 -0.07255172
000010 cf cf 2c be cf 94 02 be 6f b7 91 be 5c 9a aa 3e
       -0.16876148 -0.12752078 -0.2846026 0.33320892
000020 3f dd 88 3e ea 51 1c bc 90 e8 a8 3d 9b 31 b2 bd
       0.26731297 -0.009541014 0.08247483 -0.08700868
000030 a1 8a 95 3e 8e 8c 56 3d 10 b6 8c bd f6 fb 81 3d
       0.29207328 0.052380137 -0.06870663 0.06346886
000040 53 8f 06 bd 61 25 b2 be 1a 8e 16 3d d4 82 8a bd
       -0.03285153 -0.34794143 0.036756612 -0.06763235
000050 1b 6d ce bd 6c b9 1d 3e 6e 01 2f bd c1 50 83 3e
       -0.10079404 0.15402764 -0.042725973 0.25647548
000060 43 e0 67 be 07 2f 11 3e e3 a1 89 be 3a 95 8a be
       -0.22644143 0.14178096 -0.26881322 -0.27066976
000070 89 14 8f bd d2 b0 01 bf f3 32 31 be a8 67 25 bc
       -0.06986339 -0.5066043 -0.17304592 -0.010095514
000080 f7 3b 40 be e5 dd b0 3d 58 4b 92 3d dd 8f 97 be
       -0.18772875 0.08636073 0.07143277 -0.29601946
000090 cd d1 a5 3d e7 c4 a1 be 6b 73 d6 bd 4f a2 a3 3e
       0.08096657 -0.31595537 -0.10471233 0.3195977
0000a0 b6 bb a5 3e d8 3b ab bc eb 08 60 be 4d 7c e1 3d
       0.32369775 -0.02090256 -0.21878402 0.110100366
0000b0 39 50 46 3e 80 40 5a 3e e7 a7 2a be 00 0c cf 3e
       0.1936654 0.21313667 -0.16665612 0.40438843
0000c0 bb 56 95 3d e4 45 03 3e 25 3e b2 3b 27 e2 1b be
       0.07291933 0.1281963 0.005439537 -0.15222989
0000d0 e0 16 21 be 04 3b 96 3e 34 77 80 be 34 7f ae bc
       -0.15731382 0.293419 -0.25090945 -0.02130089
0000e0 bb 27 83 3d 68 e4 be be f7 6a c5 bd 24 b8 74 3e
       0.06404062 -0.37283635 -0.096395425 0.23898369
0000f0 6b 77 a8 3e 59 cd 01 3e d5 92 e5 3d 19 76 85 bd
       0.3290361 0.1267599 0.112096466 -0.06516666
000100 2f b6 61 be bb ad 86 3d 08 94 38 be a1 b1 6f 3d
       -0.22042154 0.06576105 -0.1802522 0.05851901
000110 16 80 c8 bc 74 5d 29 bd a9 7f 23 be 36 79 f4 3c
       -0.024475139 -0.04134889 -0.15966667 0.029842954
000120 1a 88 9d 3d 2e fa 95 be e3 0d 85 bc 59 01 a2 bd
       0.07691975 -0.29292434 -0.016241973 -0.07910413
000130 88 36 8d 3d 18 79 cb 3e b5 35 69 bd d2 43 6d 3c
       0.06895167 0.39740825 -0.056935985 0.014481502
000140 a2 43 11 be 0f 8f 02 3e 1d ef 1e be 2d 12 22 3d
       -0.14185956 0.12749885 -0.15520902 0.039568115
000150 a8 f7 dd bc 67 46 9f 3c 17 cd d4 bc db d8 f8 bc
       -0.02709563 0.01944275 -0.0259767 -0.030376842
000160 f1 33 ee bd 5f 9f ab be be 7f 62 3e ea a0 b9 bd
       -0.11631001 -0.33520028 0.22119042 -0.09063895
000170 39 10 c0 be 04 d7 4c be 33 4b e1 bd 20 05 08 be
       -0.37512377 -0.20003897 -0.11000671 -0.13283205
000180 0d 34 61 bd f3 38 3c 3f 0b 97 21 be 42 aa 26 3e
       -0.05498128 0.735244 -0.15780275 0.16275886

h2.bias f4 [10]
000000 24 48 13 3c 71 01 69 bd 91 8b 86 be c0 21 f7 bd
       0.008989368 -0.05688614 -0.26278356 -0.12066984
000010 33 83 85 3d 75 3b 70 bd 8a dd 35 3e da 34 15 bd
       0.06519165 -0.058650453 0.17760292 -0.036427356
000020 41 f9 3a be e6 63 e4 3d
       -0.18259145 0.111518666

h3.weight f4 [10, 10]
000000 3a 01 8d be 30 b7 1e 3e 2c 79 e7 bd fa a8 54 3e
       -0.27539998 0.15499568 -0.113024086 0.20767584
000010 00 c8 dc bb 99 8e 1f be bb 8b 94 3e 3a fb 83 be
       -0.006737709 -0.1558174 0.29012856 -0.25777608
000020 0c 9b 00 be 22 66 4e be 9f 8a 38 be a8 3d f9 3d
       -0.12559146 -0.20156148 -0.1802163 0.12169963
000030 27 60 82 3e e0 ee 63 3c aa 02 cd bd 94 8c c7 bd
       0.25463983 0.013911933 -0.10010274 -0.0974361
000040 6e 97 72 3e 0a c2 08 be b8 c3 f6 3d 1a a2 92 be
       0.23690578 -0.1335527 0.12049049 -0.286393
000050 7f d9 8a be d7 99 a1 be b4 0a 89 be 8b 9c 80 3e
       -0.2711906 -0.31562683 -0.26765978 0.25119433
000060 a8 05 05 3d 6f 8d 87 3e ce b0 08 3e b0 aa 88 be
       0.032476097 0.26475093 0.13348696 -0.26692724
000070 9a ca 9f be 51 04 8e be 46 97 31 be 7e 12 5b 3e
       -0.3120926 -0.27737668 -0.17342862 0.21393773
000080 50 dd ad bc f4 f7 c7 3d 48 4c 29 be 0b be 88 be
       -0.021223694 0.0976409 -0.16533005 -0.2670749
000090 38 38 8d be fc cb 00 3e 7f 74 15 be 90 2e 84 3c
       -0.27581954 0.12577814 -0.14595221 0.016135484
0000a0 e4 81 e8 bd 2f 5b 14 be 0c 0d 0b 3e c2 b2 49 3e
       -0.113529 -0.14487909 0.13579196 0.19697097
0000b0 8a eb 88 be 40 2a fa bb 04 aa 30 be e6 9d 4e be
       -0.26742202 -0.007634431 -0.17252356 -0.20177421
0000c0 50 04 68 be bc 11 a9 3d 48 71 3d be 10 3f 33 3e
       -0.22657895 0.08255336 -0.18500245 0.17504525
0000d0 27 9d a0 3e 9f ff 86 3e ae e8 18 be dd d6 64 be
       0.31369898 0.26366898 -0.1493251 -0.22347589
0000e0 d2 ef 9b bd 72 52 3f 3e c0 6b 6e 3c 8e 3e e2 bd
       -0.076141015 0.18683794 0.014552057 -0.110470876
0000f0 80 aa 1b be 61 a4 a1 3e 82 2d b6 bd e7 c6 88 3e
       -0.1520176 0.31570724 -0.08895399 0.2671425
000100 58 a3 8c 3d 2c 19 8d be a5 66 80 3e 2e 92 70 be
       0.06867093 -0.27558267 0.25078312 -0.23493263
000110 c7 d8 92 3e 60 95 8d 3c 03 b5 21 be 00 f2 f5 3b
       0.28681013 0.017283142 -0.15791707 0.0075056553
000120 00 d3 94 ba f1 79 9c be dc b3 8d be c0 37 7c 3d
       -0.0011354387 -0.30561784 -0.27676284 0.061576605
000130 bd ce 8f 3e 58 25 47 be f7 41 96 3e d1 e5 9b be
       0.28087416 -0.1944784 0.29347202 -0.30448774
000140 cb 13 97 be c0 1a ea bc ad 5e 5f be 93 82 1b be
       -0.29507288 -0.028577209 -0.2181346 -0.15186529
000150 e2 10 9e bd eb 11 88 3e 4f 6e 92 3e a6 24 66 3e
       -0.07718064 0.2657617 0.28599784 0.22474918
000160 80 d9 b3 3b f7 83 8a 3e 4e 75 1f 3e 34 ac 07 3e
       0.0054885745 0.27053806 0.15572092 0.13249284
000170 a0 7a 2c bc 9e b3 d8 bd 44 e9 d8 3d 48 aa 8f 3d
       -0.010527283 -0.10581134 0.10591367 0.070149004
000180 28 02 5e 3d 62 5c 5b 3e 76 04 27 3e a3 3e 25 be
       0.054201275 0.2142196 0.16310295 -0.16137175

h3.bias f4 [10]
000000 34 26 81 bd 2e 84 08 3e 8e f0 2f 3e c0 7c 31 3d
       -0.06306115 0.13331673 0.17181608 0.04333186
000010 26 96 43 3e f0 ef bd 3d 95 b0 76 be 10 12 be bd
       0.19100246 0.0927428 -0.24090798 -0.09280789
000020 88 64 04 bd ed 77 88 3e
       -0.032322437 0.26653996

h4.weight f4 [10, 10]
000000 a3 5c 93 3e d0 2f 98 3d d8 0c 2f 3e fe 2a 08 3e
       0.28781614 0.074309945 0.17094743 0.1329765
000010 58 b9 06 3d 40 d6 00 3c 82 0b d9 bd db 70 8e be
       0.0328916 0.007863581 -0.10597898 -0.27820477
000020 00 7e c5 3a ea 2b 3c be 5f 54 89 3e 57 a3 0c be
       0.0015067458 -0.18376127 0.26822183 -0.13734184
000030 ba 64 50 3e 19 97 84 3e 51 a3 83 3e 1c 70 f3 bd
       0.20350924 0.25896528 0.25710538 -0.118866175
000040 20 0a 1f 3c c8 31 ba 3d 22 47 b8 bd 9e 29 d3 bd
       0.009707004 0.09091526 -0.089979425 -0.10310672
000050 78 a8 c4 bd 53 83 83 3e e2 3f 5e 3e 04 95 3d be
       -0.09602445 0.2568613 0.21704057 -0.18513876
000060 10 7b 0e 3d de b4 4c 3e 0a bd 4b 3e 60 74 60 3c
       0.03478533 0.1999087 0.19896331 0.013699621
000070 56 fc cc bd c0 0e 07 3c 68 72 44 3d 88 be 17 bd
       -0.10009067 0.008243263 0.04796067 -0.03704694
000080 a9 d2 25 be 93 26 9a 3e 37 f7 5d be ba d6 60 3e
       -0.16193642 0.30107555 -0.21676336 0.21956912
000090 8f 35 8c 3e af b3 9d 3e f6 4a 5e 3e 61 c0 8a be
       0.27384612 0.3080115 0.21708283 -0.27099898
0000a0 42 d6 46 3e 2a 1c 3c 3e 66 57 a1 bd 66 b2 af bd
       0.1941767 0.18370119 -0.07877998 -0.08578949
0000b0 77 ca 53 be 03 97 9e be 0c c3 a0 3d a2 9d 55 be
       -0.20682703 -0.30974588 0.07849702 -0.20860913
0000c0 88 df ab 3d 00 9b a9 bd b8 3a 36 3e 60 9d 1c 3e
       0.083922446 -0.08281517 0.17795837 0.15294409
0000d0 7a e0 1d 3e e0 b3 d1 3c 8e b6 71 3e 68 bf 9b 3d
       0.15417662 0.025598466 0.23604795 0.07604867
0000e0 25 4c 38 be 3a bd 00 be 54 18 02 be 1e 44 41 3e
       -0.17997797 -0.12572184 -0.12704593 0.18873641
0000f0 98 a7 93 bd 56 dc c8 bd 95 f6 88 be 34 74 b0 3d
       -0.072097 -0.09807651 -0.26750627 0.08615914
000100 e1 e6 99 3e 90 00 1c 3d b0 3c 2d 3d 8c 56 11 3e
       0.3005896 0.038086474 0.042294204 0.14193171
000110 88 7d 7e 3d 05 fa 88 3e 80 f0 59 3c 60 7d 78 3d
       0.062131435 0.2675325 0.013301969 0.060666442
000120 93 b6 89 be 83 bc 97 3e d6 af 49 3e 80 8a e6 3d
       -0.26897106 0.2963601 0.19695982 0.112568855
000130 61 49 82 3e ce cc 44 be 58 b0 7b be 76 0f 67 3e
       0.2544661 -0.19218752 -0.24578989 0.22564492
000140 ea 25 23 3e 5c 41 81 be ad f7 84 be 80 19 44 3d
       0.15932432 -0.25245178 -0.25970212 0.04787588
000150 9c 8a 3a 3e 12 bd 7a 3e 8a cf 58 be 3d b8 3a be
       0.18216938 0.24486187 -0.2117292 -0.18234344
000160 ce c2 6f 3e b0 f3 b7 bc 6c 8b af 3d 34 fe 0d be
       0.23414156 -0.022455066 0.085715145 -0.13866502
000170 ea 41 48 be 10 c1 8f bc 06 4b 67 3e ad ab 33 be
       -0.19556394 -0.017548114 0.22587213 -0.17545958
000180 f8 cb 84 bd 32 77 3d 3e ee d3 58 3e f4 b4 07 3e
       -0.064842165 0.185025 0.21174595 0.13252622

h4.bias f4 [10]
000000 d8 7b 91 3d 80 d0 11 bc 0d 8c 3b be ba 29 af bd
       0.071036994 -0.008899808 -0.18315144 -0.085528806
000010 2e 3d 5b be 36 2c 2e 3e 26 c8 42 3e ec 39 dd bd
       -0.21410057 0.17009053 0.19021663 -0.10802063
000020 58 e8 60 bd a4 25 86 bd
       -0.05490908 -0.06550148

h5.weight f4 [10, 10]
000000 59 f7 90 3e 92 8e 59 3e 86 b5 d6 bd f6 f8 3b be
       0.2831371 0.21245793 -0.104838416 -0.1835669
000010 47 bf 9d be 32 49 f6 bd 30 17 d3 3c 18 fc 0c 3d
       -0.30809996 -0.1202568 0.025767893 0.034420103
000020 90 30 dd 3c ac 55 15 3e 86 ed 1f 3e 06 3f ea bd
       0.027000695 0.14583462 0.15617952 -0.11437802
000030 03 0d 88 3e 16 88 23 3e 69 db 80 3e a2 ec 74 be
       0.26572427 0.15969881 0.25167397 -0.23918393
000040 9d 8a 82 3e 43 9a 8b 3e d4 4b 26 be da 57 7f 3e
       0.2549638 0.2726613 -0.16239864 0.24935856
000050 12 f9 6c 3e 92 d6 b0 bd 71 15 2c be b1 44 94 be
       0.23141888 -0.08634676 -0.16805054 -0.28958657
000060 ae 1a 55 3e 3c 07 37 3e be dd 6b 3e 66 bf e1 bd
       0.20810959 0.17873853 0.23033807 -0.110228345
000070 60 b0 2a 3c e7 9e 92 be df bf 97 3e a0 9f 95 3d
       0.010418028 -0.28636858 0.29638574 0.07305837
000080 2b ee 88 be c5 ed 92 3e da d5 28 3e 74 dd 81 bd
       -0.26744208 0.2869703 0.16487828 -0.06341067
000090 55 c8 8a be 44 1d 81 be 16 81 6d 3e d0 19 14 bd
       -0.27105966 -0.2521764 0.23193774 -0.03615743
0000a0 95 23 1d be f6 ca 46 3e 5c 92 1c 3e fc ba af 3d
       -0.15345605 0.19413361 0.15290207 0.08580586
0000b0 10 74 fe bc 62 7e 64 3e f3 ac 93 3e 2e b4 79 3e
       -0.031061202 0.22313836 0.28842887 0.2438514
0000c0 6d b1 98 3e 20 b6 49 3c 70 b2 bf bc 4e 92 31 3e
       0.29822865 0.012311488 -0.023400515 0.17340967
0000d0 13 de 4d be 29 6e 8d 3e ce 70 61 3e 28 24 4c be
       -0.20104246 0.27623108 0.22015688 -0.19935668
0000e0 26 c7 83 be fa 2f 2a 3e 00 94 19 3b d9 2f 81 3e
       -0.25737876 0.16619864 0.0023434162 0.25231817
0000f0 8c 07 1a 3e a8 ee 1d bd c6 56 7b 3e 50 77 a9 3c
       0.15041941 -0.03855768 0.2454482 0.020686775
000100 e6 3d 79 3e c2 59 33 3e ad e4 84 3e 10 95 d0 3c
       0.24340019 0.17514709 0.25955716 0.025461704
000110 54 b4 71 be 40 0a 53 3c 7c 3c 10 be b0 07 e0 bc
       -0.23603946 0.012880862 -0.14085573 -0.027347416
000120 a4 02 15 3e f0 3a 28 bd de 7c 6e be 06 3e 76 3e
       0.14551789 -0.041071832 -0.2328982 0.24047098
000130 c4 7f 82 be c0 3a d9 bd b0 99 86 be 4f 23 86 3e
       -0.25488102 -0.10606909 -0.2628913 0.26198813
000140 6b 05 86 be 92 6b 5f be c6 77 9f be d5 5a 27 be
       -0.2617601 -0.21818379 -0.31146067 -0.16343243
000150 9b 92 8d be e8 69 41 be f1 fb 89 be 0a a6 7a 3e
       -0.27650914 -0.18888056 -0.2695003 0.24477401
000160 85 fc 8a 3e dc 80 59 be 5c 14 2b 3e 7e fb 1c 3e
       0.27145782 -0.21240562 0.16706985 0.15330312
000170 b6 79 06 be d0 f6 c0 3c b0 91 0f 3d 3c 3a df bd
       -0.13132367 0.02355519 0.035051048 -0.10899779
000180 08 99 16 bd cc 2b 31 be 82 01 5f be 25 96 08 be
       -0.036767036 -0.17301863 -0.21777919 -0.13338526

h5.bias f4 [10]
000000 56 94 3c 3e f0 9d 82 bd 28 86 70 3d 7a 76 76 be
       0.1841596 -0.063777804 0.05872169 -0.24068633
000010 d0 dd 90 be e5 90 09 be 26 64 47 3e a0 26 db 3c
       -0.2829423 -0.13434179 0.19471797 0.026751816
000020 ec e4 01 3e c5 81 80 3e
       0.12684983 0.25099006

h6.weight f4 [10, 10]
000000 e8 f7 2d be 54 f6 18 3e 2e e9 3e 3e 9e 73 22 be
       -0.169891 0.14937717 0.18643638 -0.15864417
000010 72 06 44 3e b3 52 2a be 40 7d 39 bc 86 ff 42 3e
       0.19143084 -0.1663311 -0.011321366 0.19042787
000020 1a 00 9f be 90 a5 47 bd f6 d3 5e 3e 2b 7f 93 be
       -0.31054765 -0.048741877 0.21760544 -0.2880796
000030 1e ef 3d 3e 2a 49 53 3e 08 5b 20 3e bc c4 be bd
       0.18548247 0.20633379 0.15659726 -0.09314868
000040 b0 72 bd 3d 00 28 4e be 46 ff 5d 3e a8 95 0f 3d
       0.092503905 -0.20132446 0.2167941 0.035054833
000050 41 dc 8c be 4e 11 62 be 92 c6 40 3e 70 e4 f7 bc
       -0.2751179 -0.22076914 0.18825749 -0.030260295
000060 00 98 85 39 b8 8b 12 3e 08 ec 68 bd 98 5b db 3d
       0.00025480986 0.14311111 -0.056865722 0.107108295
000070 d8 53 b9 3d 6a 56 f5 bd 94 a6 01 3e 50 00 2b 3d
       0.09049195 -0.11979373 0.12661201 0.041748345
000080 74 0b af 3d 94 a9 5b be 06 d7 df bd a1 74 81 3e
       0.085471064 -0.21451408 -0.10929684 0.25284293
000090 f9 0c 94 3e 56 d3 d4 bd 10 88 c1 bc d5 f3 a0 3e
       0.28916147 -0.10391872 -0.02362445 0.3143603
0000a0 c1 6f 9d be ea 3b 79 be 50 f8 b0 bc 40 28 48 3c
       -0.30749324 -0.24339262 -0.02160278 0.012216628
0000b0 b4 7a c3 3d b0 df b9 bc c0 61 1c 3d 50 82 35 3d
       0.09544888 -0.02268967 0.03817916 0.04431373
0000c0 fa 80 90 be fc e4 d1 bd 92 e9 6a be c8 8d 6e bd
       -0.282234 -0.102487534 -0.22940663 -0.058240682
0000d0 66 3d 49 be 02 bd 8b be 89 ef 9c 3e 14 81 ee bd
       -0.19652328 -0.2729264 0.306515 -0.116457134
0000e0 b8 41 e2 bd 12 3b d1 bd c0 be d3 bc 88 22 16 3e
       -0.11047691 -0.10216345 -0.025847793 0.1466161
0000f0 46 6e 7f 3e b5 de 93 be 72 0e 1c be 78 e8 00 3d
       0.2494441 -0.2888085 -0.15239885 0.0314717
000100 45 42 19 be 11 eb 89 3e be fb 6b 3e 12 e4 45 be
       -0.14966686 0.26937154 0.23045251 -0.19325283
000110 5d d0 91 3e f0 fe 97 bc d2 10 3d 3e 50 d7 e4 3d
       0.2847928 -0.01855418 0.18463448 0.1117388
000120 03 42 9b be fe ff 81 be d0 c2 18 bd 0b 77 84 3e
       -0.303238 -0.2539062 -0.037295163 0.25872073
000130 0e c5 e2 bd 1a 0c 7a 3e 80 1a a0 bc 00 ae f5 bc
       -0.110727414 0.24418679 -0.019543886 -0.029990196
000140 5c 58 d6 3d 60 51 5f be 60 c8 76 bd 20 c5 a7 3c
       0.10466072 -0.21808386 -0.060249686 0.020479739
000150 4b 06 59 be 00 7f 56 3b cc 68 5e be 60 49 3b be
       -0.21193807 0.0032729506 -0.21719664 -0.18289709
000160 fd 26 8d 3e f6 8f a1 bd 20 1f f7 bd c6 bd 11 3e
       0.27568808 -0.078887865 -0.120664835 0.14232549
000170 b0 04 39 3d cd 35 93 be 72 f9 72 be 92 70 6f 3e
       0.045170486 -0.28751984 -0.23727968 0.23382786
000180 78 d6 12 bd 9c 31 f1 3d b7 42 97 3e 6e b4 0e 3e
       -0.035849065 0.1177704 0.29543087 0.13936016

h6.bias f4 [10]
000000 af 9f 86 3e 2b 52 44 be 68 36 0f 3d 10 47 e9 3d
       0.26293704 -0.1917197 0.034963995 0.11390507
000010 12 ab 67 3e 0c aa 99 3d b7 e1 9f be c9 ca 93 be
       0.22623852 0.07503137 -0.31226894 -0.2886565
000020 4e ec 20 be 99 23 3d be
       -0.15715143 -0.1847061

h7.weight f4 [10, 10]
000000 6e bd 79 be 21 10 a0 3e 1e e9 45 3e 40 94 2a bc
       -0.24388668 0.31262305 0.19327208 -0.010411322
000010 c0 dc 6f 3d 4c 75 4d be d5 10 65 be ec 01 9d be
       0.058560133 -0.20064276 -0.22369702 -0.3066553
000020 90 0b 4b be b6 7d 42 3e e3 dd 8b be 7c 4f 9d 3d
       -0.1982863 0.18993267 -0.27317724 0.07681176
000030 24 97 0e be 1c 3d be 3d 14 10 2c be 00 54 2a ba
       -0.13924843 0.092889994 -0.16803008 -0.00064975023
000040 b6 6b 5f 3e 60 6a 1c bc 70 e8 9d bc 3e 6c 5b be
       0.21818432 -0.009546846 -0.019275874 -0.2142801
000050 88 ea 6b be f4 4c 30 3e 0a b3 43 3e da 57 9d be
       -0.23038685 0.17216855 0.19111267 -0.30731088
000060 7c f1 2b 3e 80 05 84 3b 2b 7c 24 be 46 41 f4 bd
       0.16791338 0.004028976 -0.16062991 -0.119265124
000070 96 85 42 3e d8 96 2a 3e 88 39 32 bd 48 8e 81 be
       0.18996271 0.16659105 -0.043511897 -0.25303864
000080 88 82 6b 3d 6e 73 6a 3e c8 a8 d7 bd f6 1b 65 3e
       0.05749753 0.22895595 -0.10530239 0.22373948
000090 00 55 9f bb a2 31 10 3e e4 b0 af 3d ba a4 47 3e
       -0.0048624277 0.14081433 0.08578661 0.19496432
0000a0 e2 20 8d be 61 2c 31 be df ed 9d 3e c7 e6 96 be
       -0.2756415 -0.17302085 0.30845544 -0.29472944
0000b0 33 be 27 be bc dd 17 be 88 0f 0f be 58 12 11 3d
       -0.16381149 -0.14830679 -0.13970768 0.035417885
0000c0 60 c5 a5 3d c0 36 14 3c 34 4d 47 be ac 6a a0 be
       0.08094287 0.009046257 -0.19463044 -0.31331384
0000d0 8c 2c 66 be c0 a0 96 3c c6 de 0c 3e c4 a0 16 3e
       -0.22477931 0.018387198 0.13756856 0.14709765
0000e0 c0 31 dc 3b e8 2a 31 3e 0f f4 8f be 4f 55 88 be
       0.006719798 0.17301524 -0.2811589 -0.26627585
0000f0 68 4f f3 bd 10 8a 2c bd 78 3c dd bd 5f 0c 88 3e
       -0.1188038 -0.042123854 -0.10802549 0.26571938
000100 f0 c9 ca bc 28 35 d0 bd 32 52 60 3e 53 7a 95 3e
       -0.024754494 -0.10166389 0.21906355 0.29194888
000110 4e 6e 7a 3e c0 2d 8b 3c e0 ed 04 3c fc cc 83 bd
       0.2445614 0.016989589 0.008113354 -0.06435582
000120 36 5e 93 be 80 70 f3 3b d8 13 04 3e 08 de 0b 3e
       -0.28782815 0.0074291825 0.12898195 0.13658917
000130 e0 64 8a bd c8 d1 d9 3d 08 95 cf bd c0 a9 c2 3c
       -0.06757522 0.10635716 -0.10135847 0.023762584
000140 12 96 81 be 2d 0e 35 be 16 72 52 3e d4 c1 53 be
       -0.25309807 -0.17681189 0.20551333 -0.20679408
000150 9a 98 ef bd c0 0f da bb 2c 95 ea 3d b3 75 98 be
       -0.11699028 -0.0066547096 0.114542335 -0.29777297
000160 ae 79 5f 3e 44 e6 24 3e d0 fa 82 3d 76 55 49 3e
       0.21823761 0.16103464 0.06395495 0.19661507
000170 09 d8 83 3e 80 50 36 3c 2d 5b 87 3e 60 e2 6c 3c
       0.2575076 0.011127591 0.2643675 0.014458269
000180 6f 84 6a be 1f 4d 8f 3e 92 35 64 be 30 da 17 3e
       -0.22902082 0.27988526 -0.2228606 0.14829326

h7.bias f4 [10]
000000 15 89 37 be b8 f0 43 be 9a 3c 45 3e df 0c 52 be
       -0.17923386 -0.19134796 0.19261399 -0.20512722
000010 ca 2e 7f 3e da 8d a1 be 88 1d ff 3d 30 51 f7 3d
       0.24920192 -0.31553537 0.124568045 0.12076032
000020 35 c4 96 be e8 53 47 3d
       -0.2944657 0.048664004

h8.weight f4 [10, 10]
000000 a1 78 83 3e 62 d8 06 3e df 5c 6b be b7 0c 71 be
       0.2567797 0.13168481 -0.22984646 -0.23540007
000010 da 53 3b be 8e 51 c9 bd 8a a5 20 be ea f4 73 3e
       -0.18293706 -0.098300084 -0.15688148 0.23823896
000020 13 01 9a 3e 28 29 9b 3d 40 22 18 bc a8 85 09 3e
       0.30078945 0.07576209 -0.00928551 0.13429892
000030 df 70 98 3e 36 77 63 be dc 4c f4 3d 58 04 29 3d
       0.29773614 -0.22213444 0.11928722 0.04126391
000040 42 6c 60 3e ff 05 89 be aa e4 7d 3e b2 fa 4c be
       0.21916297 -0.26762387 0.2479426 -0.20017508
000050 f6 fd 7f 3e ae 63 a6 bd 9f 38 a0 3e a7 d9 82 3e
       0.24999222 -0.08124481 0.31293198 0.2555668
000060 d6 2e 26 3e 15 8e 25 be f8 31 05 be 84 7f f3 3d
       0.16228804 -0.16167481 -0.13007343 0.11889556
000070 a5 28 91 3e 81 af a0 3e 16 33 79 be 90 84 82 bc
       0.28351322 0.313839 -0.24335894 -0.015932351
000080 3c 79 b4 3d a9 4a 9e be 49 91 9d 3e a9 04 4a be
       0.08812186 -0.30916336 0.30774906 -0.1972834
000090 d0 52 8e bc b7 40 99 be 3b 68 06 be a1 9f 03 be
       -0.017373472 -0.29932186 -0.13125698 -0.12853862
0000a0 c0 4e f7 bc 00 42 3f 3b e8 40 0c 3e fc e0 b9 bd
       -0.030188918 0.0029183626 0.13696635 -0.090761155
0000b0 88 78 27 3d 56 e9 1a 3e 86 37 4d 3e 9f fe 93 be
       0.040886432 0.15128073 0.20040712 -0.28905198
0000c0 6e 28 7d be 40 0b 50 3d 50 2b 05 3e 44 b6 c8 3d
       -0.24722454 0.05079198 0.13004804 0.098003894
0000d0 20 35 04 be 80 03 26 bb 1a a6 4a 3e 87 55 17 be
       -0.1291089 -0.0025331676 0.19789925 -0.1477872
0000e0 1e 2f ee bd 86 cf 68 be 6f 90 9d be cd d8 87 be
       -0.11630081 -0.22735414 -0.30774257 -0.26532593
0000f0 dc ce fd 3d 8e e7 6f 3e b0 01 39 be 2a b9 0e 3e
       0.12392971 0.23428175 -0.1806705 0.13937822
000100 de b2 55 be 88 5c 94 3d f6 49 5a 3e c5 f3 9f be
       -0.20869014 0.072442114 0.21317276 -0.3124067
000110 d0 21 ed bd 0c bb 81 be e2 a8 4c 3e 0b 57 82 be
       -0.11578715 -0.25338018 0.19986299 -0.25457034
000120 e8 b1 1a be e9 b8 9f be c0 11 71 bd a0 05 1e 3e
       -0.15106928 -0.31195763 -0.05885482 0.15431833
000130 74 44 85 be 70 a1 18 3e 51 63 04 be fa df c3 bd
       -0.26028788 0.14905334 -0.12928511 -0.095642045
000140 78 e5 27 3e c4 dc a7 bd 6a 38 61 be 84 51 1f 3e
       0.16396129 -0.081964046 -0.21994177 0.1555844
000150 e8 65 6a bd 66 3a 3c 3e 30 49 79 bd 3c e6 4e be
       -0.05722609 0.18381652 -0.060860813 -0.20205015
000160 30 e5 94 be 97 1e 87 3e 80 94 c3 bd 60 c6 44 bd
       -0.29081106 0.26390526 -0.095498085 -0.048040748
000170 f0 12 03 3e 98 c3 08 3e 38 07 ed 3d f0 8f d1 bd
       0.12800193 0.13355863 0.115736425 -0.10232532
000180 2e 09 67 3e 07 b0 a1 3e c0 95 e3 3c c2 48 0b 3e
       0.22562096 0.3157961 0.027781367 0.13601974

h8.bias f4 [10]
000000 22 73 9b be c8 1d 37 3e 96 20 5e 3e 28 cb 05 3d
       -0.30361277 0.17882454 0.21692118 0.032664448
000010 fa 46 00 be fe b1 50 3e 80 9a cc 3d 60 d9 5c 3d
       -0.12527075 0.20380399 0.09990406 0.053918242
000020 7f f8 86 3e da 75 37 be
       0.26361462 -0.1791605

h9.weight f4 [10, 10]
000000 4c 09 9f be e0 b6 d7 3d 2e f0 5e 3e 20 d3 4d 3c
       -0.3106178 0.105329275 0.21771309 0.012562543
000010 60 dc ac 3d f0 21 8d 3d 40 0c 66 bc 00 65 f8 bc
       0.08440471 0.06891239 -0.014041007 -0.030321598
000020 40 e8 69 3c 92 a2 09 3e 1e a6 43 3e 90 4b 85 3c
       0.014276564 0.13440922 0.19106337 0.016271383
000030 3c 77 c6 3d f8 d3 70 3d 07 69 9c 3e 0e f5 ee bd
       0.09690711 0.0587959 0.3054888 -0.11667834
000040 70 24 21 bd 2a 81 88 be 00 b7 d7 bc 55 63 8d be
       -0.03934139 -0.26661044 -0.026332378 -0.27614847
000050 7a 31 75 3e 40 db 02 bc 98 71 99 3d 72 fd 5d 3e
       0.23944655 -0.007986844 0.074923694 0.21678713
000060 b8 46 59 bd 00 c0 84 39 50 b7 f0 bc 04 67 09 3e
       -0.05304596 0.00025320053 -0.029384285 0.13418204
000070 08 ca 11 bd 08 c2 19 bd d0 aa 9d 3d 40 29 50 bc
       -0.035593063 -0.03753856 0.076985955 -0.012705147
000080 5c 90 bb bd ea 44 54 be 66 ba 4d 3e 94 b1 0d 3e
       -0.09158394 -0.20729414 0.20090637 0.13837272
000090 08 91 7d 3d 28 89 12 bd 57 fb 9b be a1 4c a1 3e
       0.06190589 -0.035775334 -0.30465195 0.31503776
0000a0 20 25 fa 3d c4 a7 a1 3d 60 ea 1f bc 0f 2c 89 3e
       0.12214112 0.07893327 -0.009760469 0.26791427
0000b0 da 53 86 be 3c 97 1a 3e f9 61 19 be 00 e4 5a 3c
       -0.2623585 0.15096754 -0.1497878 0.0133600235
0000c0 20 35 d2 3c a0 2c 79 be 1c a5 29 3e 97 0e 18 be
       0.025660098 -0.2433343 0.1656689 -0.14849316
0000d0 a8 ef 55 bd 75 f2 9c be 16 1e ef bd d4 b5 7b be
       -0.052230507 -0.3065373 -0.1167566 -0.2458108
0000e0 00 3d 27 bc 41 88 84 3e 0c 50 ae bd f8 6f 85 be
       -0.010207415 0.25885203 -0.085113615 -0.26061988
0000f0 24 39 b1 3d ca 44 2e be 64 63 e7 3d 80 5a bf bb
       0.08653477 -0.17018428 0.11298254 -0.005839646
000100 a4 3e 32 3e a5 d8 81 3e 9a 19 43 3e 74 43 97 be
       0.17406708 0.253606 0.19052735 -0.2954365
000110 eb 2b 94 3e 75 e6 6c be 55 cf 9e 3e f8 d5 bd 3d
       0.28939757 -0.23134787 0.31017557 0.09269327
000120 0b 4e 2b be a2 24 54 be 86 f9 d8 bd 64 7e 76 be
       -0.1672899 -0.207171 -0.10594468 -0.24071652
000130 74 4e 61 be 70 98 39 3e 80 6c 08 bc 37 39 8e be
       -0.22002584 0.18124557 -0.00832665 -0.27778026
000140 9a 9a 33 3e 60 a5 4e 3d db 48 25 be 67 75 30 be
       0.17539445 0.050450683 -0.16141073 -0.17232285
000150 92 d2 58 be 18 f6 f9 3d 64 cf fb 3d 8e f8 79 3e
       -0.21174076 0.12205142 0.12295416 0.24411222
000160 30 ea f8 bc 80 50 09 bc 30 c7 19 3d 02 3b 6e 3e
       -0.030385107 -0.008381009 0.037543476 0.23264697
000170 e0 d9 6d bc fe f9 a7 bd 48 f8 76 bd c0 01 e2 bb
       -0.0145172775 -0.08201979 -0.060295373 -0.0068971813
000180 cc c9 1d be 72 69 61 3e b7 e1 41 be 08 17 40 3d
       -0.1540901 0.2201288 -0.1893376 0.046896964

h9.bias f4 [10]
000000 1c 73 0d 3e b6 7b d9 bd 08 22 15 3e 78 aa 16 3e
       0.13813442 -0.10619299 0.14563763 0.14713466
000010 c0 39 6e bd 80 b0 4a 3c 52 e0 5b 3e ba 92 08 3e
       -0.058160543 0.012371182 0.2147229 0.13337222
000020 80 ba 3c 3c 44 cc ce 3d
       0.011519074 0.10097554

out.weight f4 [1, 10]
000000 c0 35 0a be d3 be b4 bd d7 00 30 3e 2c cf 5c 3e
       -0.13497066 -0.08825459 0.1718782 0.21563405
000010 04 85 45 3e cf ac 72 3e 7e 9c b9 bd 59 24 03 be
       0.19289023 0.23698734 -0.09063052 -0.12806834
000020 65 f0 b6 3e 8f fe a9 3d
       0.3573028 0.08300506
