MejoresPesos/best_model_MLP_P3.pth (torch, 9656 bytes, 7 tensors)

h1.weight f4 [10, 141]
0	0xbd12ccd9	-0.03583989
1	0xbcf1c772	-0.029514048
2	0xbe2b9516	-0.1675609
3	0xbdad0bc5	-0.084495105
4	0xbd986281	-0.07440663
5	0xbd384ee2	-0.044997104
6	0xbc568d99	-0.013095283
7	0x3d00dc79	0.03146026
8	0x3d8d3a23	0.06895854
9	0x3cba17b2	0.022716377
10	0xbf534918	-0.8253341
11	0x3daaf6ed	0.083478786
12	0xbcae99d5	-0.021313587
13	0x3e5b7a8e	0.2143347
14	0xbe4d60b5	-0.20056422
15	0xbd02d06c	-0.031937048
16	0x3d9e771a	0.077375606
17	0xbf7d462a	-0.98935187
18	0xbc7e5b3d	-0.015524683
19	0xbbe83dce	-0.007087446
20	0xbafea1ff	-0.0019426941
21	0x3da7f9b9	0.08201928
22	0x3dc01a4f	0.09380018
23	0xbd4a6d3d	-0.049420584
24	0xbda228f9	-0.07917971
25	0x3cd958dc	0.02653163
26	0x3d817abd	0.063222386
27	0x3e2df9a6	0.16989765
28	0x3d261eb0	0.04055661
29	0x3d6b1e03	0.05740167
30	0xbd9424b3	-0.07233562
31	0x3c5e21d9	0.013557875
32	0x3ddbb014	0.107269436
33	0x3e1cb260	0.1530242
34	0x3d8f9ea8	0.07012683
35	0x3c1fb600	0.009747982
36	0xbe70d543	-0.23518853
37	0xbd0486b3	-0.03235502
38	0x3d930d2e	0.07180248
39	0xbea65b10	-0.3249135
40	0x3de8f126	0.113741204
41	0x3e5a67df	0.21328686
42	0x3d3a1521	0.045430306
43	0xbdc4e5c7	-0.09614139
44	0xbcf185c9	-0.029482739
45	0x3d44ff63	0.04809512
46	0xbd75eb11	-0.06003863
47	0xbe8c22da	-0.2737034
48	0x3da8030c	0.08203706
49	0x3c8b2aac	0.016988121
50	0x3dc4c545	0.09607939
51	0x3c940031	0.018066498
52	0xbda82e03	-0.08211901
53	0xbc8e864a	-0.017398018
54	0x2af089f4	4.2728288e-13
55	0xac5ec45e	-3.1657103e-12
56	0xbea77cae	-0.3271231
57	0xbda65b74	-0.08122912
58	0x3dafe6eb	0.08588966
59	0x3d23edf3	0.040021848
60	0x3d513a9e	0.051081292
61	0x3c33b6a2	0.010968836
62	0x3ca724de	0.020403322
63	0xabb65f32	-1.29583e-12
64	0xbcf9fd40	-0.030516267
65	0x3e077ebd	0.1323194
66	0x3a9a26c7	0.0011760824
67	0xbef4287d	-0.4768714
68	0x3dcc6f3e	0.09982155
69	0xbd5d14e0	-0.053974986
70	0xbcb59ef3	-0.02217052
71	0xac36cf3f	-2.59788e-12
72	0x3cf26dab	0.02959331
73	0xba7e2ad8	-0.0009695715
74	0xbc4008e6	-0.011720872
75	0x3d629675	0.05531927
76	0x3b1f8fcf	0.0024347191
77	0xbe602e5f	-0.21892689
78	0xbbc2d471	-0.005945735
79	0x3c0c081d	0.008546856
80	0x2ba358af	1.1606461e-12
81	0x3da7ff0c	0.08202943
82	0xbda3f4fe	-0.08005713
83	0x2be40448	1.6201563e-12
84	0xac769d3e	-3.504599e-12
85	0x3d9969db	0.074908935
86	0x3e2820a1	0.16418697
87	0xbd0c8246	-0.034303926
88	0x3e74e409	0.23915114
89	0xabdae1b6	-1.5552479e-12
90	0xa8d5c848	-2.3734609e-14
91	0xbb3e2f32	-0.002901983
92	0xbe1a79ee	-0.15085575
93	0xbe8cb1f5	-0.2747952
94	0x3dcb84b4	0.099374205
95	0xbd3c086f	-0.04590648
96	0xbd35c72a	-0.04437939
97	0x3e1feebb	0.15618412
98	0x3dc1adc9	0.09456975
99	0x3d3d197a	0.046166874
100	0x3c765402	0.015034677
101	0x3d3916bb	0.045187693
102	0x3e30c681	0.17263223
103	0xbe89d7ab	-0.26922354
104	0x3c702c54	0.014659006
105	0xbb0bb336	-0.0021316535
106	0x3c76e9cf	0.015070393
107	0x3d29403a	0.041321017
108	0xbc9a4b28	-0.018834665
109	0x3da9e444	0.08295491
110	0xbc739c3b	-0.014868791
111	0x3e028f5a	0.12749997
112	0xbde0bb72	-0.10973252
113	0xbe9cee0b	-0.30650362
114	0xbdc10125	-0.094240464
115	0x3b942492	0.004520961
116	0xbc7e8e99	-0.015536928
117	0x3cdf1fb4	0.027236797
118	0x2c384d95	2.619104e-12
119	0xbe7b2b10	-0.24528146
120	0xbd36f6fe	-0.044669144
121	0xbc32671a	-0.010888839
122	0xbd6f7630	-0.05846232
123	0x3ae5b9d3	0.0017526693
124	0xbf12b8a2	-0.5731298
125	0xbc23a878	-0.009988897
126	0xaba05541	-1.1392346e-12
127	0xab41605e	-6.870111e-13
128	0xbd9a16b6	-0.07523863
129	0xabedde14	-1.6901502e-12
130	0x3cdda6e7	0.027057124
131	0x3e15418d	0.14575787
132	0x3d44ac15	0.048015673
133	0x3dc73a81	0.097279556
134	0xbb4c2665	-0.0031150815
135	0x3c42fd2b	0.01190118
136	0x2c4c3839	2.9021353e-12
137	0x3df47b78	0.11937612
138	0xbe99eaa6	-0.30061835
139	0xab58588c	-7.68615e-13
140	0xbcf9f0c5	-0.030510316
141	0x3d91357c	0.070902795
142	0xbc836a4e	-0.016041901
143	0x3d0a78a6	0.033806466
144	0xbd49ecd0	-0.049298108
145	0x3dc0ef73	0.09420671
146	0x3d02a347	0.031893995
147	0xbd34d026	-0.04414382
148	0x3dc3de2a	0.09563859
149	0xbd8680dd	-0.065675475
150	0xbcf4e110	-0.029892474
151	0x3ec9db76	0.39425248
152	0xbd355c0b	-0.044277232
153	0xbce5457e	-0.027987238
154	0xbdb1fdb8	-0.08690971
155	0x3d7465d0	0.05966741
156	0xbc865de4	-0.016402192
157	0x3c91d55d	0.017801935
158	0x3e9fd1e7	0.3121483
159	0xbc3e943a	-0.01163202
160	0xbcf605dc	-0.03003209
161	0x3ca7cddb	0.020483902
162	0xbd2362f0	-0.039889276
163	0xbc60f132	-0.01372938
164	0x3c548f7f	0.012973665
165	0xbccaa201	-0.024735453
166	0xbbbabc83	-0.005698742
167	0xbc985302	-0.018594269
168	0xbd2e0d8d	-0.04249339
169	0xbbda4cbc	-0.0066619795
170	0xbc5c49c2	-0.01344532
171	0x3d2e6695	0.0425783
172	0xbc0c4e9f	-0.008563667
173	0xbda005d9	-0.07813615
174	0xbd016111	-0.03158671
175	0xbc734c1b	-0.014849688
176	0x3b88acad	0.004170975
177	0x3e06a50f	0.13148902
178	0x3c658336	0.014008334
179	0xbb87d4d9	-0.0041452465
180	0x3d992cd7	0.07479256
181	0xbcde725b	-0.027154138
182	0xbd6a1254	-0.057146385
183	0xbc05890c	-0.00815035
184	0x3d022734	0.03177567
185	0x3c80fa05	0.015744219
186	0xbb57eb76	-0.0032946742
187	0x3db2bca1	0.08727384
188	0x3d8b26c3	0.067945026
189	0xbc989ced	-0.018629516
190	0xbc3f57ae	-0.011678619
191	0xbc9be96b	-0.0190322
192	0x3c404ba4	0.011736784
193	0x3da9b817	0.082870655
194	0x3cfe7a79	0.031064259
195	0xac1af70c	-2.2021855e-12
196	0x2c5eb558	3.1648763e-12
197	0x3d5a67bd	0.05332159
198	0x3ca14879	0.019687878
199	0xbc48e0ae	-0.012260599
200	0xbbc78e56	-0.006089966
201	0xbc424215	-0.0118565755
202	0xbaf417f2	-0.0018622859
203	0xbb636c6b	-0.0034702073
204	0xac756bf0	-3.4876511e-12
205	0x3bac62a8	0.005260784
206	0xbcca809c	-0.024719529
207	0x3b32ab4f	0.0027262752
208	0x3e175342	0.14777854
209	0xbc768a2b	-0.01504759
210	0x3c909aca	0.017651934
211	0x3b8b9fc3	0.0042609884
212	0xaa4f9798	-1.8437888e-13
213	0xbba520e0	-0.0050393194
214	0x393313ac	0.00017078099
215	0x3b021ef5	0.0019854878
216	0xbc167073	-0.009182083
217	0xb9da3fad	-0.00041627642
218	0x3d1def04	0.03855802
219	0x3a81e2c7	0.0009909504
220	0xbabf094f	-0.0014574918
221	0xabb6cfd6	-1.2989564e-12
222	0xbc73cacb	-0.014879893
223	0x3c6fe0ff	0.014641046
224	0xabd7dfa9	-1.5338747e-12
225	0xac899fe3	-3.911525e-12
226	0xbc601218	-0.013676189
227	0xbccb6571	-0.024828644
228	0x39fb34ed	0.00047913883
229	0xbd454ff9	-0.04817197
230	0xab62575a	-8.0412554e-13
231	0x2c9d058e	4.462825e-12
232	0x39f7453d	0.00047163098
233	0x3d12238c	0.03567843
234	0x3d8b7c62	0.068108335
235	0xbc4246c4	-0.011857692
236	0x3d9406ab	0.07227834
237	0x3c01a1c6	0.007912105
238	0xbcd690bd	-0.026192063
239	0xbc4d6cc0	-0.012538135
240	0xbc1342bf	-0.0089880815
241	0xbb25a7bd	-0.0025276982
242	0xbbfbaa40	-0.0076802075
243	0xbd0a9a26	-0.033838414
244	0x3d4b23a3	0.049594533
245	0xbb23cb8c	-0.002499315
246	0x38bf01ea	9.107946e-05
247	0xbb26d06f	-0.0025453826
248	0xbbb4be9c	-0.0055158865
249	0x3a94eb00	0.0011361539
250	0xbc7034c0	-0.014661014
251	0x3b1e9ad7	0.0024201178
252	0xbc84388c	-0.016140245
253	0x3d9bd3b7	0.07608741
254	0x3d8dcf5c	0.06924316
255	0x3cf38813	0.029727971

h1.bias f4 [10]
0	0xbbad9769	-0.0052975905
1	0x3d5db069	0.054123316
2	0x3b623711	0.0034517685
3	0xba8766a9	-0.0010330278
4	0x3d08acf4	0.033368066
5	0xbd46d5fd	-0.04854392
6	0x3c59d90d	0.013296378
7	0xbdc8a9dd	-0.09798024
8	0xbd0fd22d	-0.03511255
9	0x3d3c4dd5	0.045972664

h2.weight f4 [10, 10]
0	0xbdd16019	-0.10223407
1	0xbdb9b42e	-0.0906757
2	0x3e5bc886	0.21463212
3	0x3e424e86	0.18975267
4	0x3e6c72ee	0.23090717
5	0xbe223dce	-0.15843889
6	0xbdc0325a	-0.09384604
7	0xbdd7e01b	-0.105407916
8	0x3d256e1f	0.040388223
9	0xbf0c45db	-0.5479409
10	0x3e31645e	0.17323443
11	0x3e09de77	0.1346377
12	0xbca0fe41	-0.019652488
13	0xbe8eaac0	-0.27864647
14	0xbe6f7b04	-0.2338677
15	0x3cb1daa0	0.021710694
16	0xbe071c73	-0.13194446
17	0x3d4894a0	0.048969865
18	0xbe69c361	-0.22828437
19	0xbe729940	-0.23691273
20	0x3ca54aa3	0.020177191
21	0xbd721284	-0.05909969
22	0x3d3ecf48	0.046584398
23	0xbd7f548e	-0.062336497
24	0xbe87ae40	-0.2650013
25	0x3de4caa5	0.11171464
26	0x3dd2cbfc	0.10292813
27	0xbe1bde95	-0.15221627
28	0x3e0c41b5	0.1369694
29	0xbe5aa342	-0.2135134
30	0xbe863f0e	-0.26219982
31	0x3e3b0658	0.18264139
32	0x3db56ada	0.08858271
33	0xbe62ff4e	-0.22167704
34	0x3e923650	0.28557062
35	0x3e67c548	0.2263385
36	0x3e99d614	0.3004614
37	0x3e392d90	0.18083787
38	0x3e408471	0.18800522
39	0xbe467614	-0.1938098
40	0x3e562b46	0.20914945
41	0x3d997955	0.074938454
42	0xbe8cc5e4	-0.2749473
43	0xbd145530	-0.036214054
44	0x3dac7461	0.08420635
45	0xbe5072d3	-0.20356302
46	0xbea009e1	-0.31257537
47	0x3e75f706	0.24020013
48	0x3dd86b3a	0.10567327
49	0xbe37a5b8	-0.1793431
50	0xbe6f3d21	-0.23363163
51	0x3b516d42	0.0031955992
52	0xbceeb8ea	-0.029140908
53	0x3d26f034	0.04075642
54	0xbe73856b	-0.23781364
55	0xbea74344	-0.32668507
56	0x3e9ea7bb	0.30987343
57	0x3c867e04	0.01641751
58	0x3e6d13ce	0.23152086
59	0x3e9a7856	0.30169934
60	0xbe824dff	-0.2545013
61	0x3e71fbad	0.23631163
62	0x3d6e5a30	0.05819148
63	0x3ea299b2	0.31757885
64	0xbe84580b	-0.2584842
65	0x3e3687db	0.17825262
66	0x3e754645	0.23952587
67	0x3ea5c737	0.3237855
68	0xbe45336e	-0.192579
69	0x3dfe2809	0.1240998
70	0xbe48de28	-0.19615996
71	0xbe037dc4	-0.12840945
72	0x3d485896	0.048912607
73	0xbe707e5b	-0.23485701
74	0x3e8f6ebf	0.2801418
75	0xbe47abe4	-0.19499165
76	0xbe19e839	-0.15029992
77	0x3c9b00e6	0.018921327
78	0xbe3eac94	-0.18620521
79	0x3e5bbaab	0.21457927
80	0xbee90be1	-0.45516875
81	0xbc59a62e	-0.013284249
82	0x3c62073c	0.01379567
83	0x3d25ec6b	0.04050867
84	0x3d739857	0.059471454
85	0x3e30e797	0.17275845
86	0xbe4bfc98	-0.19920576
87	0x3ba6a266	0.0050852774
88	0xbe51573a	-0.2044343
89	0xbb8a5607	-0.004221681
90	0xbe747909	-0.23874296
91	0x3e38411c	0.17993587
92	0xbe80345d	-0.2503995
93	0xbe17018a	-0.14746681
94	0x3ea11b3d	0.31466094
95	0xbc1a8508	-0.009431131
96	0x3e506d6a	0.20354238
97	0xbe8ba7b8	-0.27276397
98	0x3e3e8977	0.18607126
99	0xbe87f234	-0.26551974

h2.bias f4 [10]
0	0x3e13c416	0.1443027
1	0x3e55ddf8	0.20885456
2	0xbdf5a458	-0.11994237
3	0x3e488bd6	0.19584593
4	0x3e92026e	0.2851748
5	0xbe8ff736	-0.28118294
6	0xbe80a927	-0.25129053
7	0xbe098359	-0.13429011
8	0xbe53fd44	-0.20702082
9	0x3d26b9a8	0.0407044

h3.weight f4 [10, 10]
0	0x3e856e37	0.2606065
1	0xbe50e09a	-0.20398179
2	0x3e2a2bd2	0.16618279
3	0x3e928a7f	0.2862129
4	0xbe455e54	-0.19274265
5	0xbea1c780	-0.3159752
6	0xbe962e71	-0.29332307
7	0x3e9d7817	0.30755684
8	0xbca64820	-0.020298064
9	0x3e82caf1	0.25545457
10	0x3e86696b	0.26252303
11	0xbd899a1c	-0.06718847
12	0xbe25a28c	-0.16175288
13	0xbc2782e0	-0.010224074
14	0xbddb1e38	-0.10699123
15	0xbe1e7b50	-0.15476727
16	0x3d19cf38	0.037551135
17	0xbe4db2de	-0.20087764
18	0xbe49691e	-0.19669005
19	0x3e8493d9	0.2589405
20	0xbe1341ed	-0.14380617
21	0xbe8c6574	-0.27421153
22	0x3d8effc4	0.06982377
23	0xbe03a23b	-0.12854855
24	0xbdb029a2	-0.08601691
25	0x3d6b7df0	0.05749315
26	0xbcf178f0	-0.029476613
27	0xbe8b8d97	-0.27256462
28	0x3e6d0d92	0.23149708
29	0xbac03d00	-0.0014666617
30	0x3e808f33	0.25109252
31	0xbc6490e0	-0.0139505565
32	0xbe3fc4e8	-0.18727458
33	0xbe28273f	-0.16421221
34	0x3e36edcc	0.1786415
35	0xbe32f5dd	-0.17476602
36	0x3e95f855	0.29291025
37	0xbda33d7a	-0.0797071
38	0xbe72a91b	-0.23697321
39	0xbdecd8a0	-0.115647554
40	0x3e8e9aff	0.27852628
41	0x3d2343f0	0.039859712
42	0xbe405a90	-0.18784547
43	0x3e02b0e8	0.12762797
44	0x3e9c3aa7	0.30513498
45	0xbccf8ff0	-0.02533719
46	0xbe96f47c	-0.29483402
47	0xbe7618ee	-0.24032947
48	0x3e8c8401	0.2744446
49	0x3e449d86	0.19200715
50	0x3e6a6042	0.22888282
51	0x3e17269e	0.14760825
52	0xbd689f40	-0.056792498
53	0x3d8d22f4	0.068914324
54	0xbe925e29	-0.28587463
55	0xbe342f7b	-0.17596237
56	0x3ea08d65	0.31357875
57	0xbe2bf771	-0.1679361
58	0xbdead7dc	-0.11466953
59	0x3a93ed00	0.0011285841
60	0x3cb329a0	0.021870434
61	0x3d0864d0	0.033299267
62	0x3e7032ba	0.2345685
63	0xbe390158	-0.18066919
64	0x3c725720	0.01479128
65	0x3ddf2984	0.1089659
66	0x3ea13361	0.31484511
67	0x3e1f7302	0.15571216
68	0x3d544158	0.05182013
69	0x3e6b99aa	0.23007837
70	0x3e8b99a1	0.27265647
71	0x3b4eba80	0.0031544268
72	0xbbd1cd00	-0.0064026117
73	0x3d7b7cb8	0.061398238
74	0x3e4b52d2	0.19855812
75	0x3e037722	0.12838414
76	0x3e3d79ce	0.18503496
77	0xbddd46fc	-0.10804555
78	0xbe71546e	-0.23567364
79	0x3e8148c5	0.2525083
80	0xbd03e968	-0.032205015
81	0x3d5699a0	0.052392602
82	0xbe3352e0	-0.17512083
83	0x3e29f90c	0.1659891
84	0xbd72e458	-0.059299797
85	0x3d696c68	0.05698815
86	0xbe28174c	-0.16415137
87	0x3e0e8e74	0.13921529
88	0xbe00eb47	-0.12589751
89	0xbdd0d568	-0.10196954
90	0x3dc2b858	0.09507817
91	0x3d380650	0.044927895
92	0xbdc1b8c2	-0.09459068
93	0x3e51fbee	0.2050626
94	0x3e737dc2	0.23778442
95	0x3d580420	0.05273831
96	0x3e717a52	0.23581818
97	0x3c917540	0.017756104
98	0xbe4a52b6	-0.19758114
99	0xbe4291cc	-0.1900093

h3.bias f4 [10]
0	0xbd60abf0	-0.054851472
1	0xbe91830d	-0.28420296
2	0xbe0bfd2a	-0.13670793
3	0x3ca094e0	0.01960224
4	0xbe88ae5c	-0.26695526
5	0xbdd1f078	-0.10250944
6	0x3e502afa	0.20328894
7	0xbdae4dfe	-0.085109696
8	0x3e9a4665	0.30131832
9	0xbdcfe272	-0.10150613

out.weight f4 [1, 10]
0	0xbc9cf4ad	-0.01915964
1	0x2d9652a6	1.7089729e-11
2	0x3e8c0ab1	0.27351907
3	0x3dd1e562	0.102488294
4	0xbe2e51b4	-0.17023355
5	0x3d344f92	0.044021197
6	0x3c9baf90	0.019004613
7	0xbe1ff8b8	-0.15622222
8	0xbe4edf6c	-0.20202416
9	0xbde124ef	-0.10993373
