MejoresPesos/best_model_MLP_P4.pth (torch, 10564 bytes, 9 tensors)

h1.weight f4 [10, 141]
-0.0018290797 -0.01167325 0.23549896 -0.002655999 0.053585876 -0.05300502 0.0048571397 -0.013313056
0.06714133 0.0034011295 1.1776054 -0.0079115415 0.10403043 -0.39200214 0.19564183 0.11045002
0.039628603 1.0151817 -0.0019825445 -0.0031827427 0.13888738 -0.072285295 -0.019444246 0.13693647
0.08787035 0.028738897 0.021641567 -0.124879986 -0.015128147 -0.032359056 0.106472865 0.02334916
-0.09499763 -0.1107508 -0.08220973 0.08107343 0.26177627 0.061412327 -0.034257352 0.39894682
-0.07793591 -0.1874298 -0.03226929 0.10993759 0.04916363 0.017682226 0.17307614 0.3755143
-0.13552782 0.018498944 -0.06221473 0.099279635 0.03613786 0.06203021 2.7830929e-11 -9.367445e-11
0.36291757 0.02054812 -0.10382623 -0.04573414 -0.037807245 -0.017639514 -0.026759245 -3.150882e-11
0.052520033 -0.18819618 0.025046986 0.43059352 -0.19072382 0.10360511 0.016698437 2.7352436e-11
-0.038929705 -0.0003438623 0.015115165 -0.05995336 -0.009807298 0.22155565 0.0012632238 -0.004735641
-6.4762515e-11 -0.06608354 0.112466246 1.0573985e-10 1.2307464e-11 -0.09604525 -0.13681766 0.04798903
-0.26649854 4.602358e-11 -3.613884e-10 0.007278586 0.20202148 0.37633651 -0.11538356 0.07124138
0.015231815 -0.15101638 -0.040513087 -0.010809873 -0.031565525 -0.051133636 -0.22261517 0.3265576
-0.013320354 0.005183328 -0.030839255 -0.05221948 0.0065103546 -0.09338876 0.013757724 -0.14259776
0.1672121 0.3683535 0.10412094 0.017729808 0.033236835 -0.02724489 1.4723606e-11 0.28379765
0.055090185 0.03764401 0.054861557 -0.005537922 0.6495592 0.10408094 -4.1616818e-10 -1.4535735e-10
0.10741455 -1.0753852e-10 -0.013963149 -0.14502828 -0.056799855 -0.09130629 0.02768587 -0.027517842
1.2792704e-11 -0.111862056 0.3314747 3.8399783e-10 0.05249629 -0.017240705 0.07298628 0.38417536
-0.0073932456 -0.025317201 -0.005911948 0.026782244 0.0078606885 -0.032768767 -0.020356596 1.0656376
-0.008735914 0.016062105 -0.6479455 0.11304695 -0.0052056345 -0.0050933715 0.6473767 -0.07324607
-0.0765432 0.13754636 -0.022880036 0.0024730903 0.07000352 0.039461177 0.011071892 0.013222575
-0.056051712 6.256785e-05 -0.054507196 0.045592498 0.036035642 -0.07865149 -0.0448957 -0.052195612
0.043294884 0.2646064 0.02855754 -0.008955366 0.15577991 -0.032159746 -0.08136204 0.0061430316
0.04764837 0.013043145 0.018442838 0.10471103 0.15424499 -0.052776653 0.011107153 -0.01953516
0.05737063 -0.011728145 0.016948676 1.2463756e-10 4.3673726e-10 0.1384076 0.013420689 -0.03782468
-0.016231218 -0.015501309 -0.006252066 -0.009937803 -1.4163941e-10 0.0191744 -0.066697896 0.014757446
0.23339856 -0.06923703 0.040404953 0.006252034 7.000695e-11 -0.014581382 -6.751312e-05 0.0057120845
-0.022409448 -0.0030917234 0.08487291 0.00075833226 -0.0017514378 -1.7857132e-11 -0.022651535 0.043453574
-2.9035968e-10 -4.3280116e-10 -0.028577885 -0.045315996 0.008157076 -0.09355613 3.5545296e-11 2.0885055e-10
0.0017760814 0.08680968 0.15395786 -0.04018892 0.082323484 0.0063732015 -0.06319667 -0.010589257
-0.005963341 -0.01094219 -0.01893897 -0.080501236 0.12648396 -0.0049834577 0.0017405534 -0.010977387
-0.018028317 0.008576793 -0.037987668 0.009533048 -0.05142341 0.17705035 0.14693326 0.04350132
00000000: bbbd efba 2941 3fbc a426 713e 4510 2ebb
00000010: dd7c 5b3d cb1b 59bd a428 9f3b 011f 5abc
00000020: 6581 893d 7ce5 5e3b c6bb 963f 699f 01bc
00000030: e80d d53d 81b4 c8be 5556 483e 9f33 e23d
00000040: 9a51 223d 79f1 813f 94ed 01bb 9095 50bb
00000050: 7e38 0e3e 500a 94bd 8a49 9fbc 1339 0c3e
00000060: 5ff5 b33d d66d eb3c a849 b13c 14c1 ffbd
00000070: 0cdc 77bc ee8a 04bd 720e da3d bd46 bf3c
00000080: 1e8e c2bd 51d1 e2bd 935d a8bd d409 a63d
00000090: 8a07 863e 7e8b 7b3d 7051 0cbd c242 cc3e
000000a0: dd9c 9fbd 99ed 3fbe ce2c 04bd f626 e13d
000000b0: cd5f 493d 51da 903c df3a 313e 6943 c03e
000000c0: cec7 0abe 198b 973c dfd4 7ebd 1f53 cb3d
000000d0: 4b05 143d 6413 7e3d aecd f42d 07fe cdae
000000e0: 55d0 b93e 8854 a83c d9a2 d4bd b953 3bbd
000000f0: c5db 1abd be80 90bc 3436 dbbc c793 0aae
00000100: 3f1f 573d 80b6 40be 562f cd3c c176 dc3e
00000110: 1b4d 43be ea2e d43d 29cb 883c 3698 f02d
00000120: c174 1fbd 6b48 b4b9 99a5 773c a891 75bd
00000130: caae 20bc 7cdf 623e c292 a53a 702d 9bbb
00000140: 0e6a 8eae cf56 87bd b454 e63d 3e86 e82e
00000150: e483 582d 5fb3 c4bd ee19 0cbe 2590 443d
00000160: 7f72 88be f269 4a2e e5ac c6af 3481 ee3b
00000170: b8de 4e3e 2eaf c03e 374e ecbd 00e7 913d
00000180: dd8e 793c 0aa4 1abe 0df1 25bd e51b 31bc
00000190: da4a 01bd 8171 51bd 3bf5 63be 8f32 a73e
000001a0: 9d3d 5abc e8d8 a93b 9ba2 fcbc 18e4 55bd
000001b0: d054 d53b 9b42 bfbd 1468 613c 2605 12be
000001c0: a639 2b3e d498 bc3e 5c3d d53d 1a3e 913c
000001d0: 5923 083d ad30 dfbc 9d82 812d ed4d 913e
000001e0: 3fa6 613d 9b30 1a3d 83b6 603d 7577 b5bb
000001f0: 8349 263f 6328 d53d 77ca e4af 75d2 1faf
00000200: 29fc db3d ce7a ecae b1c5 64bc 4b82 14be
00000210: f7a6 68bd cbfe babd 7acd e23c 196d e1bc
00000220: 380d 612d ef17 e5bd 0db7 a93e e41a d32f
00000230: 5a06 573d 613c 8dbc d579 953d a2b2 c43e
00000240: 0a43 f2bb 0566 cfbc 04b9 c1bb 7066 db3c
00000250: 1eca 003c 8b38 06bd e0c2 a6bc d066 883f
00000260: 1421 0fbc ad94 833c c2df 25bf 2985 e73d
00000270: 0794 aabb 4ce6 a6bb 7bba 253f 0902 96bd
00000280: aec2 9cbd f4d8 0c3e ea6e bbbc 9213 223b
00000290: 015e 8f3d 0ba2 213d e266 353c 80a3 583c
000002a0: 7b96 65bd dc36 8338 f042 5fbd 33bf 3a3d
000002b0: 1c9a 133d 0814 a1bd 8ee4 37bd 11cb 55bd
000002c0: fa55 313d 7d7a 873e 81f1 e93c 87b9 12bc
000002d0: c584 1f3e f0b9 03bd 24a1 a6bd 7c4b c93b
000002e0: f02a 433d eab2 553c 6f15 973c bd72 d63d
000002f0: 66f2 1d3e 552c 58bd c7fa 353c 3308 a0bc
00000300: 77fd 6a3d 6827 40bc f3d7 8a3c 5b0a 092f
00000310: 4e19 f02f b9ba 0d3e 73e2 5b3c 0dee 1abd
00000320: 55f7 84bc 34f9 7dbc 22de ccbb 2bd2 22bc
00000330: f3bb 1baf a213 9d3c e898 88bd 37c9 713c
00000340: 0800 6f3e 25cc 8dbd aa7f 253d dddd cc3b
00000350: 69f2 992e c0e6 6ebc d595 8db8 702c bb3b
00000360: 0594 b7bc 839e 4abb d9d1 ad3d d1ca 463a
00000370: 8090 e5ba b012 9dad b68f b9bc 60fc 313d
00000380: 7ea0 9faf 59ef edaf 2b1c eabc 449d 39bd
00000390: 42a5 053c 5b9a bfbd 7254 1c2e 34a2 652f
000003a0: 67cb e83a 46c9 b13d 21a7 1d3e 239d 24bd
000003b0: 3799 a83d 4ad6 d03b 416d 81bd 907e 2dbc
000003c0: 2168 c3bb df46 33bc e625 9bbc d5dd a4bd
000003d0: 0385 013e 464c a3bb 4823 e43a 80da 33bc
000003e0: 1fb0 93bc ad85 0c3c f598 1bbd 8030 1c3c
000003f0: 5ba1 52bd b04c 353e ac75 163e 712e 323d

h1.bias f4 [10]
0.065748185 0.0681317 0.011061591 0.00828413 0.0012245376 -0.112950474 -0.0695939 -0.09709516
-0.04109068 -0.003222862
00000000: fca6 863d a288 8b3d ad3b 353c 29ba 073c
00000010: aa80 a03a 9452 e7bd 3f87 8ebd d4d9 c6bd
00000020: b34e 28bd a736 53bb

h2.weight f4 [10, 10]
-0.20235187 0.14742734 0.29494277 -0.2805694 0.18188943 -0.045767386 0.20546614 0.15802445
0.18961385 -0.015539651 -0.008417373 0.18896134 -0.22502132 0.20848633 0.1703486 -0.22121432
-0.28444466 0.045834992 -0.026255472 0.3192789 0.26669234 0.3578517 0.10066816 -0.084407374
0.23383686 -0.10142409 -0.25251794 0.27779108 0.20239677 0.14998133 -0.14290297 0.22092262
0.31162137 -0.1812063 0.2591846 -0.052582275 -0.23644412 -0.13538815 0.23403229 -0.27052647
-0.2496494 -0.028303778 0.20462474 0.26368466 -0.05585262 -0.0717866 -0.058978118 -0.16800433
-0.04294252 -0.11015789 -0.109173894 -0.04958475 -0.24331114 -0.36191168 -0.05719 -0.048620995
-0.1604106 0.24415718 -0.23077397 -0.25896758 0.037915874 -0.15062615 0.099937044 -0.049747694
0.041319516 -0.044858355 -0.057341304 -0.16605355 0.20249419 0.058857102 0.25593254 0.15153348
-0.03730482 0.080142125 0.004892391 -0.23669988 0.101729125 -0.3631918 0.0031597856 -0.004937062
0.4035914 -0.081308074 -0.247063 0.36708283 0.20593603 -0.24417959 -0.18344389 -0.25275224
-0.17480418 0.2421373 -0.2149597 -0.2682358 0.15298286 -0.17154665 0.17793043 -0.2832345
0.17990257 0.16192304 -0.13460617 0.02807809
00000000: 5435 4fbe 31f7 163e bd02 973e cba6 8fbe
00000010: 3941 3a3e 9576 3bbd b765 523e 29d1 213e
00000020: 222a 423e 059a 7ebc 05e9 09bc 157f 413e
00000030: fd6b 66be 717d 553e dd6f 2e3e 0286 62be
00000040: bba2 91be 79bd 3b3d b715 d7bc 8678 a33e
00000050: e68b 883e 5738 b73e 1c2b ce3d c6dd acbd
00000060: ee72 6f3e 6fb7 cfbd 084a 81be a23a 8e3e
00000070: 1941 4f3e b594 193e 2855 12be 8a39 623e
00000080: d68c 9f3e 258e 39be d8b3 843e 8360 57bd
00000090: 681e 72be 31a3 0abe 29a6 6f3e 7282 8abe
000000a0: 18a4 7fbe 53dd e7bc 2689 513e ad01 873e
000000b0: b8c5 64bd da04 93bd 0a93 71bd 5409 2cbe
000000c0: 7fe4 2fbd 769a e1bd 9096 dfbd 6119 4bbd
000000d0: 8e26 79be 7d4c b9be 1040 6abd cf26 47bd
000000e0: ad42 24be 5704 7a3e 0350 6cbe 6697 84be
000000f0: ad4d 1b3d be3d 1abe cbab cc3d 3dc4 4bbd
00000100: a73e 293d 65bd 37bd b7de 6abd f109 2abe
00000110: a35a 4f3e 2514 713d 9709 833e 982b 1b3e
00000120: f0cc 18bd 8e21 a43d 5a50 a03b 7461 72be
00000130: 5c57 d03d 47f4 b9be 6814 4f3b 14c7 a1bb
00000140: 88a3 ce3e d984 a6bd 15fe 7cbe 48f2 bb3e
00000150: e5e0 523e 370a 7abe b7d8 3bbe be68 81be
00000160: deff 32be d7f2 773e 651e 5cbe 3456 89be
00000170: 8aa7 1c3e eda9 2fbe 6533 363e 1d04 91be
00000180: 6138 383e 27cf 253e 33d6 09be 0604 e63c

h2.bias f4 [10]
0.07816972 -0.0928766 0.12960383 -0.025627654 -0.20553823 -0.21975 -0.085025094 -0.1412807
-0.06215882 0.20418541
00000000: 7217 a03d 1636 bebd deb6 043e 16f1 d1bc
00000010: 9d78 52be 2506 61be a321 aebd e3ab 10be
00000020: 3f9a 7ebd fb15 513e

h3.weight f4 [10, 10]
-0.17317565 -0.082785845 0.079815686 -0.27663377 -0.19568458 0.10510099 -0.099501684 0.20278826
-0.19943297 -0.034715354 -0.12381403 0.18808445 -0.14589491 -0.097212896 -0.0058948994 -0.22370446
0.13276973 0.25635496 0.095618665 -0.20632005 -0.14992934 -0.17499726 0.25034723 0.24304286
0.14629304 -0.07812703 0.2812594 0.041150272 -0.20654017 0.29221138 -0.16702808 -0.20199454
0.20263502 -0.28682557 0.023814857 0.07498112 0.3045654 -0.052431524 -0.14235781 0.23374936
0.26159987 0.27835926 0.19420043 0.0028276443 -0.30627367 0.15577662 -0.22505315 0.123636216
-0.10170728 0.13102153 -0.1627393 0.14205411 -0.042097062 -0.30671898 -0.049345106 0.31185845
-0.00494045 0.0028455555 0.26326743 0.26134846 -0.19852443 -0.23635936 -0.30138054 0.07702434
0.24785629 -0.07483323 -0.0308038 -0.053842306 -0.107847944 0.24697962 -0.011879146 0.25827888
-0.1316533 0.27912894 -0.12745555 -0.1587156 0.24891463 0.27811334 0.13889617 -0.044510722
0.16486856 0.07439062 -0.15837498 0.1586963 0.044469237 -0.065170586 0.08387202 0.007500559
0.27570912 -0.052973807 -0.16032687 -0.13016511 0.19771597 0.30090722 0.25621822 -0.29278255
0.11233932 0.23300865 0.31502935 0.1445657
00000000: f554 31be a08b a9bd 6876 a33d f1a2 8dbe
00000010: 8a61 48be 303f d73d 8ac7 cbbd baa7 4f3e
00000020: 2838 4cbe b031 0ebd 3692 fdbd 3699 403e
00000030: 7a65 15be 8e17 c7bd 002a c1bb c812 65be
00000040: caf4 073e f540 833e b8d3 c33d 9045 53be
00000050: 1487 19be 7b32 33be 832d 803e 3ae0 783e
00000060: d8cd 153e 1001 a0bd 3b01 903e 308d 283d
00000070: 447f 53be bb9c 953e 6909 2bbe a8d7 4ebe
00000080: 8e7f 4f3e cdda 92be 6017 c33c b48f 993d
00000090: ffef 9b3e 70c2 56bd 3fc6 11be fe5b 6f3e
000000a0: 6bf0 853e 1b85 8e3e 7adc 463e 0050 393b
000000b0: e7cf 9cbe e883 1f3e 5574 66be fc34 fd3d
000000c0: e84b d0bd 822a 063e 22a5 26be a276 113e
000000d0: f86d 2cbd 450a 9dbe 181e 4abd e9ab 9f3e
000000e0: 80e3 a1bb 807c 3a3b fdca 863e 77cf 853e
000000f0: fd49 4bbe 3008 72be 8d4e 9abe f0be 9d3d
00000100: 0ace 7d3e 2a42 99bd 4058 fcbc c089 5cbd
00000110: 62df dcbd 3ae8 7c3e c0a0 42bc 213d 843e
00000120: 1fd0 06be fde9 8e3e b583 02be 5886 22be
00000130: 7ae3 7e3e df64 8e3e cc3a 0e3e e050 36bd
00000140: 4ed3 283e 1c5a 983d 0d2d 22be 4881 223e
00000150: 6025 363d 2878 85bd 18c5 ab3d 40c7 f53b
00000160: bf29 8d3e 10fb 58bd ba2c 24be 014a 05be
00000170: 0e76 4a3e 8310 9a3e 092f 833e 98e7 95be
00000180: 2812 e63d d299 6e3e 874b a13e 0809 143e

h3.bias f4 [10]
-0.24704732 -0.036923617 -0.067368865 0.22198614 0.047775567 0.2049081 -0.30923238 -0.22641756
0.11761159 0.022123873
00000000: f9f9 7cbe 383d 17bd b0f8 89bd 5650 633e
00000010: 50b0 433d 6ed3 513e b553 9ebe 01da 67be
00000020: 58de f03d 203d b53c

h4.weight f4 [10, 10]
0.09521815 0.061084986 0.28940335 -0.27553725 0.31453004 -0.29065284 -0.16739093 0.19895521
0.20362279 0.17830929 0.1857985 0.062131852 0.14122957 0.28599784 -0.1727828 -0.18734165
0.121409535 -0.053400397 0.22154114 -0.103028566 0.15713233 -0.023276538 0.25460544 -0.12767784
0.11754644 -0.073446676 0.050288707 -0.0021231174 0.25839332 -0.09063159 -0.07240012 -0.31530008
-0.24862073 -0.2453509 -0.23096761 0.1827972 0.13280106 -0.031473607 0.27055344 -0.12017967
-0.026889145 0.31480214 0.19333467 -0.25042447 0.107580036 -0.23688644 0.29191998 -0.13811891
0.27309164 -0.16462171 -0.022744596 -0.16506831 0.24751541 0.018040448 -0.15546794 0.277221
-0.10341433 -0.2849236 -0.13350344 0.06272489 0.2985861 0.089628875 0.16037256 0.2833645
0.25569734 -0.075196594 0.29794934 0.16341299 0.23472211 -0.055650175 0.22293898 -0.17186008
-0.27479517 0.039919645 0.24600008 -0.0077861845 -0.22839995 0.29831836 0.12836796 0.28810492
0.19626561 -0.2551902 0.22265157 -0.06085393 0.27254155 0.12513101 -0.21586545 0.04292369
-0.29137695 0.11011335 0.16669104 0.21146461 -0.27361563 0.14864832 -0.06078732 0.2914578
-0.08915469 0.25837854 0.017538577 0.26389357
00000000: bc01 c33d 4034 7a3d ad2c 943e 3813 8dbe
00000010: 150a a13e 73d0 94be 8768 2bbe eaba 4b3e
00000020: 7e82 503e b696 363e f641 3e3e f87d 7e3d
00000030: 7c9e 103e 4f6e 923e f9ed 30be 7dd6 3fbe
00000040: 90a5 f83d 60ba 5abd aedb 623e a400 d3bd
00000050: 4ce7 203e 70ae bebc a55b 823e fbbd 02be
00000060: 30bc f03d 366b 96bd 88fb 4d3d 0024 0bbb
00000070: 214c 843e 0e9d b9bd 8446 94bd 036f a1be
00000080: 6f96 7ebe 443d 7bbe c682 6cbe 302f 3b3e
00000090: 00fd 073e 78ea 00bd fb85 8a3e c220 f6bd
000000a0: a046 dcbc bf2d a13e 86f9 453e a337 80be
000000b0: ec52 dc3d 5c92 72be 8976 953e 0b6f 0dbe
000000c0: abd2 8b3e 9892 28be e052 babc ab07 29be
000000d0: ae74 7d3e 90c9 933c fd32 1fbe e9ef 8d3e
000000e0: e4ca d3bd 82e1 91be 20b5 08be e875 803d
000000f0: 47e0 983e 588f b73d b438 243e 2715 913e
00000100: c3ea 823e ac00 9abd d18c 983e bc55 273e
00000110: fe5a 703e 70f1 63bd 1e4a 643e 17fc 2fbe
00000120: f4b1 8cbe c882 233d 72e7 7b3e 4023 ffbb
00000130: ade1 69be 2fbd 983e e472 033e 7d82 933e
00000140: daf9 483e 4aa8 82be c6fe 633e f841 79bd
00000150: 918a 8b3e 5822 003e d50b 5dbe c0d0 2f3d
00000160: 5c2f 95be 1c83 e13d 0eb1 2a3e 2e8a 583e
00000170: 5917 8cbe 4437 183e 20fc 78bd f539 953e
00000180: bc96 b6bd 314a 843e 10ad 8f3c 0f1d 873e

h4.bias f4 [10]
0.22932151 -0.033863395 0.077988 -0.076556325 0.16144803 0.109488636 0.09349963 -0.0076821446
-0.14190172 -0.09304339
00000000: 42d3 6a3e 58b4 0abd 2cb8 9f3d 90c9 9cbd
00000010: a252 253e 943b e03d bc7c bf3d 80ba fbbb
00000020: af4e 11be 888d bebd

out.weight f4 [1, 10]
0.029437276 -0.15863799 1.2767393e-10 0.24838057 -0.024795985 -0.1497701 -0.00017979932 0.26915768
0.13224739 0.22104724
00000000: 7126 f13c ff71 22be 0461 0c2f 7a57 7e3e
00000010: f320 cbbc 555d 19be 8388 3cb9 09cf 893e
00000020: dc6b 073e 355a 623e
