MejoresPesos/best_model_MLP_P3.pth (torch, 11538 bytes, 11 tensors)

h1.weight f4 [10, 141]
0	0xbaf59173	-0.0018735364
1	0xbe321a16	-0.17392763
2	0xbd9aff61	-0.07568241
3	0x3c09be2d	0.008407158
4	0xbc8c1f75	-0.017104844
5	0x3aa128df	0.0012295506
6	0x3cb47d4d	0.022032404
7	0x3bb757e8	0.005595196
8	0xbb23fb00	-0.0025021434
9	0xbb0a10f1	-0.0021067227
10	0xc05e630d	-3.4747956
11	0x3d4edef1	0.050505582
12	0x3d18e906	0.037331603
13	0x3f6ea296	0.93216836
14	0xbc4b7638	-0.012418322
15	0xbc57f620	-0.013181239
16	0xbe6583e7	-0.22413598
17	0xc00bcde0	-2.1844406
18	0x3db6b114	0.08920494
19	0x3a9f9d6d	0.0012177654
20	0x3c99588a	0.018718977
21	0x3bc4083c	0.005982427
22	0x3d5f1b88	0.054469615
23	0xbdb9f34a	-0.09079607
24	0x3d7db2bc	0.061938033
25	0x3d305323	0.043048035
26	0xbd0e9bf4	-0.034816697
27	0xbd26f5d7	-0.040761795
28	0xbc4e3658	-0.012586199
29	0x3dd2eaed	0.10298715
30	0x3d20634a	0.03915719
31	0x3aa4ad3c	0.0012563835
32	0x3e3a3a91	0.18186404
33	0x3cddd89d	0.027080828
34	0x3d90f5b0	0.07078111
35	0xbe13e0f4	-0.14441282
36	0x3da2bc29	0.07946045
37	0x3d2c7ffd	0.042114247
38	0xbc220247	-0.009888238
39	0xbb9408ec	-0.004517665
40	0x3c4b708c	0.01241697
41	0xbe17f408	-0.14839184
42	0x3cd4b9da	0.025967527
43	0xbd1bf67d	-0.038076866
44	0xbd3491e8	-0.04408446
45	0x3b05fe12	0.0020445627
46	0x3e35ea4a	0.17765155
47	0x3c9c445b	0.019075563
48	0x3d1ebd27	0.03875461
49	0x3d82ff7e	0.063963875
50	0x3d1224e2	0.035679705
51	0x3de3c14d	0.111208536
52	0xbe19c782	-0.15017512
53	0x3ded0a6a	0.11574252
54	0x3db3bbf3	0.08776083
55	0xbd44943e	-0.047992937
56	0xbe07e8a4	-0.13272339
57	0xbf0107ad	-0.5040234
58	0x3db2bc39	0.08727307
59	0x395f3777	0.000212876
60	0xbadfe384	-0.0017081355
61	0x3cc695cb	0.024241349
62	0xbc01ca58	-0.007921778
63	0x3a9ef0bb	0.0012126187
64	0x3e0878e8	0.13327372
65	0xbe121d4e	-0.14268991
66	0x3defefc7	0.11715656
67	0xbb1252f1	-0.002232727
68	0x3d2811a0	0.041032434
69	0xbc9356e2	-0.017985765
70	0x3c3b9ab8	0.011450462
71	0x3d4a30b6	0.04936286
72	0x3dbc819d	0.09204409
73	0x3cf09b8e	0.02937105
74	0x3cce6ea4	0.025199242
75	0x3d69eae8	0.05710879
76	0x3dc69952	0.09697212
77	0xbbfc9f79	-0.0077094403
78	0xbd8225c9	-0.06354863
79	0x3d60bf96	0.05487021
80	0x3d113880	0.035454273
81	0x3c86d578	0.016459212
82	0xbe885bdb	-0.2663258
83	0xbc548aa9	-0.012972512
84	0x3c3a104c	0.011356425
85	0xbc9002d9	-0.017579483
86	0x3e0c0b5b	0.13676207
87	0xbe756c3e	-0.23967072
88	0x3d980c17	0.07424181
89	0x3d72b474	0.059254125
90	0x3d08b447	0.03337505
91	0xbd935a0c	-0.071949095
92	0xbe874c4d	-0.264254
93	0x3d28cfbd	0.04121374
94	0xbef3fa9e	-0.47652143
95	0x3df8f344	0.12155774
96	0x3c8a0be4	0.016851373
97	0x3d552951	0.052041356
98	0xbe0c2241	-0.13684942
99	0x3eadd22e	0.33949417
100	0xbe0adb16	-0.13560137
101	0xbc1cc15f	-0.009567588
102	0x3e15f55c	0.14644378
103	0xbe9aef1f	-0.3026056
104	0x3c737043	0.014858308
105	0x3d363b53	0.04449017
106	0x3aacd799	0.0013186812
107	0x3c2a8a12	0.010408895
108	0xbebe18b2	-0.37128216
109	0xbd7445b7	-0.059636798
110	0x3de76c66	0.11299972
111	0xbdf8d072	-0.12149133
112	0xbf366896	-0.71253335
113	0x3dca3f6f	0.0987538
114	0xbc098a6a	-0.008394817
115	0x3dcce3c6	0.10004382
116	0x3e1822aa	0.14856973
117	0x3da28ecc	0.079373926
118	0x3cd8f785	0.026485214
119	0xbd6f3d46	-0.058408044
120	0x3b3af936	0.002852989
121	0x3d33eecf	0.043928917
122	0x3e36a310	0.17835641
123	0x3cb0041a	0.02148633
124	0xbf174e92	-0.59104264
125	0xbea4906f	-0.32141444
126	0x3b11ec5d	0.0022266128
127	0xbd00caaa	-0.031443276
128	0xbe090c52	-0.13383606
129	0x3bed7a50	0.007247247
130	0xbd61460b	-0.05499844
131	0xbdf7a9c7	-0.12092929
132	0x3de238c2	0.11045982
133	0xbdbb8e6b	-0.091580234
134	0xbe2a7021	-0.16644336
135	0xbca0a7b7	-0.019611223
136	0xbd693c81	-0.056942467
137	0x3d1466d4	0.036230877
138	0xbf3af148	-0.73024416
139	0xbdce9b1a	-0.10088177
140	0x3d9a4c88	0.075341284
141	0xba52dffc	-0.00080442405
142	0xbe209e42	-0.1568537
143	0x3d80cd75	0.06289188
144	0x3d63ee49	0.05564717
145	0x3dc9c354	0.09851709
146	0xbdb0fd51	-0.08642066
147	0x3ca3d6f5	0.01999996
148	0x3c914f44	0.017737992
149	0x3d367c73	0.044552278
150	0x3cccc75f	0.024997411
151	0x3d614069	0.054993067
152	0xbbf1cdc8	-0.0073792674
153	0x3b209aee	0.0024506408
154	0x3d92fce5	0.07177142
155	0x3c9c9866	0.019115638
156	0x3bb78106	0.0056000976
157	0x3c177108	0.009243257
158	0x3cfa7311	0.030572446
159	0x3c489799	0.012243175
160	0xbd228140	-0.039674044
161	0x3c868971	0.016422959
162	0x3c963c69	0.018339353
163	0xbb972ae3	-0.004613267
164	0xbc5a3695	-0.013318677
165	0xbbc8135b	-0.006105823
166	0xbbb066dd	-0.005383356
167	0xbb05965f	-0.0020383818
168	0x3c216424	0.009850536
169	0x3c78cc79	0.015185469
170	0xbbda98fb	-0.0066710687
171	0x3c32895e	0.010897009
172	0xbbe4c7a3	-0.0069818064
173	0xbc5c519a	-0.01344719
174	0xbc10d66e	-0.0088401865
175	0x3c573eb4	0.013137508
176	0x3cb78bc1	0.022405507
177	0x3c22e387	0.009941942
178	0xbb942628	-0.00452115
179	0xbb9d497f	-0.004800021
180	0xbbc6a83b	-0.006062535
181	0xbbd71f81	-0.006565035
182	0xbc4c35d4	-0.0124640055
183	0x396a2383	0.00022329208
184	0xbaa48975	-0.0012553172
185	0xbc9e4ed7	-0.019324703
186	0xb8eb57f0	-0.00011222053
187	0x3bc0a176	0.0058786226
188	0xba3b0162	-0.000713369
189	0xbc5328c5	-0.012888138
190	0x3c6b0385	0.014344101
191	0xbc0a22f6	-0.008431187
192	0xbc9436cb	-0.018092534
193	0x3c9aa8f6	0.018879395
194	0xbaae955d	-0.001331966
195	0xbad3a1f2	-0.0016146286
196	0xbad30a13	-0.0016101025
197	0x3b88558f	0.00416059
198	0xbc899ae1	-0.016797485
199	0x3c018e18	0.007907413
200	0x3abb2b1e	0.0014279818
201	0xbc0f46ca	-0.008744905
202	0x3997c2d1	0.00028946114
203	0x39b0315f	0.0003360612
204	0x3ab8dcf9	0.0014103941
205	0xbbd7988c	-0.0065794643
206	0xbc04d930	-0.008108422
207	0x3b9cf427	0.0047898474
208	0x39d07d96	0.0003976642
209	0xb9e67cd3	-0.0004396202
210	0x3bbe6940	0.0058108866
211	0xbd1c95f2	-0.038228936
212	0x3a635363	0.00086717884
213	0xbb843e70	-0.0040357634
214	0xafb9bba3	-3.3784628e-10
215	0xbb278b9f	-0.0025565398
216	0x399ef6c5	0.00030319966
217	0xbb85ec0b	-0.0040869764
218	0x3a41304a	0.00073695614
219	0x3aa2ab41	0.0012410657
220	0x37521b42	1.2523322e-05
221	0xb9b28b4a	-0.00034054584
222	0xbc3310f0	-0.010929331
223	0xbb27d179	-0.0025607033
224	0x3a532110	0.0008053938
225	0xbb775efa	-0.003774582
226	0xb949961b	-0.00019224772
227	0xba0eb92a	-0.0005444462
228	0xbbeffa60	-0.007323548
229	0xbb82546e	-0.00397735
230	0x3a8af2a4	0.0010600877
231	0x37370ed0	1.0911099e-05
232	0xb9f0b2d5	-0.00045909607
233	0xbadc26a5	-0.0016796185
234	0xba0a73d3	-0.00052815414
235	0xbb4e8192	-0.0031510335
236	0x3db69712	0.08915533
237	0x3ab6fce0	0.0013960861
238	0xbafd28a3	-0.0019314479
239	0xbb3babb9	-0.002863629
240	0x379dfde2	1.8834082e-05
241	0x3c0f2f07	0.00873924
242	0xba9da878	-0.0012028357
243	0xbbe27428	-0.0069108196
244	0xb992b294	-0.0002798034
245	0xbaeff268	-0.0018306496
246	0x3ac98540	0.0015374795
247	0x3bff9faf	0.007801018
248	0xb732bf6f	-1.0654198e-05
249	0xbc2148dd	-0.009844032
250	0x3b2668dc	0.002539209
251	0xbbe85f48	-0.0070914365
252	0xbb138477	-0.0022509375
253	0xbd0385bb	-0.032109957
254	0xba8f3e74	-0.0010928647
255	0xbc80cfc8	-0.015724078

h1.bias f4 [10]
0	0xb9a0004f	-0.00030517808
1	0xba512d70	-0.0007979488
2	0xb94e6ef8	-0.0001968703
3	0x3ba32a82	0.0049794326
4	0x3b8a14b4	0.004213894
5	0xbbbd6256	-0.005779545
6	0xbbf5bfa0	-0.00749965
7	0xba042da6	-0.00050422025
8	0xbc931e2a	-0.01795872
9	0xbb55e520	-0.003263779

h2.weight f4 [10, 10]
0	0x3eb1d338	0.3473146
1	0x3df274d8	0.118386924
2	0x3c0c3f1c	0.008559968
3	0xbc59d540	-0.013295472
4	0xbcf369fd	-0.029713625
5	0x3c935faf	0.017989961
6	0x3c384202	0.011246206
7	0xbc24010a	-0.010010013
8	0xbc430c72	-0.011904823
9	0x3c3e86b0	0.011628792
10	0x3f753d73	0.9579689
11	0x3e2d2f8e	0.16912672
12	0x3a6f2587	0.00091227185
13	0x3b08024c	0.0020753322
14	0x3decf9cf	0.11571085
15	0x3bd938d3	0.0066290884
16	0xbc055dcd	-0.00814004
17	0xbc0b3bbc	-0.0084981285
18	0xbdc92c1e	-0.09822868
19	0xbb1d7636	-0.0024026758
20	0x3e45215c	0.19251007
21	0x3d4514ce	0.048115544
22	0xbd5dd2e7	-0.05415621
23	0x3ab6c212	0.0013943336
24	0xbce67a23	-0.028134411
25	0xbcbcdaf3	-0.023053622
26	0xbbee1203	-0.0072653308
27	0x3d2bfd7d	0.041989792
28	0x3d330010	0.04370123
29	0xbc944ef3	-0.018104052
30	0xbd8696ae	-0.065717086
31	0xbe46426d	-0.19361277
32	0x3b024bf7	0.0019881704
33	0xbc8ffae1	-0.017575683
34	0x3e16b3aa	0.14716974
35	0xbd8ce6c4	-0.068799525
36	0xbc0156a2	-0.00789419
37	0xbcf01d3d	-0.029310817
38	0xbe5ad031	-0.21368481
39	0xbcee9fbb	-0.0291289
40	0xbe9efb12	-0.31050926
41	0x3ec8115c	0.39075744
42	0x3b8af34a	0.004240428
43	0xbc0efe0e	-0.008727564
44	0xbe426d1a	-0.18986931
45	0xbc449d9a	-0.012000466
46	0xbcec7981	-0.028866531
47	0xbad1e9a8	-0.001601507
48	0xbea20927	-0.31647608
49	0xbc8562e0	-0.016282499
50	0x3d2deaee	0.042460375
51	0x3da0982a	0.07841523
52	0xbba0f420	-0.0049119145
53	0xbce110a9	-0.027473764
54	0x3cf57465	0.029962728
55	0xbdb52d8d	-0.08846579
56	0x3b383165	0.0028105613
57	0xbd8bc069	-0.06823809
58	0xbc227409	-0.00991536
59	0x3af162e6	0.0018416315
60	0x3d847623	0.06467845
61	0x3dd24b00	0.10268211
62	0xbba3306d	-0.004980138
63	0xbb45b85f	-0.0030169708
64	0xbb9320dd	-0.0044900016
65	0xbd3a4ecc	-0.045485303
66	0xbd66f120	-0.0563823
67	0x3c98f6e8	0.018672422
68	0x3cc77523	0.024347847
69	0xbc8ca7d1	-0.017169865
70	0xbca3c7ab	-0.01999267
71	0xbe7262ec	-0.23670548
72	0xbca2e3e3	-0.019884055
73	0xbcab5de3	-0.020918792
74	0x3e1b7217	0.1518024
75	0x3b933744	0.004492672
76	0xbaa46118	-0.0012541143
77	0xbd7ce232	-0.061739154
78	0xbe3b7bdd	-0.18308969
79	0xbb393809	-0.002826216
80	0xbf127e14	-0.5722363
81	0x3eb76eb6	0.35826653
82	0xbc213a78	-0.0098406
83	0x3c95496c	0.018223487
84	0x3e893339	0.26796892
85	0x3bb1f3eb	0.0054306886
86	0xbc93abed	-0.018026317
87	0x39cc703a	0.00038993527
88	0x3b1f29e0	0.0024286434
89	0xbcc7f4be	-0.024408694
90	0x3d91b344	0.0711427
91	0x3dbd100a	0.09231575
92	0xbb264220	-0.0025369003
93	0xbb3ef60f	-0.0029138362
94	0x3b09c16f	0.0021019836
95	0xbd5fee53	-0.054670643
96	0xbc9b73a0	-0.018976033
97	0x3cc82c25	0.024435112
98	0x3d2c1cc8	0.042019635
99	0xbd698bbe	-0.057018034

h2.bias f4 [10]
0	0xbe8af549	-0.27140263
1	0xbe6304b0	-0.22169757
2	0x3e0afc8c	0.13572901
3	0xbd37b183	-0.044847023
4	0x3ddba40b	0.10724648
5	0xbe524291	-0.20533206
6	0x3ddb0f9e	0.10696338
7	0xbdaa1e32	-0.083065405
8	0xbc3f6ab3	-0.011683154
9	0x3ddc20e7	0.10748463

h3.weight f4 [10, 10]
0	0xbe4178c5	-0.18893726
1	0xbe24433f	-0.16041277
2	0xbe5c4c05	-0.21513374
3	0xbdd55bca	-0.10417898
4	0xbe8e9586	-0.27848452
5	0x3dc17ff0	0.0944823
6	0x3e97ff57	0.29686996
7	0x3e00c400	0.12574768
8	0x3e528ef6	0.20562348
9	0x3e5270ce	0.20550844
10	0xbd26f168	-0.040757567
11	0xbd099c40	-0.033596277
12	0xbe93385a	-0.2875393
13	0xbd3c59d0	-0.04598409
14	0x3da3a714	0.07990852
15	0xbe86bbf5	-0.26315275
16	0x3e9e74df	0.3094854
17	0xbd8a7aea	-0.06761725
18	0x3e84fd0f	0.25974318
19	0xbe908ef3	-0.28234062
20	0x3e09a044	0.13440043
21	0xbdf473c2	-0.119361416
22	0x3d8a0af8	0.067403734
23	0xbe9eea69	-0.31038216
24	0xbd623a48	-0.055231363
25	0xbd6a1938	-0.057152957
26	0xbe382714	-0.17983657
27	0xbe45d2f2	-0.1931875
28	0x3e1d1052	0.15338257
29	0x3e88bd99	0.26707152
30	0xbe8aeb54	-0.27132666
31	0xbe9da634	-0.30790865
32	0x3ea1e771	0.31621888
33	0x3e6aa7aa	0.22915521
34	0xbe731686	-0.23739061
35	0xbe5d32ce	-0.21601412
36	0x3e241d96	0.16026911
37	0x3e29faa4	0.16599518
38	0x3e4e35a2	0.20137647
39	0x3de6ea08	0.11275107
40	0xbda09138	-0.07840198
41	0xbddb23fe	-0.10700224
42	0xbdfdff62	-0.12402226
43	0xbd4d7c38	-0.050167292
44	0xbe8377c1	-0.25677302
45	0x3e6e9faa	0.23303095
46	0x3e72804a	0.23681751
47	0xbcab5c40	-0.020918012
48	0x3e666a46	0.22501478
49	0x3e9fcb79	0.31209925
50	0x3e9ece67	0.31016847
51	0xbe42f4f9	-0.19038762
52	0xbdf39c44	-0.1189504
53	0x3dac217c	0.08404824
54	0x3e9aa005	0.3020021
55	0xbe9bbc77	-0.30417225
56	0x3d9635e4	0.073344976
57	0xbb0fed80	-0.002196163
58	0x3e7706b6	0.24123654
59	0xbe7b0306	-0.24512872
60	0xbcf012f0	-0.029305905
61	0x3e8f1273	0.27943763
62	0xbc1f08e0	-0.009706706
63	0x3e4be1b6	0.1991032
64	0xbe6e62c2	-0.2327986
65	0xbe98f1b0	-0.29871893
66	0x3d05cad0	0.03266412
67	0x3d1b9468	0.037983328
68	0x3e803097	0.2503707
69	0xbe8d51c9	-0.2760146
70	0x3d8e5308	0.06949431
71	0xbe52fda6	-0.20604572
72	0xbe80c7e9	-0.2515252
73	0xbdf5b2f8	-0.11997026
74	0x3e444046	0.19165143
75	0xbe876c5f	-0.26449868
76	0x3e01f024	0.12689263
77	0x3e947453	0.28994998
78	0xbe96659b	-0.29374394
79	0x3d4e03b0	0.050296485
80	0x3df44ad8	0.11928338
81	0x3dc0566c	0.09391484
82	0x3e8a93c7	0.2706587
83	0x3e239abc	0.15976995
84	0x3e909ddd	0.2824544
85	0xbe398093	-0.18115453
86	0xbe5f4132	-0.21802214
87	0xbd3dad60	-0.04630792
88	0xbde8665c	-0.113476485
89	0x3b306900	0.0026918054
90	0x3e776482	0.24159434
91	0x3e85f9d1	0.26167157
92	0xbd7f7030	-0.06236285
93	0x3c275c20	0.010214835
94	0xbe9a5d1b	-0.3014916
95	0x3d60aff0	0.054855287
96	0x3da3d860	0.08000255
97	0x3e31fba4	0.1738115
98	0xbd2fbee0	-0.042906642
99	0x3e8b9d6b	0.27268538

h3.bias f4 [10]
0	0xbd5ec4d8	-0.054386944
1	0xbe9a595a	-0.30146295
2	0xbce96b00	-0.028493404
3	0xbc599960	-0.013281196
4	0x3d9a50fc	0.07534978
5	0x3e6ee186	0.23328218
6	0x3ea12ff1	0.3148189
7	0x3e8a5e3d	0.27025023
8	0x3e5c667a	0.21523467
9	0x3b042a80	0.0020166934

h4.weight f4 [10, 10]
0	0x3e5df956	0.21677145
1	0xbd07d9e0	-0.033166766
2	0x3e06dbbe	0.13169762
3	0x3e9e1cef	0.3088145
4	0xbd42e9c0	-0.047586203
5	0xbe3f24d9	-0.186664
6	0xbe31a9fb	-0.17349999
7	0x3e85d75b	0.26140866
8	0xbd36dba0	-0.044643044
9	0x3da99398	0.082801044
10	0x3e63b16a	0.22235647
11	0x3e6ca706	0.2311059
12	0x3e8c7dcf	0.27439734
13	0x3dbb102c	0.09133944
14	0xbe57de74	-0.21080953
15	0x3dee93e0	0.11649299
16	0x3e99ecd1	0.3006349
17	0xbe893250	-0.26796198
18	0x3e837f3f	0.2568302
19	0x3e6552aa	0.22394815
20	0xbe873518	-0.26407695
21	0xbd82b9a4	-0.063830644
22	0xbdd83780	-0.10557461
23	0xbe7196c8	-0.23592675
24	0xbe445a0e	-0.19174978
25	0x3e888c3f	0.266695
26	0x3dbbc6cc	0.09168777
27	0x3e693416	0.22773775
28	0x3e546806	0.20742807
29	0xbdb5fbe2	-0.088859335
30	0xbe38fcf2	-0.18065241
31	0xbdd48f6e	-0.103789195
32	0xbd6c8848	-0.057747155
33	0xbe6eefc7	-0.23333655
34	0x3e85cf29	0.26134613
35	0x3be6f940	0.007048756
36	0x3de55844	0.11198476
37	0xbe720fba	-0.23638812
38	0x3e08545a	0.13313428
39	0x3e64f902	0.22360614
40	0xbe71b93a	-0.23605815
41	0xbe50c228	-0.20386565
42	0xbe313e0f	-0.1730883
43	0xbe551c9a	-0.20811692
44	0xbe97d38e	-0.2965359
45	0xbde1caaa	-0.11024983
46	0xbce2ce30	-0.027686208
47	0xbd4b9370	-0.049701154
48	0x3e9bd629	0.3043683
49	0xbe5233c4	-0.2052756
50	0x3dcdc23c	0.10046813
51	0x3e3f6d4e	0.1869404
52	0x3e99045f	0.29886147
53	0xbdc00f46	-0.09377913
54	0x3e5bf816	0.21481356
55	0xbcc371f0	-0.02385804
56	0xbe677720	-0.22604036
57	0xbe643221	-0.22284748
58	0x3e172826	0.14761409
59	0x3d8596ec	0.06522927
60	0x3e5757a6	0.21029529
61	0x3e97f96b	0.29682478
62	0x3c877040	0.016533017
63	0x3e69430e	0.22779486
64	0x3e224090	0.15844941
65	0x3e538982	0.20657924
66	0x3da07b8c	0.07836065
67	0xbde096f8	-0.10966295
68	0xbea0b4ba	-0.31387883
69	0xbe8d493c	-0.27594936
70	0x3e81257b	0.25223908
71	0xbe6bb71e	-0.23019072
72	0xbe7294ac	-0.23689526
73	0xbe6e2a71	-0.23258378
74	0x3e9937af	0.29925296
75	0x3e8e0d05	0.27744308
76	0xbd230d70	-0.039807737
77	0xbe2ce5d9	-0.16884555
78	0x3e0a8f58	0.13531244
79	0x3e8c1627	0.2736065
80	0xbe6e7b38	-0.23289192
81	0x3e8c57cf	0.27410743
82	0xbc9f90c0	-0.019478202
83	0x3cebce20	0.028784811
84	0x3e2c8fd2	0.16851738
85	0x3e55c32e	0.20875236
86	0xbd4c5108	-0.049881965
87	0xbdccf232	-0.100071326
88	0x3d0370b8	0.03208992
89	0xbe17b8d3	-0.14816599
90	0x3e00296e	0.12515804
91	0x3dbbc2b8	0.09167999
92	0x3d9e1244	0.07718328
93	0x3df2f3f0	0.11862934
94	0x3dcb97ac	0.099410385
95	0xbe0bb513	-0.13643293
96	0xbe7ab07a	-0.24481383
97	0x3da6f480	0.081521034
98	0xbe1b0367	-0.15138017
99	0xbe814fd4	-0.25256217

h4.bias f4 [10]
0	0xbe901af6	-0.2814557
1	0xbe953a96	-0.2914626
2	0x3e279cc0	0.16368389
3	0xbe7ae077	-0.24499689
4	0xbe5cecac	-0.21574658
5	0xbe98f1c5	-0.29871956
6	0xbd8b2b26	-0.06795339
7	0xbd5f4580	-0.05450964
8	0xbde8f4f0	-0.11374843
9	0x3e1b2794	0.15151817

h5.weight f4 [10, 10]
0	0x3e80cd4f	0.25156638
1	0xbd530d38	-0.05152628
2	0xbdd446ca	-0.103650644
3	0xbce406e0	-0.02783531
4	0x3e2987b6	0.16555676
5	0xbd61c6b0	-0.055121124
6	0x3df42018	0.11920184
7	0x3df41e18	0.119198024
8	0x3ea10833	0.31451568
9	0xbd95d320	-0.073156595
10	0x3e32828a	0.17432609
11	0xbe8956c3	-0.26824006
12	0x3d1fccb0	0.039013565
13	0xbe9ff33b	-0.31240258
14	0xbe49ca8b	-0.1970617
15	0x3d94a1cc	0.07257423
16	0xbe4181cd	-0.18897171
17	0xbe92bfa3	-0.28661832
18	0x3e0ad98e	0.13559553
19	0xbe547478	-0.20747554
20	0xbde30308	-0.110845625
21	0xbe1bfd80	-0.15233421
22	0xbe832606	-0.25614947
23	0xbe50d336	-0.2039307
24	0xbe7b947d	-0.24568363
25	0xbe19130e	-0.14948675
26	0xbda89618	-0.08231753
27	0x3cd580d0	0.0260624
28	0xbe307b04	-0.17234427
29	0xbe76d886	-0.24106035
30	0xbc8f3db0	-0.01748547
31	0xbd9bb77a	-0.07603355
32	0xbde31834	-0.11088601
33	0x3e3e8326	0.18604717
34	0xbe0ce3aa	-0.13758722
35	0x3e9b95cb	0.3038772
36	0xbe932736	-0.28740853
37	0x3cc30030	0.0238038
38	0x3e110f24	0.14165932
39	0x3e0c406c	0.1369645
40	0x3e60589a	0.21908799
41	0x3d78d238	0.060747355
42	0x3e5582d6	0.20850691
43	0xbc8d7fa0	-0.01727277
44	0x3e488a36	0.19583973
45	0x3e962779	0.2932699
46	0xbe065f62	-0.13122323
47	0xbe82d944	-0.25556386
48	0x3d9d90c8	0.076936305
49	0xbe27aa65	-0.16373594
50	0xbe617000	-0.22015381
51	0x3d6827b0	0.056678474
52	0xbe2c22a8	-0.16810095
53	0x3e19a1a0	0.15003061
54	0xbd4ca248	-0.04995945
55	0xbe926207	-0.28590414
56	0x3dc29f6c	0.095030636
57	0x3cb4a440	0.022050977
58	0xbd92d872	-0.0717019
59	0xbb561100	-0.0032663941
60	0xbde88018	-0.11352557
61	0x3ddc042c	0.10742983
62	0x3e457a9e	0.19285056
63	0xbe9985b7	-0.2998483
64	0xbe93b239	-0.2884691
65	0x3c0a2420	0.008431464
66	0x3d991620	0.07474923
67	0xbe9814f9	-0.297035
68	0xbe414a09	-0.18875898
69	0xbe941f1c	-0.28929985
70	0xbdb9797a	-0.09056373
71	0x3d4c3df0	0.049863756
72	0xbe87aae3	-0.26497564
73	0xbd84f744	-0.06492475
74	0x3e209bfc	0.15684503
75	0xbcaa93c0	-0.020822406
76	0xbd3b0710	-0.045661032
77	0x3e9314b7	0.28726742
78	0xbe95c81c	-0.29254234
79	0x3e8020b9	0.25024965
80	0xbe5a6486	-0.21327409
81	0x3e94eccb	0.2908691
82	0xbe8be3d7	-0.27322266
83	0xb94ec800	-0.00019720197
84	0x3e3d9eea	0.18517652
85	0x3e8657cb	0.26238856
86	0x3e9916e9	0.29900292
87	0x3e78a50a	0.24281707
88	0x3d1c7158	0.03819403
89	0xbe997f2f	-0.29979846
90	0x3c463de0	0.012099713
91	0xbe884142	-0.26612288
92	0x3d8fbd58	0.07018536
93	0xbe04734e	-0.1293461
94	0xbe8c5368	-0.27407384
95	0x3d5c4278	0.053774327
96	0xbe9a862b	-0.30180487
97	0xbe855003	-0.26037607
98	0x3e82aafb	0.25521073
99	0xbe8da9c4	-0.27668583

h5.bias f4 [10]
0	0xbdc069d4	-0.09395185
1	0x3b491100	0.0030680299
2	0xbe57d925	-0.21078928
3	0x3e985c91	0.29758123
4	0x3e8f6a5d	0.28010836
5	0x3e8eae63	0.27867422
6	0xbe43aa2e	-0.19107887
7	0xbe6d43ec	-0.23170441
8	0x3e0f3de2	0.1398845
9	0xbe4f591d	-0.20248838

out.weight f4 [1, 10]
0	0x3e85fde1	0.26170257
1	0x3d881611	0.06644834
2	0xbd9b396c	-0.07579312
3	0x3e68436d	0.22681971
4	0xbd894237	-0.067020826
5	0x3e6f0ec2	0.23345473
6	0xbd9272c5	-0.07150797
7	0x3e92be2c	0.28660715
8	0xbd7b96e9	-0.061423216
9	0xbd92276a	-0.07136424
