MejoresPesos/best_model_MLP_P4.pth (torch, 15242 bytes, 19 tensors)

h1.weight f4 [10, 141]
-0.028788561 -0.028226892 -0.016625414 -0.030226223 0.07395992 0.021841543 -0.09802803 -0.018863361
-0.022770736 -0.08351018 -0.39661345 -0.020323962 -0.018080324 -0.09629085 -0.025316652 -0.013720099
-0.036624823 -0.19828546 -0.14084347 -0.05752203 -0.0015856962 0.016161712 0.042899642 -0.013444734
-0.011316845 0.0047611697 0.0076915943 -0.055234533 -0.0006171133 -0.008373087 -0.0045856657 0.0033188032
0.010584193 -0.0070852013 0.032592736 0.011338377 -0.0010226583 -0.0057807993 0.00070179417 -0.013299422
0.013079357 -0.0048842826 -0.0073785987 0.004204042 -0.0049928487 0.003080102 0.028151227 -0.018397214
0.012075943 0.014875515 -0.013610888 -0.00015524989 0.019038677 0.006850286 0.0037800176 0.002539169
0.013242974 0.014494531 -0.0009052503 -0.004464102 -0.008427195 0.00084407337 -0.00025843567 0.0033512614
-0.0009162312 -0.004193835 -0.003686158 -0.014631294 -0.0054300213 0.014407656 0.004526798 0.0016017647
0.0014834132 -0.0012846948 -0.01110728 -0.00041220477 -0.008853168 -0.0014386793 0.0086255185 0.001889306
-0.00084153295 0.0015920964 0.007784677 -0.0045078113 0.0014763762 -0.0024505185 -0.010496149 0.0024455593
-0.005484521 -0.00013154549 -0.00043337359 0.0034938923 0.024413064 -0.0008407734 -0.0122767 0.022268966
-0.009233687 0.0114460355 0.01768442 0.014707563 0.0017455292 -0.0043974295 0.029442295 -0.006343377
0.0053498675 -0.0016184247 -0.001429187 -0.00011899519 -0.00024612894 0.011235627 0.00022374195 0.0056843413
-0.017488612 0.002667611 -0.010395486 0.0056720763 -0.006381314 -0.0025039844 6.775455e-05 0.00026040451
-0.00059815863 0.0059296023 -0.0057962863 -0.0039174794 -0.04100386 0.016725544 -2.9300048e-05 -0.001267929
-0.009564737 0.003594148 0.0036112024 0.03842298 -0.0017066413 0.008277656 -0.0021672936 0.00838376
-0.010943572 -0.00772283 -0.009546625 0.00078199425 -0.0043290597 0.054603036 -0.07975549 -0.0390795
0.032407742 -0.017726054 -0.049886573 -0.033294726 0.03876622 0.031967863 0.15196125 -1.0600404
-0.016513119 -0.015846668 0.22299027 -0.013089102 -0.02137732 -0.0651769 -0.69805914 0.039530884
-0.05860772 -0.01590692 0.00086267135 0.02088821 -0.04222726 0.006660303 0.0050135097 0.0016607409
-0.031120216 -0.012792677 0.025546933 0.0049623544 0.00084043643 0.053608578 -0.0045324597 0.024652796
-0.027936213 0.028481774 -0.0003582794 -0.0030977388 -0.0013158924 0.006641548 -0.03765281 0.007523838
-0.002800352 -0.016196368 -0.014379216 0.046410784 -0.012728526 0.0052220277 0.022872005 0.007745916
0.019147491 -0.030565416 0.015611936 0.023616437 -0.02133807 -0.037895538 -0.1366057 0.043088477
0.0073955352 0.004993813 0.0056527075 -0.001135491 -0.0009439689 0.039847046 -0.0583752 0.030349847
-0.0099399 0.019699357 0.0046006325 0.0119886 0.019254452 0.025053406 0.017096205 0.026076417
0.01979481 0.045748822 -0.0006016757 -0.010706655 0.010587311 0.019278139 0.021622287 -0.05159134
-7.074282e-06 -0.005463217 -0.004179797 0.040411796 -0.06948711 0.03565853 0.01953999 0.014981638
-0.015084721 -0.05827052 0.025340859 -0.14761676 0.06659447 0.008111661 0.01470074 -0.0308306
0.09786039 -0.031703547 -0.00074578956 0.0668307 -0.10800521 0.0032607068 0.019465083 0.006509638
-0.006462392 -0.10889214 -0.014967232 0.034474622 -0.048019346 -0.1861403 0.027573047 -0.0057560666
00000000: fdd5 ebbc 153c e7bc 0532 88bc fc9c f7bc
00000010: 4c78 973d 09ed b23c ebc2 c8bd 5687 9abc
00000020: b289 babc 6307 abbd eb10 cbbe 707e a6bc
00000030: 301d 94bc 2334 c5bd de64 cfbc 44ca 60bc
00000040: e903 16bd 580b 4bbe 4539 10be 389c 6bbd
00000050: 23d7 cfba 9165 843c 89b7 2f3d 4d47 5cbc
00000060: 4a6a 39bc 9603 9c3b c509 fc3b 9b3d 62bd
00000070: c6c5 21ba 462f 09bc 5a43 96bb 4780 593b
00000080: 5369 2d3c fa2a e8bb f67f 053d 9ac4 393c
00000090: b80a 86ba dc6c bdbb 9cf8 373a d2e5 59bc
000000a0: cd4a 563c 550c a0bb 2cc8 f1bb 0fc2 893b
000000b0: 0d9b a3bb 89db 493b 679d e63c c1b5 96bc
000000c0: 2dda 453c 6fb8 733c 3400 5fbc 93ca 22b9
000000d0: 00f7 9b3c 5d78 e03b 2cba 773b 3068 263b
000000e0: 0ff9 583c 787a 6d3c 524e 6dba 9a47 92bb
000000f0: 3812 0abc ce44 5d3a a67e 87b9 d6a0 5b3b
00000100: 3c2f 70ba 706c 89bb 7893 71bb 18b8 6fbc
00000110: 52ee b1bb 170e 6c3c 8955 943b 4ef2 d13a
00000120: 166f c23a 3463 a8ba 4ffb 35bc 301d d8b9
00000130: e10c 11bc 1192 bcba 0c52 0d3c 97a2 f73a
00000140: 529a 5cba e4ad d03a 9b16 ff3b 43b6 93bb
00000150: f782 c13a e198 20bb 0af8 2bbc ad45 203b
00000160: 7fb7 b3bb 79ef 09b9 6b36 e3b9 c9f9 643b
00000170: e8fd c73c 5967 5cba 3624 49bc 686d b63c
00000180: e448 17bc 2788 3b3c ebde 903c fef7 703c
00000190: 3eca e43a 5018 90bb f830 f13c 1adc cfbb
000001a0: f14d af3b 5221 d4ba 8f53 bbba 0e8d f9b8
000001b0: de0a 81b9 a315 383c 469c 6a39 b643 ba3b
000001c0: 4744 8fbc 16d3 2e3b d451 2abc d3dc b93b
000001d0: 571a d1bb e319 24bb 7217 8e38 e786 8839
000001e0: bfcd 1cba 1c4d c23b c6ee bdbb 335e 80bb
000001f0: aaf3 27bd 0204 893c 60c9 f5b7 a330 a6ba
00000200: 6ab5 1cbc cc8b 6b3b eca9 6c3b 6a61 1d3d
00000210: 61b1 dfba 019f 073c 2709 0ebb 0a5c 093c
00000220: ab4c 33bc cb0f fdbb 7369 1cbc bffe 4c3a
00000230: c9da 8dbb 6fa7 5f3d d956 a3bd d311 20bd
00000240: fbbd 043d 3b36 91bc dd55 4cbd 0d60 08bd
00000250: 54c9 1e3d bcf0 023d bb9b 1b3e 67af 87bf
00000260: 8546 87bc dfd0 81bc 9057 643e ac73 56bc
00000270: 7d1f afbc 777b 85bd 01b4 32bf 23eb 213d
00000280: a60e 70bd 3b4f 82bc e524 623a c01d ab3c
00000290: 7ef6 2cbd ac3e da3b 5e48 a43b 38ad d93a
000002a0: d3ef febc 6098 51bc cd47 d13c 3f9b a23b
000002b0: bc50 5c3a ab94 5b3d 0785 94bb a9f4 c93c
000002c0: 7cda e4bc 9c52 e93c 72d7 bbb9 6f03 4bbb
000002d0: 067a acba 58a1 d93b d539 1abd 878a f63b
000002e0: 1c86 37bb 3fae 84bc ce96 6bbc 3c19 3e3d
000002f0: 4f8b 50bc 8b1d ab3b 125e bb3c 74d1 fd3b
00000300: 33db 9c3c 5364 fabc 35c9 7f3c 4277 c13c
00000310: 2dcd aebc 5a38 1bbd 5de2 0bbe 8b7d 303d
00000320: 3f56 f23b 24a3 a33b 593a b93b c1d4 94ba
00000330: ae74 77ba a836 233d d51a 6fbd 3ea0 f83c
00000340: f6da 22bc 8c60 a13c e7c0 963b d56b 443c
00000350: 83bb 9d3c cd3c cd3c 570d 8c3c 369e d53c
00000360: ba28 a23c 1e63 3b3d c6b9 1dba f76a 2fbc
00000370: 6776 2d3c 30ed 9d3c 3921 b13c 7151 53bd
00000380: 9f5f edb6 c904 b3bb aef6 88bb d786 253d
00000390: 424f 8ebd ae0e 123d 5412 a03c 8b75 753c
000003a0: e825 77bc 12ad 6ebd a297 cf3c d928 17be
000003b0: ae62 883d c6e6 043c 5fdb 703c 7490 fcbc
000003c0: 076b c83d 94db 01bd 1781 43ba 89de 883d
000003d0: d631 ddbd 95b1 553b 3d75 9f3c cd4e d53b
000003e0: 79c2 d3bb d802 dfbd 1f39 75bc 4335 0d3d
000003f0: efaf 44bd 909b 3ebe dfe0 e13c 639d bcbb

h1.bias f4 [10]
0.0307744 -0.012219377 0.014645865 -0.0009771412 0.021104578 -0.022450598 -0.019637497 -0.0075768298
0.035215046 0.0076628947
00000000: 981a fc3c c833 48bc 36f5 6f3c 6b13 80ba
00000010: 82e3 ac3c 51ea b7bc d1de a0bc 0e47 f8bb
00000020: a73d 103d 0519 fb3b

h2.weight f4 [10, 10]
-0.11426841 0.061391536 0.3744442 0.24216665 0.18420427 0.09420871 -0.08077158 0.19757883
-0.26631466 0.28006724 -0.08189971 0.20005526 0.44410604 -0.2530232 -0.052328672 -0.2307916
-0.09282292 -0.03641734 -0.14663847 0.08534921 -0.19383422 0.31963453 -0.1544792 0.24900699
-0.15584122 0.14485 0.2769241 -0.06087814 -0.24142988 -0.09335428 -0.2598989 -0.09009756
0.26990613 -0.30390474 0.16456687 -0.2443683 -0.12498375 -0.14555569 0.18617482 0.14154212
-0.2302646 0.24391171 0.15852669 0.08446733 0.070397586 0.2413918 0.15648651 0.023646448
0.022651965 -0.17932636 0.33082563 0.2776544 0.12546755 -0.14980799 0.07190227 0.018153146
0.09601695 -0.1293295 0.10072513 -0.3160992 0.14577354 -0.14936067 0.02828532 0.042277426
-0.27822924 0.1340943 0.09415438 -0.2014958 0.019141035 -0.2425884 -0.17326497 0.21347286
-0.04870031 0.27748954 0.010202905 -0.09923372 -0.001221614 0.14918855 0.17400795 0.034256265
-0.33621335 -0.35462686 0.14419818 -0.27123067 -0.16497214 0.2646199 0.15397252 -0.03089976
-0.35804015 0.23090535 0.16129571 0.35410506 -0.11513429 0.1925653 0.18540312 0.07785106
-0.094467275 -0.28024086 -0.21376625 -0.17320362
00000000: 8e05 eabd b175 7b3d 26b7 bf3e 89fa 773e
00000010: 0ba0 3c3e 7ff0 c03d 926b a5bd 1b52 4a3e
00000020: 655a 88be f964 8f3e 09bb a7bd 49db 4c3e
00000030: de61 e33e 428c 81be 9756 56bd a254 6cbe
00000040: f119 bebd 592a 15bd 6528 16be 91cb ae3d
00000050: 7a7c 46be 23a7 a33e cc2f 1ebe b0fb 7e3e
00000060: d794 1fbe 8f53 143e ffc8 8d3e 5b5b 79bd
00000070: 6539 77be 8730 bfbd 7811 85be 1285 b8bd
00000080: 2331 8a3e 6799 9bbe 3884 283e af3b 7abe
00000090: 7bf7 ffbd 8d0c 15be 9da4 3e3e 6bf0 103e
000000a0: 7cca 6bbe fec3 793e d254 223e 35fd ac3d
000000b0: 9c2c 903d 692f 773e 003e 203e 32b6 c13c
000000c0: 9d90 b93c 54a1 37be fa61 a93e b828 8e3e
000000d0: 917a 003e 4467 19be 7f41 933d e8b5 943c
000000e0: 89a4 c43d f46e 04be fa48 ce3d c1d7 a1be
000000f0: a945 153e 01f2 18be 9eb6 e73c 182b 2d3d
00000100: 1074 8ebe 0450 093e 03d4 c03d ea54 4ebe
00000110: a9cd 9c3c 1869 78be 5f6c 31be a198 5a3e
00000120: fa79 47bd 1c13 8e3e 162a 273c 0c3b cbbd
00000130: 901e a0ba e2c4 183e 242f 323e 4c50 0c3d
00000140: 2824 acbe a791 b5be b0a8 133e bfde 8abe
00000150: 75ee 28be 427c 873e f9aa 1d3e 7e21 fdbc
00000160: 0a51 b7be 7472 6c3e b42a 253e 424d b53e
00000170: 87cb ebbd d72f 453e 51da 3d3e 6070 9f3d
00000180: 0f78 c1bd bb7b 8fbe 8ae5 5abe 4a5c 31be

h2.bias f4 [10]
0.14077994 -0.064000785 0.1937925 0.106551126 0.2597013 -0.07356057 -0.1955715 -0.11501467
-0.19502628 -0.12855956
00000000: 9e28 103e d812 83bd 8b71 463e 7a37 da3d
00000010: 92f7 843e eda6 96bd e543 48be d08c ebbd
00000020: f8b4 47be 1ea5 03be

h3.weight f4 [10, 10]
0.22525057 -0.07720499 -0.10971886 -0.04805839 0.14622107 -0.020170748 0.045021206 0.17572907
-0.2944399 -0.19186723 -0.31239226 -0.29347062 0.26517072 0.19779691 -0.021015674 0.15120652
0.1977736 -0.17774297 -0.16962026 -0.1597064 0.22857389 0.13455975 -0.13948569 -0.11000532
-0.07298994 0.2565401 -0.22892585 0.086461246 0.068339825 0.29311928 -0.23115054 -0.112749726
-0.1874787 -0.13510764 0.051743567 -0.1518797 0.13729322 0.20161906 -0.042766064 0.2972915
0.30806157 0.22996095 -0.3072306 0.019225359 0.27558276 -0.13392866 0.025150925 -0.23495474
0.08212119 -0.06697428 0.2994155 0.12822261 -0.2867632 -0.00519377 -0.014637023 0.30989823
-0.10195899 -0.0019233823 -0.015701532 -0.26282835 -0.1389655 0.16909462 0.1807448 0.28932062
-0.09291564 -0.110073626 0.011054605 0.050287575 -0.091242254 0.27037868 0.05528903 -0.04660812
-0.120020315 -0.07885413 -0.24007736 -0.20339684 0.15214857 -0.15728605 -0.18282615 -0.1941813
-0.06352103 0.14066353 0.024326086 -0.14002122 0.09643927 -0.2509369 0.17039526 -0.10443959
-0.115098 -0.3147823 0.23733047 0.17616993 -0.30937997 -0.15920903 -0.21596628 0.25554934
-0.2867417 -0.30311817 0.07006079 0.192305
00000000: 16a8 663e a61d 9ebd 48b4 e0bd e0d8 44bd
00000010: faba 153e 203d a5bc 2868 383d 52f2 333e
00000020: d4c0 96be d878 44be e1f1 9fbe c841 96be
00000030: 75c4 873e 468b 4a3e 1029 acbc e2d5 1a3e
00000040: 2a85 4a3e 4102 36be efb0 2dbe 138a 23be
00000050: 460f 6a3e 08ca 093e 56d5 0ebe 784a e1bd
00000060: c07b 95bd 3959 833e 8a6b 6abe 9812 b13d
00000070: c0f5 8b3d bb13 963e bab2 6cbe 54e9 e6bd
00000080: 6bfa 3fbe a859 0abe 10f1 533d 5a86 1bbe
00000090: 9896 0c3e 3a75 4e3e 782b 2fbd 9736 983e
000000a0: 3fba 9d3e e27a 6b3e 544d 9dbe 807e 9d3c
000000b0: 2f19 8d3e 9824 09be 5009 ce3c fa97 70be
000000c0: 282f a83d d029 89bd fd4c 993e ca4c 033e
000000d0: a0d2 92be 8030 aabb 20d0 6fbc fbaa 9e3e
000000e0: e0cf d0bd 001a fcba 80a0 80bc 7091 86be
000000f0: f94c 0ebe 2427 2d3e 2a15 393e d521 943e
00000100: 8e4a bebd 486e e1bd 601e 353c 58fa 4d3d
00000110: 38dd babd 136f 8a3e c076 623d 28e8 3ebd
00000120: 36cd f5bd 467e a1bd d7d6 75be 4347 50be
00000130: d6cc 1b3e 980f 21be c736 3bbe 76d7 46be
00000140: 5017 82bd 1a0a 103e 8047 c73c b961 0fbe
00000150: f481 c53d cd7a 80be 187c 2e3e 6ce4 d5bd
00000160: 80b8 ebbd 252b a1be c206 733e e465 343e
00000170: 0d67 9ebe b107 23be 4426 5dbe 5dd7 823e
00000180: cfcf 92be 4e32 9bbe 087c 8f3d 9aeb 443e

h3.bias f4 [10]
0.20597437 -0.31481412 0.06493351 -0.24239604 0.21794364 -0.154467 0.080661416 -0.00599882
-0.29809785 0.2562193
00000000: f2ea 523e 512f a1be dcfb 843d ab36 78be
00000010: 9e2c 5f3e 992c 1ebe d031 a53d c091 c4bb
00000020: 48a0 98be 2d2f 833e

h4.weight f4 [10, 10]
-0.17870112 0.2694653 0.19828108 0.008031666 0.017564565 -0.16526167 -0.0033856034 -0.1446241
-0.14635554 -0.29203233 -0.021936566 -0.08749616 -0.03386739 -0.10221736 0.031394005 -0.11813678
0.22352704 -0.022490501 -0.051662445 -0.2923372 -0.27293077 -0.18657428 0.1483489 0.011328787
-0.18751256 -0.28091693 0.03838429 -0.1485053 0.19840363 0.30421802 -0.24891192 -0.1320297
0.21901068 -0.29999062 -0.20099726 -0.16542138 0.069503516 0.09685451 0.25398102 0.2690352
-0.13781796 0.25805065 0.2937987 0.15352616 0.22120133 -0.056705892 0.18438783 0.1554353
0.21864781 -0.0168342 0.106508404 0.03905055 0.26028296 0.17616293 -0.2908152 -0.10091919
0.23488578 0.1312252 0.0003479123 0.05713111 -0.04846865 0.00973466 -0.30250072 -0.22124684
0.23320511 0.2217885 0.056319 -0.2671382 -0.3103606 -0.26080877 -0.24271236 0.2660826
0.1048415 -0.16652419 -0.054620594 -0.3035427 -0.3153372 -0.26117605 -0.10888262 -0.032155395
0.18696263 -0.25376028 0.1785335 -0.16740562 0.30867723 -0.14600103 -0.23122378 -0.20718083
0.10010448 0.034685552 0.08718538 0.15458432 -0.03486404 -0.07303809 -0.264988 -0.24731135
0.062288135 -0.115278825 -0.29757747 -0.25702462
00000000: 6dfd 36be 5bf7 893e 320a 4b3e 4097 033c
00000010: 90e3 8f3c 5b3a 29be 00e1 5dbb 5718 14be
00000020: 3ade 15be 4385 95be 50b4 b3bc 3031 b3bd
00000030: 88b8 0abd 5657 d1bd 0097 003d b2f1 f1bd
00000040: 46e4 643e 003e b8bc 009c 53bd 39ad 95be
00000050: 95bd 8bbe 540d 3fbe c6e8 173e 609c 393c
00000060: 4b03 40be 58d4 8fbe d838 1d3d c611 18be
00000070: 522a 4b3e 77c2 9b3e c4e2 7ebe cb32 07be
00000080: 5644 603e 5f98 99be 3ad2 4dbe 3964 29be
00000090: dc57 8e3d a85b c63d cd09 823e fbbe 893e
000000a0: 2720 0dbe 371f 843e c96c 963e f635 1d3e
000000b0: 9a82 623e 7044 68bd 2ad0 3c3e 6e2a 1f3e
000000c0: 36e5 5f3e e0e7 89bc 1421 da3d 78f3 1f3d
000000d0: cf43 853e 0e64 343e bbe5 94be b8ae cebd
000000e0: e685 703e e65f 063e 0068 b639 5002 6a3d
000000f0: 1087 46bd 207e 1f3c 60e1 9abe 888e 62be
00000100: 52cd 6e3e 861c 633e c0ae 663d 57c6 88be
00000110: 96e7 9ebe ba88 85be 9789 78be fb3b 883e
00000120: 24b7 d63d 5185 2abe d8b9 5fbd f369 9bbe
00000130: e173 a1be deb8 85be dafd debd 60b5 03bd
00000140: 2273 3f3e deec 81be 7cd1 363e 616c 2bbe
00000150: f10a 9e3e 4b81 15be edc5 6cbe 3627 54be
00000160: 9403 cd3d 7012 0e3d 408e b23d 5a4b 1e3e
00000170: 98cd 0ebd fe94 95bd 82ac 87be 303f 7dbe
00000180: d821 7f3d 4e17 ecbd 135c 98be bb98 83be

h4.bias f4 [10]
-0.29185605 -0.22554347 -0.18602808 -0.18390587 -0.062022656 0.113795936 0.22652224 0.10323346
0.07849079 -0.07428789
00000000: 286e 95be def4 66be 257e 3ebe d251 3cbe
00000010: 780b 7ebd d80d e93d 72f5 673e 106c d33d
00000020: c8bf a03d 4024 98bd

h5.weight f4 [10, 10]
0.25831512 -0.27367625 0.25043896 -0.16073573 -0.06336096 -0.28265098 -0.18887137 0.2665092
-0.23952115 0.22276708 -0.033198178 0.1812126 0.035723716 0.06263 -0.30594435 -0.1452089
-0.12156029 -0.19330856 -0.14080931 -0.27488983 0.030921966 0.23383144 0.14972544 0.08605817
-0.024458438 0.087436676 0.1444745 -0.046441674 -0.23779215 -0.2981068 0.06700954 0.16645852
0.17554834 -0.15860829 0.3040841 -0.069937885 -0.2778516 -0.2690445 0.03450322 -0.23986694
0.13670975 -0.24144542 0.28179362 -0.2747512 0.06238392 -0.2814181 -0.11197963 -0.14984995
0.12264767 -0.05106181 0.09906173 0.21228883 0.23917964 0.23321238 -0.04653874 0.047842115
-0.30296454 0.25527462 -0.10964984 -0.034507483 -0.17952877 0.1989257 0.17454836 -0.21925157
-0.10243808 0.00027549267 -0.30398637 0.15693447 -0.09043108 -0.24888858 0.16723338 0.10284117
0.29995772 -0.2091896 0.13811818 -0.05031714 0.29832885 0.27725682 0.14739424 0.21867552
0.078576714 0.31201825 0.10292044 0.2157031 -0.023550093 -0.14128563 -0.21131268 0.25728467
-0.146001 -0.25292283 -0.20722425 -0.23052551 -0.20622915 -0.28009063 -0.15421402 0.26605466
-0.14681543 -0.0721122 0.22543076 0.2566894
00000000: e141 843e 4b1f 8cbe 8939 803e e897 24be
00000010: 64c3 81bd a1b7 90be 7f67 41be e573 883e
00000020: 0845 75be 0e1d 643e d0fa 07bd cc8f 393e
00000030: 0853 123d 2844 803d bda4 9cbe a4b1 14be
00000040: 9af4 f8bd aef2 45be 5130 10be 5cbe 8cbe
00000050: 1050 fd3c 8271 6f3e a051 193e 443f b03d
00000060: 105d c8bc 0012 b33d 20f1 133e a039 3ebd
00000070: c97f 73be 74a1 98be 4c3c 893d 1a74 2a3e
00000080: f2c2 333e 366a 22be e9b0 9b3e 983b 8fbd
00000090: 9142 8ebe 33c0 89be 4053 0d3d ae9f 75be
000000a0: a4fd 0b3e 783d 77be 4147 903e 30ac 8cbe
000000b0: 4886 7f3d 0916 90be 9455 e5bd 4472 19be
000000c0: b42e fb3d 3026 51bd e0e0 ca3d 3e62 593e
000000d0: 82eb 743e 3acf 6e3e 689f 3ebd 18f6 433d
000000e0: 2b1e 9bbe 5bb3 823e 1890 e0bd b857 0dbd
000000f0: 64d6 37be 2eb3 4b3e cebc 323e 7c83 60be
00000100: 0ecb d1bd 0070 9039 1aa4 9bbe 6eb3 203e
00000110: ee33 b9bd a6dc 7ebe 3a3f 2b3e 649e d23d
00000120: 0f94 993e cc35 56be da6e 0d3e 5819 4ebd
00000130: 8fbe 983e 9bf4 8d3e 84ee 163e 7aec 5f3e
00000140: d4ec a03d dbc0 9f3e f4c7 d23d 46e1 5c3e
00000150: 20ec c0bc 2ead 10be 5a62 58be d1ba 833e
00000160: 4981 15be 1a7f 81be 9832 54be e10e 6cbe
00000170: bc2d 53be 0a68 8fbe 48ea 1dbe 5138 883e
00000180: c956 16be 90af 93bd 52d7 663e cb6c 833e

h5.bias f4 [10]
-0.14994435 0.20264652 -0.036092997 -0.021280915 0.18415383 0.25465593 -0.28623822 0.30515304
0.13012224 0.11642173
00000000: 038b 19be 9282 4f3e 40d6 13bd 5055 aebc
00000010: d292 3c3e 4362 823e d18d 92be 053d 9c3e
00000020: c43e 053e 846e ee3d

h6.weight f4 [10, 10]
0.15688473 -0.09972493 -0.19445527 0.09958953 -0.30998003 -0.24055001 0.21495184 0.098534405
0.22385624 0.19425532 -0.29408097 0.28764412 0.29506883 -0.2374064 0.2175779 -0.28945583
0.26176313 -7.233024e-05 -0.2648868 0.060493886 -0.060265988 0.12614754 0.062214434 -0.1201693
0.1498597 -0.1485874 0.16996723 0.25729623 0.20456406 0.21136513 -0.059155703 0.23629948
-0.16361079 -0.09639418 -0.10485968 -0.23273547 0.010346502 0.08537561 0.14780632 -0.30515134
-0.29933554 -0.083547026 -0.22498012 -0.23859534 0.19921288 0.30305424 -0.17454074 -0.00425452
-0.29850453 -0.0817491 -0.008681387 -0.18268022 0.06726858 0.10126075 0.013311088 -0.2518491
-0.12473719 -0.08335714 -0.06554264 -0.21465066 0.30013797 -0.0006530285 -0.26854575 0.15859789
-0.31329772 -0.0038888752 -0.0306333 0.21723953 -0.17495507 -0.12149812 0.06177783 0.021229446
0.308894 -0.15404725 -0.29034266 0.012372613 -0.029233217 -0.28147274 -0.28782794 0.107365996
0.115024954 0.17750174 -0.29166663 -0.17504723 0.08832264 0.22146174 0.22872737 -0.05394259
0.18270364 0.0044774115 0.29496953 0.20059595 0.018382907 0.021232694 -0.016891122 -0.06333822
0.049572527 0.21105531 -0.061962098 -0.23279786
00000000: 64a6 203e 963c ccbd 481f 47be 98f5 cb3d
00000010: b4b5 9ebe be52 76be 561c 5c3e 68cc c93d
00000020: 923a 653e deea 463e c891 96be 1746 933e
00000030: 4313 973e aa1a 73be becc 5e3e 8e33 94be
00000040: d105 863e 00b0 97b8 3e9f 87be 70c8 773d
00000050: 78d9 76bd d22c 013e 90d4 7e3d 521b f6bd
00000060: d274 193e 4c27 18be e40b 2e3e 55bc 833e
00000070: 3e79 513e 1a70 583e 404d 72bd 7ef8 713e
00000080: 9689 27be 506a c5bd acc0 d6bd 3552 6ebe
00000090: 6084 293c 68d9 ae3d 8a5a 173e cc3c 9cbe
000000a0: 8242 99be b41a abbd 3061 66be 5652 74be
000000b0: 76fe 4b3e ed29 9b3e cfba 32be 8069 8bbb
000000c0: 96d5 98be 126c a7bd 603c 0ebc 8610 3bbe
000000d0: 1cc4 893d cc61 cf3d c016 5a3c 5ef2 80be
000000e0: 3676 ffbd 26b7 aabd 383b 86bd 62cd 5bbe
000000f0: afab 993e 0030 2bba d47e 89be 7c67 223e
00000100: 8f68 a0be 80dc 7ebb b0f2 fabc 0a74 5e3e
00000110: 6c27 33be 02d4 f8bd c00a 7d3d 60e9 ad3c
00000120: 5b27 9e3e 90be 1dbe cba7 94be 80b6 4a3c
00000130: 807a efbc 321d 90be 2f5e 93be b4e2 db3d
00000140: 3492 eb3d 04c3 353e 5455 95be 953f 33be
00000150: 80e2 b43d dec6 623e 8237 6a3e e8f2 5cbd
00000160: aa16 3b3e 40b7 923b 3f06 973e 0669 4d3e
00000170: c097 963c 30f0 ad3c 405f 8abc 78b7 81bd
00000180: 900c 4b3d e21e 583e f8cb 7dbd 9062 6ebe

h6.bias f4 [10]
-0.09521656 0.27350947 -0.038496643 0.07539952 0.05523905 -0.31210086 -0.11181407 0.23038808
0.28691283 -0.15926576
00000000: e600 c3bd 6f09 8c3e a8ae 1dbd 106b 9a3d
00000010: 5842 623d afcb 9fbe c6fe e4bd daea 6b3e
00000020: 3de6 923e 9016 23be

h7.weight f4 [10, 10]
0.30753872 0.09737006 -0.1259448 0.28347686 0.1688937 -0.06117773 -0.30133265 0.26937315
0.2852815 0.049756587 -0.056347102 -0.29624307 0.0044362843 0.19263104 0.23029003 -0.030469388
-0.009983778 0.005132735 0.008357525 -0.30356827 0.09601721 -0.2515736 -0.2402876 0.13755631
0.21310177 -0.27440768 0.020291477 0.29577127 0.015956253 -0.1580991 -0.119741395 0.16813499
-0.18311815 -0.024752915 0.08882159 0.06624204 -0.18444473 0.09574622 -0.08054033 0.2828695
-0.11978856 0.08437592 -0.25362563 -0.12789558 0.19523528 0.29140714 -0.07528533 0.23114577
-0.2671442 -0.1468301 0.17156243 0.1683971 -0.036091298 -0.042672604 0.24333563 -0.29836524
-0.1600311 -0.24083424 -0.13758308 -0.06721404 -0.066871256 -0.2504044 0.27025416 -0.020635903
-0.05329311 0.016854763 0.054033607 0.22114947 -0.15541634 -0.08490695 -0.013184875 -0.2286837
-0.037569195 0.2441822 -0.2978014 0.31221518 0.0543378 -0.22669286 -0.29811713 0.14011222
-0.03596744 0.11591095 -0.2723564 -0.19708353 0.073797494 0.049693972 -0.17538342 0.3079945
-0.064851284 0.26868924 0.22116688 -0.30277985 -0.06023988 -0.21147631 -0.14773831 -0.026885778
-0.28582326 -0.008635581 -0.11542001 -0.18912888
00000000: b775 9d3e f469 c73d acf7 00be e123 913e
00000010: 78f2 2c3e 8095 7abd 4648 9abe 47eb 893e
00000020: 6b10 923e 90cd 4b3d 38cc 66bd 2cad 97be
00000030: 405e 913b 1241 453e 26d1 6b3e f09a f9bc
00000040: 0093 23bc 8030 a83b 00ee 083c 4d6d 9bbe
00000050: aca4 c43d 41ce 80be f40d 76be 90db 0c3e
00000060: 5a37 5a3e 2a7f 8cbe 503a a63c 556f 973e
00000070: b0b6 823c bbe4 21be fa3a f5bd 942b 2c3e
00000080: 5383 3bbe a0c6 cabc 18e8 b53d e8a9 873d
00000090: 14df 3cbe 9816 c43d 54f2 a4bd 45d4 903e
000000a0: b453 f5bd 48cd ac3d 38db 81be 0ff7 02be
000000b0: c2eb 473e 5133 953e 322f 9abd 7ab1 6c3e
000000c0: 20c7 88be a15a 16be 10ae 2f3e 4a70 2c3e
000000d0: 78d4 13bd 78c9 2ebd fa2c 793e 54c3 98be
000000e0: 31df 23be 409d 76be 94e2 0cbe 84a7 89bd
000000f0: ccf3 88bd 0135 80be c15e 8a3e a00c a9bc
00000100: e049 5abd 0013 8a3c 5852 5d3d 0275 623e
00000110: 7625 1fbe b2e3 adbd 6005 58bc 0f2c 6abe
00000120: 28e2 19bd e60a 7a3e 6d79 98be abda 9f3e
00000130: 5091 5e3d 2c22 68be cfa2 98be 9479 0f3e
00000140: 9852 13bd b862 ed3d 4c72 8bbe 44d0 49be
00000150: 2423 973d e88b 4b3d b697 33be 75b1 9d3e
00000160: c0d0 84bd a391 893e 9279 623e f605 9bbe
00000170: 18be 76bd 3f8d 58be b648 17be 903f dcbc
00000180: 6d57 92be 407c 0dbc 5461 ecbd 00ab 41be

h7.bias f4 [10]
-0.054591596 0.16354904 0.18722102 -0.13491893 0.27115443 -0.1485349 0.14718759 0.23245993
-0.05134362 -0.1256466
00000000: 709b 5fbd 6679 273e deb6 3f3e 3028 0abe
00000010: c1d4 8a3e 8819 18be 58b8 163e fa09 6e3e
00000020: b04d 52bd 81a9 00be

h8.weight f4 [10, 10]
-0.17307334 0.06971559 -0.043299794 0.30236188 0.044092923 -0.18255062 -0.08620533 0.009708554
0.11163315 0.16599718 -0.01620543 0.016035885 -0.023474932 -0.15041086 0.30942538 -0.21657386
0.31040284 -0.0761846 -0.29177275 -0.04172471 -0.14335106 0.25254938 0.31393895 -0.20495138
-0.3130255 -0.17734203 0.1831781 -0.018875778 0.12671864 0.083138704 0.28339288 0.008994639
0.24049559 -0.25995886 -0.19455159 -0.31538418 -0.13765661 -0.07203466 0.042962015 -0.30998993
-0.2548223 0.23468885 0.20819458 0.04117912 0.1821627 0.22410628 0.24122283 0.24795726
0.23286745 0.17140967 -0.046761483 0.07191384 -0.09848872 0.07752469 -0.040680647 0.29784563
0.038887918 0.07878381 0.25435135 -0.15596792 -0.07401648 0.3065209 0.116260946 -0.30495828
0.15465817 0.1951603 0.15432414 -0.012764186 -0.2825156 0.17714694 0.01666525 -0.04799798
0.18036735 -0.31036526 0.017408997 -0.28479964 -0.10766575 0.16942608 0.07477027 0.22445229
-0.2628119 0.29108992 -0.3063489 -0.037832767 -0.116174296 -0.22223213 -0.0023607612 -0.07458204
0.2712789 0.03331533 -0.1471817 -0.10207419 -0.056070447 0.24026135 0.13285908 0.18755642
0.06522125 0.16962868 0.16438663 -0.07283187
00000000: 233a 31be 0cc7 8e3d 205b 31bd 2dcf 9a3e
00000010: c89a 343d 8dee 3abe 6c8c b0bd a010 1f3c
00000020: ec9f e43d 2afb 293e 40c1 84bc b05d 833c
00000030: 804e c0bc 4e05 1abe 016d 9e3e 8ac5 5dbe
00000040: 1fed 9e3e ac06 9cbd 3d63 95be 88e7 2abd
00000050: 9fca 12be 274e 813e 9bbc a03e c6de 51be
00000060: e144 a0be 2699 35be 0a93 3b3e 60a1 9abc
00000070: 88c2 013e a044 aa3d df18 913e 405e 133c
00000080: 7a44 763e 5419 85be 8838 47be 097a a1be
00000090: dbf5 0cbe e886 93bd f0f8 2f3d 00b7 9ebe
000000a0: 1278 82be 4652 703e f630 553e 70ab 283d
000000b0: dc88 3a3e 1e7c 653e 1e03 773e 82e8 7d3e
000000c0: ce74 6e3e 0486 2f3e f888 3fbd 9047 933d
000000d0: 74b4 c9bd 44c5 9e3d c0a0 26bd 397f 983e
000000e0: f048 1f3d 6859 a13d 573a 823e 0eb6 1fbe
000000f0: f495 97bd 4ff0 9c3e 381a ee3d 7e23 9cbe
00000100: b65e 1e3e 1ad8 473e 2607 1e3e e020 51bc
00000110: e2a5 90be 0266 353e 9085 883c 8899 44bd
00000120: 38b2 383e 32e8 9ebe 509d 8e3c 42d1 91be
00000130: dc7f dcbd 087e 2d3e 2821 993d d2d6 653e
00000140: 488f 86be bd09 953e c3d9 9cbe 88f6 1abd
00000150: caec edbd d290 63be 00b7 1abb 78be 98bd
00000160: 11e5 8a3e a875 083d cdb6 16be 460c d1bd
00000170: 20aa 65bd 1207 763e 360c 083e ca0e 403e
00000180: b892 853d 24b3 2d3e f854 283e e028 95bd

h8.bias f4 [10]
0.04209 0.0884583 0.21933606 -0.22327277 0.16233125 0.16174567 -0.001729697 0.2748972
0.0867928 0.0129213035
00000000: 9066 2c3d a029 b53d a299 603e 9ea1 64be
00000010: 2a3a 263e a8a0 253e 00b7 e2ba 53bf 8c3e
00000020: 6cc0 b13d e0b3 533c

h9.weight f4 [10, 10]
0.017721564 0.22746035 -0.18267208 0.15580386 0.018732399 -0.1100858 -0.12798877 -0.229016
-0.06624484 0.17433777 -0.18501346 0.25689986 -0.22287986 -0.29905134 -0.05762908 -0.121951446
0.30046025 -0.14164703 -0.15069555 -0.133769 0.17013258 0.074299574 -0.1401705 -0.31432182
0.11537224 0.07195854 -0.08708224 0.18489864 0.13587856 -0.26650786 -0.023238689 0.201386
-0.22858787 0.053598255 0.10289624 0.1938456 0.31455377 0.27570245 -0.079872444 0.27494696
0.1869587 -0.06286305 0.0989829 0.27187493 0.10566971 -0.007874459 -0.19805717 0.25550184
0.0631713 -0.104990184 0.2508931 0.07379156 -0.014275432 -0.1437611 -0.08070801 0.09857005
-0.22097328 0.27266172 0.015159786 -0.15854898 0.29544917 -0.16917804 -0.24664524 -0.14325531
0.004288316 -0.31208143 0.3025209 -0.29315788 0.03258279 -0.10564536 -0.3149043 -0.16042763
-0.06916238 0.11070177 -0.21732298 -0.018204033 -0.19337495 -0.23569414 -0.16208081 -0.029701918
0.17471072 0.17512387 0.31441376 0.232075 -0.11377452 0.12321898 0.029398143 0.3050464
-0.17512268 0.25397685 0.12797472 0.2064654 -0.1897173 0.04155782 0.2686138 -0.17104489
-0.3128195 -0.27497038 0.105306536 -0.04891053
00000000: d02c 913c 5eeb 683e 640e 3bbe 0c8b 1f3e
00000010: b074 993c aa74 e1bd 7d0f 03be 2c83 6abe
00000020: 60ab 87bd 9a85 323e 2b74 3dbe 6188 833e
00000030: 9e3a 64be 421d 99be 780c 6cbd aec1 f9bd
00000040: edd5 993e eb0b 11be ef4f 1abe befa 08be
00000050: 3c37 2e3e 602a 983d db88 0fbe caee a0be
00000060: 4848 ec3d 005f 933d 2c58 b2bd 1256 3d3e
00000070: c023 0b3e b873 88be 105f bebc 2238 4e3e
00000080: f012 6abe d889 5b3d 44bb d23d 767f 463e
00000090: 310d a13e df28 8d3e 2a94 a3bd d9c5 8c3e
000000a0: 1a72 3f3e 58be 80bd 8cb7 ca3d 3133 8b3e
000000b0: 5c69 d83d e003 01bc 80cf 4abe 23d1 823e
000000c0: f45f 813d 1805 d7bd 0f75 803e 0820 973d
000000d0: 80e3 69bc 1c36 13be 3e4a a5bd 18df c93d
000000e0: d246 62be 519a 8b3e c060 783c aa5a 22be
000000f0: 1d45 973e 023d 2dbe 9290 7cbe 85b1 12be
00000100: 0085 8c3b 23c9 9fbe 05e4 9a3e ca18 96be
00000110: 8875 053d 985c d8bd 233b a1be 2447 24be
00000120: 02a5 8dbd 9cb7 e23d ea89 5ebe a020 95bc
00000130: 1504 46be ce59 71be 83f8 25be 7051 f3bc
00000140: 5ee7 323e ac53 333e d7fa a03e 12a5 6d3e
00000150: 9e02 e9bd 3c5a fc3d 60d4 f03c 0b2f 9c3e
00000160: 5c53 33be 4109 823e ce0b 033e aa6b 533e
00000170: 4045 42be 8838 2a3d bf87 893e 6426 2fbe
00000180: e129 a0be ebc8 8cbe f4aa d73d 6856 48bd

h9.bias f4 [10]
0.019496053 -0.03139776 -0.0051537156 0.005529374 -0.05342886 -0.08371794 -0.2885018 -0.26578584
0.09792644 0.014520645
00000000: 30b6 9f3c f09a 00bd 80e0 a8bb c02f b53b
00000010: 38d8 5abd 5074 abbd 82b6 93be 1515 88be
00000020: a88d c83d 00e8 6d3c

out.weight f4 [1, 10]
0.037026934 0.19964944 -0.14270563 0.21824203 -0.12152367 -0.019164767 0.19133997 0.2320306
0.10116635 -0.043006
00000000: 8ea9 173d e770 4c3e 6d21 12be d77a 5f3e
00000010: 67e1 f8bd 6eff 9cbc a0ee 433e 6e99 6d3e
00000020: 4e30 cf3d 0f27 30bd
