MejoresPesos/best_model_MLP_P4.pth (torch, 15242 bytes, 19 tensors)

h1.weight f4 [10, 141]
0	0xbc4dd928	-0.012563981
1	0xbd8edcb2	-0.06975688
2	0xbcbc871f	-0.02301365
3	0xbd233717	-0.03984746
4	0x3c2c9e55	0.010535796
5	0xbd3c96a5	-0.046042103
6	0xbccc2853	-0.024921572
7	0x3cfbcc01	0.030736925
8	0x3d0f430e	0.034976058
9	0xbcf9c574	-0.03048966
10	0xbf8eb01f	-1.1147498
11	0xbccb0a91	-0.024785312
12	0x3ae2e34c	0.0017310171
13	0x3ec5fcdf	0.38669488
14	0xbbdb6281	-0.006695092
15	0xbcae476c	-0.021274291
16	0xbdb66964	-0.089068204
17	0xbf68db52	-0.90959656
18	0x3e049f52	0.12951401
19	0x3d20af9e	0.03922998
20	0xbd1cf18a	-0.038316287
21	0xbc774c73	-0.0150939105
22	0xbd5301d9	-0.051515434
23	0xbd5affe3	-0.05346669
24	0xbcbd6a6c	-0.023122035
25	0x3afa119d	0.0019078735
26	0xba038ccf	-0.00050182355
27	0xbc2811f3	-0.010258186
28	0xbcb461c7	-0.02201928
29	0x3d07327b	0.033007126
30	0xba9cbce1	-0.0011958146
31	0xbb0b8c4e	-0.0021293345
32	0x3d40402d	0.046936203
33	0x3bba666b	0.0056884787
34	0x3c704c97	0.014666698
35	0xbd3a7d49	-0.045529637
36	0x3cd01841	0.02540219
37	0xbaa59184	-0.0012631868
38	0xbb759ef1	-0.003747877
39	0x3c34c66e	0.011033637
40	0x3c12b873	0.008955109
41	0xbd3facd3	-0.046795677
42	0x3c93f0b3	0.01805911
43	0xbb4eace7	-0.0031536163
44	0xbc940249	-0.018067496
45	0xbcb02801	-0.02150345
46	0x3d3b42af	0.04571789
47	0xbbbb3bb4	-0.0057139043
48	0xbb62c1fe	-0.0034600492
49	0x3d09d91b	0.033654314
50	0x3bf13704	0.0073612947
51	0xba2d4d0d	-0.0006610908
52	0xbd8bebdd	-0.06832097
53	0x3c88949a	0.016672421
54	0x3d3fa5c2	0.04678894
55	0xbd4915d1	-0.04909307
56	0xbd93086b	-0.0717934
57	0xbe36fd0d	-0.17869969
58	0x3d9cf204	0.07663348
59	0x3c5cb81e	0.013471631
60	0x3ba4fdb6	0.0050351275
61	0x3c0479c7	0.008085675
62	0x39590d31	0.00020699647
63	0x3aa04a9f	0.001222927
64	0x3da6bfbd	0.0814204
65	0xbdca743d	-0.09885452
66	0x3d357b8c	0.044307277
67	0x3b9b126f	0.004732422
68	0x3d05f3d3	0.032703232
69	0xbc7819ce	-0.015142871
70	0xbba737a4	-0.0051030684
71	0x3d2541d0	0.040345967
72	0x3d241e7c	0.040068135
73	0x3d01e3fa	0.031711556
74	0x3d2be1fd	0.041963566
75	0x3d5384e2	0.0516404
76	0x3d963dfd	0.07336042
77	0xbc6a6d5e	-0.014308302
78	0xbd094068	-0.03350869
79	0x3c98fd65	0.018675515
80	0x3ce352da	0.027749468
81	0x3c72d5d2	0.014821487
82	0xbdadba4d	-0.084828
83	0xbba63b61	-0.0050729965
84	0xbc60446b	-0.013688187
85	0xbcac0bf3	-0.021001792
86	0x3d318911	0.043343607
87	0xbde90a53	-0.11378922
88	0x3d6c04f9	0.05762193
89	0x3c8518f8	0.016247258
90	0x3c9cbc3b	0.019132724
91	0xbd37f57b	-0.044911843
92	0xbdb904c1	-0.0903411
93	0x3d35cd13	0.044385027
94	0xbe521fb4	-0.20519906
95	0x3cdc6a30	0.026906103
96	0x3b27c2b7	0.0025598237
97	0x3c8e9b89	0.01740815
98	0xbd86690a	-0.06563003
99	0x3dfbe09e	0.12298702
100	0xbd99192f	-0.074755065
101	0xbbba8918	-0.0056926124
102	0x3d810bc3	0.063010715
103	0xbe585791	-0.21127154
104	0xb9261e7a	-0.00015842347
105	0x3d291c79	0.04128692
106	0x3c39d2de	0.011341779
107	0xbca75efa	-0.02043103
108	0xbe0c2e19	-0.1368946
109	0xbd22b9d9	-0.03972802
110	0x3d44ee41	0.04807878
111	0xbdaa58b6	-0.083177015
112	0xbe637021	-0.22210743
113	0x3d06cf47	0.03291252
114	0xbc7122fd	-0.0147178145
115	0x3d539eaa	0.051664986
116	0x3dd11252	0.102085724
117	0x3d47ef60	0.04881227
118	0xbc896825	-0.016773293
119	0x3a9a5b95	0.0011776561
120	0x3baba12c	0.005237719
121	0x3c8dc364	0.017305084
122	0x3d7b4a4a	0.061350144
123	0x3ca190ad	0.019722307
124	0xbe030ca2	-0.12797788
125	0xbe31c018	-0.17358434
126	0x3a7b8f31	0.00095962273
127	0xbd11ca85	-0.03559353
128	0xbd0dbb35	-0.034602363
129	0xbaaf2313	-0.0013361893
130	0xbc91a6d1	-0.01777974
131	0xbd282143	-0.041047346
132	0x3d85d855	0.06535403
133	0xbde1d0ea	-0.11026175
134	0xbd87e4a4	-0.066354066
135	0x3d4ada03	0.04952432
136	0x3c5519e4	0.013006661
137	0x3c92d3bd	0.01792323
138	0xbe686ee1	-0.22698547
139	0xbde59116	-0.112093136
140	0x3d10a6bc	0.03531526
141	0xbd9aac47	-0.075523905
142	0x3d8d9a08	0.06914145
143	0x3cf668e0	0.030079305
144	0x3d860f0e	0.0654584
145	0x3d3a5c30	0.045498073
146	0x3ca02bfc	0.019552223
147	0xbb9c4bb6	-0.0047697676
148	0x3c95337b	0.018213024
149	0x3d98ed53	0.07467141
150	0xbd82e7ea	-0.0639189
151	0x3dcbbeb7	0.09948485
152	0x3d0ae6de	0.03391158
153	0x3aa5d463	0.0012651797
154	0x3e23dca4	0.16002136
155	0x3cf0b0ff	0.029381273
156	0xbc18e851	-0.009332732
157	0xb9929596	-0.0002795874
158	0x3dbc693a	0.09199758
159	0x3d43d4d3	0.047810387
160	0xbc4f4da2	-0.012652786
161	0x3cde080c	0.027103446
162	0xbb805750	-0.0039166585
163	0xbbed864d	-0.007248676
164	0x3bf69a7a	0.0075257393
165	0x3b8f2b2b	0.0043691597
166	0x3abd4ffb	0.0014443392
167	0x3bf4ecb5	0.0074745067
168	0x3cc6f602	0.024287228
169	0x3bd8ac8c	0.006612366
170	0x3c201e0e	0.009772791
171	0x3a7a0cbf	0.00095386425
172	0xbaaf9dfb	-0.0013398522
173	0x3baf520e	0.005350358
174	0xbbb772a4	-0.005598383
175	0xbca2abbf	-0.019857286
176	0xbc861df1	-0.016371699
177	0x3a1f8d7e	0.00060864526
178	0x3a16db9f	0.0005754772
179	0x3b1b523f	0.0023700146
180	0x3b8b3954	0.0042487774
181	0xba649cf7	-0.00087208994
182	0x3cccf2c6	0.025018107
183	0x3c125fab	0.008933942
184	0x3c2cf6c6	0.010556882
185	0xbbfbe34e	-0.007687009
186	0x3a796dc3	0.0009514952
187	0xbb2c856e	-0.0026324647
188	0x3b4b90c7	0.0031061636
189	0xbc96fe5a	-0.018431831
190	0xbc08c8ad	-0.008348626
191	0x3c2c53d3	0.010518032
192	0x3c98f615	0.018672029
193	0x3c29af7a	0.010356778
194	0xbb9466bb	-0.004528848
195	0xbc1534e5	-0.009106849
196	0xba0280f5	-0.00049783225
197	0x3aa9510c	0.0012917831
198	0xb96a9e36	-0.00022374917
199	0x3aafc673	0.0013410583
200	0x3be9134b	0.0071128956
201	0x3ca78b05	0.020452032
202	0xb988469a	-0.00025992544
203	0xbaab83a0	-0.0013085492
204	0xbc003971	-0.007826195
205	0xbc0f31fe	-0.008739946
206	0xbb0744e5	-0.002064043
207	0xbbced2ae	-0.006311736
208	0x3c60123b	0.0136762215
209	0x3abc102c	0.0014348081
210	0xbc8f02c1	-0.017457368
211	0xbc90fe37	-0.017699344
212	0xba5fa5da	-0.0008531489
213	0x3b52f9b8	0.00321923
214	0xb9141e5b	-0.00014125688
215	0x3a1c795b	0.0005969011
216	0x3b9b9d41	0.0047489707
217	0x3c775997	0.0150970435
218	0xbb58aba5	-0.0033061292
219	0xbb2d8d3d	-0.002648189
220	0xbb81bcfa	-0.0039592953
221	0xbb6d6c57	-0.0036227906
222	0x3bb4838b	0.005508845
223	0x3bca9285	0.0061820173
224	0x3ba02c63	0.004888104
225	0xbb13c883	-0.0022549934
226	0x3c07b941	0.008283914
227	0x3c9649cd	0.018345738
228	0x3b7b052e	0.0038302648
229	0x3b930374	0.0044864956
230	0xbc07199e	-0.008245854
231	0x3a9fd113	0.0012193046
232	0xbb316a71	-0.00270715
233	0xbd13673a	-0.035987116
234	0x3babb7a6	0.0052403985
235	0xbc8398db	-0.016064098
236	0x3db14811	0.08656324
237	0xba076076	-0.0005164215
238	0xbc8e4f3d	-0.017371768
239	0xbbd7578e	-0.0065717166
240	0xbc1cdcdd	-0.009574142
241	0x3c7d90c0	0.015476406
242	0x3b2a2fea	0.00259685
243	0xbc882670	-0.01661989
244	0x3c35bc58	0.011092268
245	0xbbc9d8d4	-0.006159881
246	0xbb961705	-0.004580381
247	0x3af83069	0.0018935326
248	0xbba0cd5c	-0.0049072932
249	0xbbd2c6c0	-0.0064323843
250	0xbc4ef4b7	-0.012631587
251	0x3b19ce6a	0.002346898
252	0xbaf56b79	-0.0018724046
253	0xbcc2b82a	-0.023769457
254	0xbbe07dee	-0.0068509495
255	0xbb476a3d	-0.0030428313

h1.bias f4 [10]
0	0xbd6ec64d	-0.058294583
1	0x3d0df995	0.034661848
2	0xbce79984	-0.028271444
3	0x3d9e38e9	0.077256985
4	0xbb78724b	-0.003790992
5	0xbcafa929	-0.021442967
6	0x3c9108bd	0.017704362
7	0xbce3376d	-0.02773639
8	0x3d24108a	0.040054835
9	0xbc93d319	-0.018044995

h2.weight f4 [10, 10]
0	0x3e079c6c	0.13243264
1	0xbded4b52	-0.11586632
2	0x3e5495ba	0.20760241
3	0xbea15fab	-0.315183
4	0x3d5486ec	0.051886484
5	0x3eaabf32	0.33348995
6	0xbe831c9d	-0.25607768
7	0x3dd9356a	0.10605891
8	0xbe8a4ca2	-0.2701159
9	0xbdb56814	-0.08857742
10	0x3e24ea2a	0.16104952
11	0x3e930dad	0.2872137
12	0xbdbeb4ed	-0.093118526
13	0xbea41534	-0.32047427
14	0xbe980121	-0.2968836
15	0x3ca713a7	0.020395113
16	0xbe8ed284	-0.27894986
17	0xbca702ee	-0.02038714
18	0x3d8efbcf	0.069816224
19	0xbe07d0bc	-0.1326322
20	0xbd96c2a6	-0.07361345
21	0xbea2539d	-0.31704417
22	0x3e729d43	0.23692803
23	0x3e9671ab	0.29383597
24	0x3e8cea32	0.27522427
25	0x3e4ec107	0.20190822
26	0x3c67d4b8	0.014149837
27	0x3e0a31bc	0.13495535
28	0xbd9db7ab	-0.077010475
29	0x3e4bd96c	0.19907159
30	0xbeb422be	-0.35182756
31	0x3e2131c1	0.15741636
32	0xbe8bf269	-0.27333382
33	0x3e879d2c	0.264871
34	0x3dba8513	0.09107413
35	0x3e827913	0.25482997
36	0x3e871512	0.26383263
37	0xbdc80ac1	-0.09767676
38	0x3e87026a	0.2636903
39	0xbbcaebf6	-0.0061926795
40	0xbe9f9af5	-0.3117291
41	0xbcc9dbef	-0.024641005
42	0x3e8c5f3f	0.27416417
43	0x3e90d4a6	0.28287238
44	0x3e9608f8	0.29303718
45	0x3d9b3521	0.07578493
46	0x3ea19214	0.3155676
47	0x3cf743f2	0.030183766
48	0xbe039274	-0.12848836
49	0xbca40547	-0.020022048
50	0xbc83be03	-0.016081816
51	0xbe9bd564	-0.30436242
52	0xbe5edf34	-0.21764833
53	0xbe939c17	-0.28830025
54	0x3d14893e	0.036263697
55	0xbe89b55e	-0.26896185
56	0xbe0d960d	-0.13826771
57	0x3e8e338b	0.277737
58	0x3e6fe81f	0.23428391
59	0xbd4352bd	-0.047686327
60	0xbdd50b68	-0.10402566
61	0xbe6c0d08	-0.23051846
62	0x3e8aebad	0.2713293
63	0xbdcb8b0a	-0.09938629
64	0x3e2c5ea0	0.16832972
65	0xbcf7593b	-0.030193916
66	0xbd1c6a87	-0.03818753
67	0x3df9386e	0.12168966
68	0x3c83c695	0.016085902
69	0xbe88fbe4	-0.26754677
70	0x3e871b86	0.26388186
71	0x3d67d8e5	0.05660333
72	0x3e29893a	0.16556254
73	0xbd1bedf7	-0.038068738
74	0x3e87815b	0.26465878
75	0xbdfb76bc	-0.12278506
76	0x3e09580e	0.13412496
77	0x3e6571fe	0.22406766
78	0x3d38e2bc	0.045138106
79	0x3dc02055	0.09381167
80	0xbe1b2c94	-0.15153724
81	0x3d045f91	0.0323177
82	0xbb343d67	-0.002750242
83	0x3e8d0c28	0.27548337
84	0xbd1c7dff	-0.038206097
85	0x3b37b508	0.0028031487
86	0x3e8557e1	0.2604361
87	0xbe3b9d37	-0.18321691
88	0x3d4376e4	0.047720805
89	0x3dcd242b	0.10016664
90	0xbbfd9aa0	-0.00773938
91	0x3e44c705	0.19216545
92	0x3e28c5a4	0.16481644
93	0xbe79b7fa	-0.24386588
94	0xbdd191a8	-0.1023286
95	0x3e78c994	0.24295646
96	0x3c20a7b6	0.00980561
97	0xbca7368a	-0.020411748
98	0xbe360512	-0.17775372
99	0xbd178197	-0.03698882

h2.bias f4 [10]
0	0x3cedec43	0.029043322
1	0xbe083aaf	-0.13303636
2	0xbe24695f	-0.16055821
3	0x3d346461	0.04404104
4	0xbcf1108b	-0.029426834
5	0x3dc6347a	0.09677978
6	0xbd20ecf4	-0.039288476
7	0x3bf8126b	0.007570555
8	0xbd91d755	-0.071211495
9	0x3d530744	0.0515206

h3.weight f4 [10, 10]
0	0x3e85fa75	0.26167646
1	0x3d9558c8	0.07292324
2	0xbea02883	-0.31280908
3	0x3e7e19f2	0.24814585
4	0xbe483650	-0.19551969
5	0xbe7e7aaf	-0.24851488
6	0x3d64d178	0.055863827
7	0x3e9cdb15	0.30635896
8	0x3e4508c6	0.19241628
9	0xbe9a99fc	-0.30195606
10	0xbe7d5f49	-0.2474338
11	0x3e35a994	0.1774047
12	0x3e458ef6	0.19292817
13	0xbe94746a	-0.28995067
14	0x3e20b71e	0.15694854
15	0xbe446b3a	-0.19181529
16	0xbdc61050	-0.0967108
17	0xbd8d153a	-0.06888814
18	0x3d3c4a28	0.04596916
19	0xbb798a00	-0.003807664
20	0xbe12ccd0	-0.14335942
21	0xbcb2c240	-0.021821141
22	0x3d90b218	0.07065219
23	0xbe78bc2a	-0.24290529
24	0xbd85db68	-0.06535989
25	0xbe71e698	-0.23623121
26	0x3e8dff59	0.27733877
27	0x3e673422	0.22578481
28	0x3c90a050	0.017654568
29	0x3d563f58	0.052306503
30	0xbe212933	-0.15738373
31	0xbe439ded	-0.19103213
32	0x3d524308	0.051333457
33	0x3e13576a	0.14388815
34	0xbd63aa40	-0.055582285
35	0x3def5070	0.11685264
36	0xbd951da6	-0.072810456
37	0x3d33d1b8	0.043901175
38	0x3e9267f1	0.28594926
39	0xbea1a275	-0.31569257
40	0xbdc23f82	-0.094847694
41	0x3e68f10a	0.22748199
42	0xbc4df840	-0.012571394
43	0xbd97e89a	-0.07417412
44	0x3e239ac2	0.15977004
45	0x3e959847	0.2921774
46	0xbe9456fd	-0.28972617
47	0x3d0d2368	0.034457594
48	0x3c923ec0	0.017852187
49	0xbe0ce2cb	-0.1375839
50	0x3e889b57	0.26681015
51	0xbe850a94	-0.25984633
52	0x3d6b37c8	0.057426244
53	0x3c6a5720	0.014302999
54	0xbe5cd2cb	-0.21564786
55	0x3d32ce40	0.043653727
56	0xbe244312	-0.1604121
57	0xbe5f551e	-0.21809813
58	0x3d1cc270	0.038271368
59	0x3e0b69e2	0.1361461
60	0x3e0856aa	0.1331431
61	0xbd6f3550	-0.058400452
62	0xbdcd6bee	-0.100303516
63	0xbe5cfca4	-0.2158075
64	0xbd8608bc	-0.06544635
65	0x3db49388	0.08817202
66	0xbe984503	-0.29740152
67	0x3d8ab72c	0.067732185
68	0x3ce03d70	0.027373046
69	0x3e7b7562	0.24556497
70	0xbe72aafa	-0.23698035
71	0x3ca8f580	0.020624876
72	0x3d585b98	0.052821726
73	0x3e2e7eba	0.1704053
74	0xbddd01d0	-0.10791361
75	0x3c80fd80	0.015745878
76	0x3dd281cc	0.10278663
77	0xbdfb1f2a	-0.122618034
78	0xbd2236f0	-0.039603174
79	0x3c00fd00	0.00787282
80	0x3e42cc2e	0.19023201
81	0x3e81520f	0.25257918
82	0x3deac5c0	0.11463499
83	0xbd3bded0	-0.045866787
84	0xbe882d78	-0.2659719
85	0x3e98cd8b	0.29844317
86	0xbe08aacf	-0.13346408
87	0xbdde1a68	-0.1084488
88	0x3e995427	0.29947016
89	0x3e89d85f	0.2692289
90	0x3e8d1f0b	0.27562746
91	0xbd88463a	-0.0665402
92	0xbe3c09eb	-0.18363158
93	0xbe34a885	-0.1764241
94	0x3e8dcce5	0.27695385
95	0xbd422998	-0.04740295
96	0x3e15ba0c	0.14621753
97	0xbe3e7c30	-0.18602061
98	0xbe25f3e0	-0.16206312
99	0xbe7446c3	-0.23855118

h3.bias f4 [10]
0	0xbd5dacf0	-0.054120004
1	0xbd791168	-0.060807616
2	0x3e3f3ec2	0.18676284
3	0xbe59d215	-0.21271546
4	0x3e8d8541	0.27640727
5	0xbe1c927e	-0.15290257
6	0x3c87dbf0	0.016584367
7	0x3e9778d7	0.2958438
8	0x3e27822a	0.16358247
9	0xbe45eacb	-0.19327848

h4.weight f4 [10, 10]
0	0xbe905306	-0.28188342
1	0xbd93523c	-0.07193419
2	0x3e931b45	0.28731743
3	0x3ea0a5ad	0.313764
4	0x3d191e00	0.037382126
5	0x3cb4fc60	0.022092998
6	0x3e809afb	0.2511824
7	0xbe3b175a	-0.18270627
8	0xbe1016dd	-0.14071222
9	0xbda4e048	-0.08050591
10	0x3e29f384	0.165968
11	0x3e87f61b	0.2655495
12	0xbd0bc618	-0.034124464
13	0x3e3dbca6	0.18528995
14	0xbe330d92	-0.17485645
15	0xbe2b8b66	-0.16752395
16	0x3dccc0bc	0.09997699
17	0x3c75d480	0.015004277
18	0x3e10a49c	0.14125293
19	0x3d9b7178	0.07590002
20	0xbdc5ba4e	-0.096546754
21	0xbde551b0	-0.11197221
22	0xbe95b9ec	-0.2924341
23	0xbe60a462	-0.21937707
24	0xbdaa0976	-0.08302586
25	0x3e94c46d	0.2905611
26	0x3e7d584a	0.24740711
27	0xbe7273c3	-0.23676972
28	0xbe09fd0b	-0.13475434
29	0xbe783ea7	-0.2424265
30	0x3e845609	0.2584689
31	0xbe912878	-0.28351188
32	0xbe5112d6	-0.20417342
33	0xbe9733c1	-0.29531673
34	0x3e2dfd4e	0.1699116
35	0xbe8c0077	-0.27344105
36	0xbe1637d8	-0.1466974
37	0xbd959678	-0.0730409
38	0xbe797d6e	-0.24364254
39	0xbe4c28d2	-0.19937447
40	0xbe902c76	-0.2815892
41	0xbe12b13e	-0.14325425
42	0xbe846962	-0.2586165
43	0x3d958658	0.07301015
44	0xbe467409	-0.19380201
45	0xbe057563	-0.1303306
46	0x3dfe4524	0.12415531
47	0x3e6d8f66	0.23199233
48	0x3e05b3b8	0.13056839
49	0xbe915bc9	-0.2839034
50	0x3d9ed538	0.07755512
51	0xbe9111b8	-0.2833383
52	0xbe5a0f76	-0.2129496
53	0x3e2c667e	0.16835973
54	0xbe614844	-0.22000223
55	0x3e8a4115	0.2700278
56	0xbc0380a0	-0.008026272
57	0xbe56349c	-0.20918506
58	0x3dd93c14	0.10607162
59	0xbd77be70	-0.06048435
60	0xbe8693f5	-0.26284757
61	0xbe9331f8	-0.2874906
62	0x3daacfa8	0.083403885
63	0xbd9ef26e	-0.077610835
64	0xbde8cab4	-0.113667876
65	0x3e65d41e	0.22444198
66	0xbe9845d9	-0.2974079
67	0x3d9fd4ec	0.078042835
68	0x3dc3568c	0.09537992
69	0xbda21f14	-0.07916084
70	0xbda74018	-0.08166522
71	0x3e242e7c	0.16033357
72	0x3e4eeb42	0.20206931
73	0x3b01e180	0.0019818246
74	0xbe8cf2de	-0.27529043
75	0xbd9a8dce	-0.07546578
76	0x3c6f51c0	0.014606893
77	0xbb95cd80	-0.0045716166
78	0x3e4c8606	0.19973001
79	0xbdf1d06a	-0.1180733
80	0x3e660102	0.22461322
81	0x3d08b978	0.03338
82	0xbe8054be	-0.25064653
83	0xbe71de6f	-0.23620008
84	0xbcbd06f0	-0.023074597
85	0xbe7c1666	-0.2461792
86	0xbe46f52a	-0.1942946
87	0x3e96169b	0.29314122
88	0x3d4feba8	0.05076185
89	0xbe5297ba	-0.20565692
90	0xbe83222d	-0.25612012
91	0x3e1a0358	0.15040338
92	0xbe4a3045	-0.19744976
93	0x3e8116e3	0.25212774
94	0xbdc7c706	-0.097547576
95	0x3d1a6488	0.03769353
96	0xbe65f9b6	-0.22458538
97	0x3e990e81	0.29893878
98	0x3d6f1f30	0.058379352
99	0xbe8d45d3	-0.27592334

h4.bias f4 [10]
0	0x3d5b17c8	0.053489476
1	0xbe359724	-0.17733437
2	0x3e77d572	0.24202517
3	0xbe8518e2	-0.25995547
4	0xbe853c64	-0.26022637
5	0xbd39e378	-0.045382947
6	0xbe42020d	-0.18946095
7	0xbe725023	-0.23663382
8	0x3e700736	0.23440251
9	0xbe1e0918	-0.15433156

h5.weight f4 [10, 10]
0	0xbe1edaec	-0.155132
1	0xbe7bf4d6	-0.24605116
2	0xbe76a4fe	-0.24086377
3	0xbdca5aca	-0.09880598
4	0x3e98c1f9	0.2983549
5	0xbe8c6db5	-0.2742745
6	0xbd22b4a8	-0.03972307
7	0x3e8ff075	0.28113142
8	0xbe111ec1	-0.14171888
9	0x3d19c0e0	0.037537456
10	0x3e40cb9e	0.18827674
11	0x3db65188	0.089022696
12	0x3d6b3a88	0.057428867
13	0x3e908457	0.28225967
14	0xbe5e8897	-0.21731792
15	0xbd99acf2	-0.0750369
16	0xbe2ae58a	-0.16689125
17	0xbdcb0e5a	-0.09914847
18	0x3e91bf71	0.2846637
19	0xbe61d180	-0.22052574
20	0x3e9be945	0.30451408
21	0x3dbb0f58	0.09133786
22	0xbd051230	-0.032488048
23	0x3d59f7f8	0.053214997
24	0xbe55e325	-0.2088743
25	0xbd69c330	-0.05707091
26	0x3daea9f0	0.08528507
27	0xbe985747	-0.29754087
28	0xbe608820	-0.21926928
29	0x3e99efef	0.30065867
30	0xbe3f4eb5	-0.18682368
31	0x3e6bb102	0.23016742
32	0x3d33db20	0.043910146
33	0x3de93264	0.113865644
34	0x3e84665f	0.25859353
35	0xbe5e3f20	-0.21703768
36	0x3e8dfe9b	0.2773331
37	0x3e84a2a1	0.25905326
38	0x3bd42540	0.006474167
39	0xbd32a3e8	-0.043613344
40	0x3e8ab613	0.27092037
41	0x3e797e7a	0.24364653
42	0xbc9dc300	-0.019258022
43	0xbe8bf181	-0.2733269
44	0xbe738d14	-0.23784286
45	0x3e623312	0.22089794
46	0x3d843054	0.0645453
47	0x3d22e798	0.039771646
48	0xbddf51b0	-0.109042525
49	0x3e78909e	0.24273917
50	0xbda1e020	-0.079040766
51	0x3e202326	0.15638408
52	0x3e6ccb7a	0.23124495
53	0x3d858c1c	0.06520864
54	0xbe50735e	-0.20356509
55	0xbdc469d0	-0.09590495
56	0xbe540146	-0.20703611
57	0x3e65c5b6	0.22438702
58	0xbe120a3f	-0.14261721
59	0x3cdaf6b0	0.026728958
60	0xbe9f580f	-0.3112187
61	0xbdbb3818	-0.091415584
62	0xbe3dde48	-0.18541825
63	0x3e6520c6	0.22375783
64	0x3e7722b6	0.24134335
65	0x3df37ef0	0.11889446
66	0xbe18d7a2	-0.14926007
67	0xbe89755b	-0.26847348
68	0xbe913e7e	-0.2836799
69	0x3ea19bdd	0.31564227
70	0x3e94e831	0.29083398
71	0x3e4f13c2	0.20222381
72	0xbe348c9f	-0.17631768
73	0xbe8e3b1a	-0.27779466
74	0x3df74f34	0.12075654
75	0xbc84ac60	-0.016195476
76	0xbe910c1e	-0.28329557
77	0x3cb092d0	0.02155438
78	0x3e361f8c	0.17785472
79	0x3de99db4	0.114070326
80	0x3d6b9d40	0.057523012
81	0xbd6d9470	-0.05800289
82	0xbe56d8aa	-0.20981088
83	0xbe1581c7	-0.14600287
84	0xbd8aee2e	-0.067837104
85	0xbe99f9b2	-0.30073315
86	0xbe500efe	-0.20318219
87	0x3e98929f	0.29799363
88	0xbd9e3104	-0.07724193
89	0x3e14df04	0.14538199
90	0xbd1b2018	-0.037872404
91	0x3e1cb5fc	0.15303797
92	0xbe974571	-0.29545167
93	0x3e8c50a1	0.27405265
94	0x3e61c53e	0.22047898
95	0xbe9cd448	-0.30630708
96	0x3b02f500	0.0019982457
97	0x3e968df3	0.29405174
98	0xbcb5cfc0	-0.02219379
99	0xbe07fae8	-0.13279307

h5.bias f4 [10]
0	0x3e746dae	0.23869964
1	0x3e05e0ba	0.13074008
2	0x3d404160	0.046937346
3	0x3e976e65	0.29576412
4	0xbdbc9086	-0.09207253
5	0xbded2d1e	-0.11580871
6	0xbe23cad8	-0.15995347
7	0xbd84d0d8	-0.06485146
8	0x3ba19b40	0.0049318373
9	0x3e7c82c6	0.24659261

h6.weight f4 [10, 10]
0	0xbb7b4000	-0.0038337708
1	0x3e056cf4	0.13029844
2	0xbd55ddf8	-0.05221364
3	0xbd24d958	-0.040246338
4	0x3e276388	0.16346562
5	0xbd09e100	-0.033661842
6	0x3d49bab8	0.049250335
7	0xbe4b05ce	-0.19826433
8	0xbdff64b8	-0.124703825
9	0xbe85f73d	-0.2616519
10	0xbe70e02a	-0.23523012
11	0xbd035360	-0.032061934
12	0x3db25124	0.087068826
13	0xbe8c7d65	-0.27439418
14	0xbe7c71ea	-0.2465283
15	0x3d919d08	0.071100295
16	0x3e982f17	0.29723427
17	0xbe8bfbbe	-0.27340502
18	0xbe4988ca	-0.19681087
19	0x3dddde98	0.10833472
20	0xbc5e8ec0	-0.013583839
21	0xbe8c5908	-0.27411675
22	0x3e3f6762	0.18691781
23	0x3e0005c0	0.12502193
24	0x3e9fffd9	0.31249884
25	0xbe842fe6	-0.25817794
26	0xbd91638e	-0.07099067
27	0xbd190b68	-0.037364393
28	0x3d147b40	0.036250353
29	0xb9a21800	-0.0003091693
30	0x3e8f35f3	0.27970847
31	0xbc802590	-0.015642911
32	0xbdfa864a	-0.12232645
33	0xbd975d20	-0.07390809
34	0xbe5ac06c	-0.21362466
35	0x3db06c60	0.08614421
36	0x3dcd45fc	0.10023114
37	0x3d9acebc	0.07558963
38	0xbbcaaec0	-0.0061853826
39	0xbd7fc618	-0.062444776
40	0x3c7f9700	0.015599966
41	0x3de4be3c	0.11169097
42	0x3e606e26	0.21917018
43	0x3d8b5a70	0.06804359
44	0x3ea187e3	0.31548986
45	0x3e6f38e2	0.23361543
46	0x3e6c9976	0.23105416
47	0xbd96a5ee	-0.07355867
48	0x3e551ce2	0.20811799
49	0xbe150c96	-0.14555582
50	0x3e2595b4	0.16170388
51	0x3e511f02	0.20421985
52	0x3e890db9	0.26768282
53	0x3d2be750	0.041968644
54	0x3dfdd934	0.12394944
55	0xbd8e4c9c	-0.06948206
56	0xbe962b98	-0.29330134
57	0xbe949996	-0.29023427
58	0xbdc26038	-0.094910085
59	0xbdec89a4	-0.1154969
60	0xbe5645f4	-0.20925122
61	0x3e81a8ed	0.25324193
62	0x3cc1b820	0.023647368
63	0x3e10e846	0.14151105
64	0xbdba2e3e	-0.09090851
65	0xbd403660	-0.046926856
66	0xbe3094d4	-0.17244273
67	0x3d2f5628	0.042806774
68	0xbdefe26c	-0.117131084
69	0x3e89c3cf	0.26907203
70	0xbe1ddf7b	-0.15417282
71	0xbe549551	-0.20760085
72	0xbe91723c	-0.28407466
73	0x3e830c03	0.25595102
74	0x3d43b9a0	0.047784448
75	0xbe1750bc	-0.14776891
76	0x3e320532	0.17384794
77	0x3e2c868c	0.168482
78	0xbe32fcd2	-0.17479256
79	0xbdaee724	-0.0854018
80	0x3d45ff30	0.04833907
81	0xbe9e6981	-0.30939868
82	0xbe1c7bcb	-0.15281598
83	0xbe73b51e	-0.2379956
84	0x3e8b6caf	0.27231357
85	0xbea195c7	-0.31559584
86	0x3e3469a0	0.17618418
87	0xbd292f78	-0.041305035
88	0x3e31fcd8	0.17381608
89	0x3e72506a	0.23663488
90	0x3e0a10f4	0.1348303
91	0x3e63f992	0.22263172
92	0x3e67274e	0.22573587
93	0xbc874e10	-0.016516715
94	0x3e5d913a	0.21637431
95	0xbca6ecd0	-0.020376593
96	0xbe02da4e	-0.12778589
97	0xbdc0caea	-0.09413703
98	0xbe5f5290	-0.21808839
99	0x3de4c8b4	0.111710936

h6.bias f4 [10]
0	0xbe5ad9a4	-0.21372086
1	0xbe4c37f6	-0.19943222
2	0x3dba1400	0.09085846
3	0x3e9a1ac1	0.30098537
4	0xbe9c742e	-0.30557388
5	0xbe3c4726	-0.18386516
6	0xbe57c9ac	-0.21073025
7	0xbe812e90	-0.25230837
8	0x3d4ea210	0.050447524
9	0x3e4822e2	0.19544557

h7.weight f4 [10, 10]
0	0x3baec780	0.005333841
1	0xbdeed328	-0.116613686
2	0x3e7c29a6	0.24625263
3	0xbe83d0e8	-0.2574532
4	0xbe15665d	-0.1458983
5	0x3e36ea68	0.17862856
6	0xbe9a2f85	-0.3011438
7	0x3d108980	0.03528738
8	0x3deed978	0.116625726
9	0xbe43a24c	-0.1910488
10	0x3d909e3c	0.07061431
11	0x3adc8a00	0.0016825795
12	0xbdeebc18	-0.1165697
13	0xbe7e2944	-0.24820429
14	0xbe9a78e5	-0.3017036
15	0x3dc2732c	0.094946235
16	0xbc890060	-0.016723812
17	0xbd663c20	-0.056209683
18	0x3e66a3de	0.22523448
19	0xbcec31b0	-0.028832287
20	0x3dd69974	0.104784876
21	0x3e30e51e	0.17274901
22	0xbe7fe46c	-0.2498948
23	0xbda5dfea	-0.08099349
24	0x3cefa740	0.029254556
25	0xbe211a3a	-0.15732661
26	0xbe60562c	-0.21907872
27	0x3e0db01e	0.13836715
28	0xbd2898f8	-0.041161507
29	0x3e5f142a	0.21785036
30	0x3d261558	0.0405477
31	0xbd90a1f6	-0.070621416
32	0x3b2b9b80	0.0026185215
33	0xbea1495b	-0.31501278
34	0x3df82c9c	0.121178836
35	0x3c8ab9f0	0.016934365
36	0x3e919b33	0.2843872
37	0xbe902487	-0.28152868
38	0x3e8b1e0f	0.2717137
39	0xbe337ad9	-0.17527331
40	0x3dfa0cb0	0.12209451
41	0x3d8e7b38	0.06957096
42	0xbda1d72c	-0.07902369
43	0xbe9383a6	-0.28811377
44	0x3db045c8	0.0860706
45	0x3e8fae03	0.28062448
46	0x3e87377b	0.26409516
47	0xbbb84780	-0.005623758
48	0x3e5c225e	0.21497485
49	0xbe1157d5	-0.14193662
50	0x3de1b930	0.1102165
51	0x3e63e912	0.22256878
52	0x3d8e4b68	0.06947976
53	0x3e535d7e	0.20641133
54	0xbdc1ed54	-0.09469095
55	0x3e2da49a	0.16957322
56	0xbe663256	-0.22480139
57	0x3e716026	0.23571834
58	0x3e63cd5a	0.22246304
59	0x3e1540f4	0.14575559
60	0x3d82eb70	0.063925624
61	0xbd0d7198	-0.03453216
62	0xbe0eabda	-0.13932744
63	0x3e886f7d	0.2664756
64	0x3e764c66	0.24052581
65	0x3d1a2c30	0.037639797
66	0x3d88fabc	0.06688449
67	0xbdb8ab16	-0.09017007
68	0xbe2c96c0	-0.16854382
69	0x3e0c9ef6	0.13732514
70	0x3db97a38	0.090565145
71	0xbd9e2d20	-0.07723451
72	0xbda08ea6	-0.07839708
73	0x3c8e9600	0.01740551
74	0x3d9f1174	0.07767001
75	0x3e5bf5d2	0.21480492
76	0x3d8313cc	0.0640026
77	0xbe8f1d89	-0.2795222
78	0x3ce5e260	0.028062046
79	0xbe045f92	-0.12927082
80	0xbe71d210	-0.23615289
81	0x3df1b820	0.11802697
82	0x3de577dc	0.11204502
83	0xbd9165e2	-0.07099511
84	0xbe573a9c	-0.21018451
85	0x3e038002	0.128418
86	0xbe61798c	-0.22019023
87	0x3e5f101e	0.21783492
88	0x3e3c2cbc	0.1837644
89	0x3e86aea3	0.26305112
90	0xbe09bb65	-0.13450392
91	0x3e1013a6	0.14069995
92	0xbe5c9342	-0.2154055
93	0xbe4fd5b0	-0.20296359
94	0x3e28a082	0.16467479
95	0xbe8bdd8d	-0.27317467
96	0xbe5d15f4	-0.21590406
97	0x3d1b8100	0.03796482
98	0x3e8779f9	0.26460245
99	0x3d8ed784	0.069747

h7.bias f4 [10]
0	0xbe42526c	-0.18976754
1	0x3e3216b2	0.1739147
2	0xbe566380	-0.20936394
3	0x3e2646f2	0.16238001
4	0xbe13f18b	-0.1444761
5	0xbe70d156	-0.23517355
6	0x3e18f11a	0.14935723
7	0x3ea12c8d	0.31479302
8	0xbe06820b	-0.13135545
9	0x3e87ff49	0.26561955

h8.weight f4 [10, 10]
0	0xbe60765a	-0.21920148
1	0x3e1f9ea0	0.15587854
2	0x3e94a54d	0.29032364
3	0xbe1baa06	-0.15201578
4	0x3e724a0a	0.23661056
5	0x3e5d21a6	0.21594867
6	0xbe972d08	-0.29526544
7	0xbe9bdf5d	-0.3044385
8	0x3e4e780e	0.20162985
9	0xbd590910	-0.05298716
10	0xbd694740	-0.056952715
11	0x3de72ffc	0.11288449
12	0x3e93dec9	0.2888091
13	0x3e4908d2	0.19632271
14	0x3e3a650c	0.18202609
15	0x3d55fe30	0.052244365
16	0x3da84d1c	0.082178324
17	0x3db2caa0	0.08730054
18	0xbe127b05	-0.1430474
19	0xbe763d56	-0.24046835
20	0xbc46c860	-0.012132734
21	0xbe35d608	-0.17757428
22	0x3e480bd2	0.19535759
23	0x3e53b372	0.20673922
24	0xbe9b814e	-0.3037209
25	0x3e403f86	0.18774232
26	0x3e21fa64	0.15818173
27	0x3db5a4b8	0.08869308
28	0x3e897fcf	0.26855323
29	0x3dca3bc8	0.098746836
30	0xbe7b19af	-0.24521516
31	0x3e0fff16	0.14062151
32	0x3e168bb2	0.14701727
33	0x3ea1c451	0.3159509
34	0xbe2e5c1f	-0.17027329
35	0xbe9f321a	-0.31092912
36	0xbd68d128	-0.056840092
37	0x3dbbcf54	0.09170404
38	0x3e5dd0ae	0.21661636
39	0x3e96d0c1	0.29456142
40	0xbd6444f8	-0.055729836
41	0xbe98c34e	-0.29836506
42	0x3e10e9b2	0.14151648
43	0xbe4fbed4	-0.20287639
44	0xbe7d30ca	-0.24725643
45	0x3dab2f48	0.083586276
46	0x3e3ecdc6	0.18633184
47	0x3e33d4ba	0.17561617
48	0xbe181c79	-0.14854611
49	0xbd98375e	-0.074324355
50	0x3dd6d4a4	0.10489777
51	0xbe9b66e3	-0.30351934
52	0x3c905110	0.017616779
53	0x3e9f3e55	0.31102243
54	0xbe60a01f	-0.21936081
55	0xbe003640	-0.12520695
56	0xbdc0a0da	-0.0940568
57	0xbe2002e9	-0.1562611
58	0xbc8993d0	-0.016794115
59	0xbe8643aa	-0.262235
60	0x3da18fc0	0.07888746
61	0xbe0c9082	-0.13727
62	0xbe1fed56	-0.1561788
63	0x3e7e9aca	0.24863735
64	0xbe042d9e	-0.12908027
65	0xbe79057c	-0.24318498
66	0x3e74a9e2	0.2389293
67	0xbe722d64	-0.23650128
68	0x3c8497a0	0.016185582
69	0x3e95ff2b	0.2929624
70	0x3d1dc300	0.038516045
71	0xbe076fcc	-0.13226241
72	0xbe2c3dac	-0.16820401
73	0x3e2c130e	0.16804144
74	0xbb44fd00	-0.0030058026
75	0x3e903c77	0.2817113
76	0x3ea17ed3	0.31542072
77	0x3e72ca32	0.23709944
78	0x3d9f5d08	0.07781416
79	0xbe478560	-0.19484472
80	0xbda7e622	-0.08198191
81	0x3e47b21e	0.1950154
82	0xbe4cde9c	-0.20006794
83	0x3dcf6740	0.10127115
84	0x3e4fbd22	0.20286992
85	0xbd5a3190	-0.053269923
86	0xbe0bf249	-0.13666643
87	0xbdc017e8	-0.0937956
88	0xbe02a85f	-0.12759541
89	0xbdf297ee	-0.118453845
90	0x3cb9c7a0	0.022678196
91	0x3dc62ee8	0.096769154
92	0xbe69e8c6	-0.22842702
93	0x3e68334a	0.22675815
94	0x3e622ae6	0.22086677
95	0xbe926af9	-0.2859724
96	0xbe73b6b3	-0.23800163
97	0x3e963dd5	0.2934405
98	0xbb065e00	-0.0020502806
99	0x3e3aa1b0	0.18225741

h8.bias f4 [10]
0	0x3ddfc6e4	0.10926607
1	0x3dff90e0	0.124788046
2	0xbe24fb8c	-0.16111583
3	0xbd6de748	-0.058081895
4	0xbe67576c	-0.22591943
5	0xbdb8e970	-0.090289
6	0xbe93c25d	-0.28859225
7	0x3de64904	0.112443954
8	0x3e996061	0.29956344
9	0xbe29227d	-0.16517062

h9.weight f4 [10, 10]
0	0x3e6eccc6	0.23320302
1	0x3e0c98ec	0.1373021
2	0x3e0c15a2	0.13680127
3	0x3e95640b	0.2917789
4	0x3d7b7a60	0.061396003
5	0x3e8be7f7	0.27325413
6	0x3dfa63fc	0.12226102
7	0x3e329ba8	0.1744219
8	0xbe933a21	-0.28755286
9	0x3e8234cb	0.25430903
10	0x3d960f18	0.07327098
11	0x3e3c048e	0.18361112
12	0x3dfacdf4	0.12246314
13	0xbd929554	-0.07157388
14	0x3e1ed44c	0.15510672
15	0x3e9c79db	0.30561718
16	0x3e2ca354	0.1685918
17	0x3e0e1370	0.13874602
18	0x3e1ce87a	0.15323058
19	0xbe088d87	-0.13335238
20	0x3e8ea05b	0.27856717
21	0xbe749f68	-0.23888934
22	0xbe41f772	-0.18942049
23	0xbe731493	-0.23738317
24	0x3e17354e	0.14766428
25	0x3c8aa8c0	0.01692617
26	0xbd8bb182	-0.06820966
27	0xbdbc78ac	-0.09202704
28	0xbe6028ce	-0.21890566
29	0xbe134186	-0.14380464
30	0xbe69c449	-0.22828783
31	0x3ccd0750	0.025027901
32	0x3d34bf40	0.044127703
33	0x3d845848	0.06462151
34	0xbd866590	-0.0656234
35	0x3d7a8550	0.061162293
36	0xbe4576e0	-0.19283628
37	0xbe450e07	-0.19243632
38	0xbe713582	-0.23555568
39	0x3d3809e8	0.044931322
40	0x3d30c680	0.043158054
41	0xbe388b8f	-0.18021987
42	0xbe43cc1b	-0.19120829
43	0xbc1b8b40	-0.009493649
44	0x3dc3828c	0.09546384
45	0x3d354fb8	0.04426548
46	0xbe4d666c	-0.20058602
47	0x3e9b270f	0.30303237
48	0xbd186c98	-0.037212938
49	0x3d93c694	0.0721561
50	0xbe01c535	-0.12672885
51	0xbe4a1e34	-0.19738084
52	0xbde9cf04	-0.11416438
53	0xbe1b20ec	-0.15149277
54	0xbe09ef3a	-0.13470164
55	0x3e84c4a7	0.25931284
56	0xbcf26060	-0.02958697
57	0xbde115d6	-0.10990493
58	0x3e1cd476	0.15315422
59	0x3def556c	0.11686215
60	0xbe98ebcc	-0.298674
61	0x3e41ff82	0.18945125
62	0xbda4874e	-0.0803362
63	0xbe16f57c	-0.14742082
64	0xbe9a5129	-0.30140045
65	0xbe82afe0	-0.25524807
66	0xbe3c3462	-0.18379357
67	0x3e8433fd	0.25820914
68	0x3e340572	0.17580202
69	0x3e85ae61	0.26109603
70	0x3df64324	0.12024525
71	0xbd61dc58	-0.055141777
72	0x3d6a6c30	0.057232082
73	0xbd324e30	-0.043531597
74	0x3d2ae470	0.04172176
75	0xbd860784	-0.06544402
76	0xbe6c9222	-0.2310262
77	0xbe296dc3	-0.16545777
78	0xbe2772a4	-0.16352326
79	0x3e4fa64e	0.20278284
80	0x3e95ff0b	0.29296145
81	0xbe9da6c5	-0.30791298
82	0x3e78c7f6	0.24295029
83	0xbe80b62d	-0.2513899
84	0xbe465136	-0.19366917
85	0xbe9208d9	-0.28522375
86	0x3d8a1c6c	0.06743702
87	0x3e8a35d1	0.26994184
88	0x3dd8beec	0.105832905
89	0x3d382728	0.044959217
90	0xbea06a64	-0.3133117
91	0xbe87ec1f	-0.26547334
92	0x3d1d2368	0.038363844
93	0xbe7f0048	-0.24902451
94	0x3ea11d71	0.31467775
95	0x3c8524a0	0.016252816
96	0xbda0a692	-0.07844271
97	0x3b2cda80	0.0026375353
98	0xbe9b2bb0	-0.30306768
99	0xbe8251a0	-0.254529

h9.bias f4 [10]
0	0xbe7721ee	-0.24134037
1	0xbe9c104f	-0.30481192
2	0x3d38c800	0.04511261
3	0x3ddaae64	0.106777936
4	0x3bbca9c0	0.0057575405
5	0xbe200e16	-0.15630373
6	0x3e70d80a	0.23519912
7	0x3d737b88	0.05944398
8	0xbc9af410	-0.018915206
9	0x3e80bfad	0.25146237

out.weight f4 [1, 10]
0	0x3e2eaa64	0.17057186
1	0x3e806f67	0.25084993
2	0x3dbbdc17	0.09172838
3	0xbde9d8ba	-0.114182904
4	0x3da893b0	0.08231294
5	0x3e90d778	0.2828939
6	0x3e0f5a55	0.13999303
7	0x3dc9f0a9	0.098603554
8	0xbe914f30	-0.28380728
9	0xbddf346d	-0.10898671
