MejoresPesos/best_model_MLP_P.pth (torch, 8738 bytes, 5 tensors)

h1.weight f4 [10, 141]
0	0x3ce78525	0.02826173
1	0x3d1a505f	0.037674304
2	0x3d6fe1ce	0.058564954
3	0xbb3bf68b	-0.0028680887
4	0xbd590309	-0.05298141
5	0xbdd62057	-0.10455387
6	0x3d16af31	0.03678817
7	0xbc83612d	-0.016037548
8	0x3cdd6502	0.027025703
9	0xbc311d1b	-0.010810162
10	0x3f478116	0.77931345
11	0x3d9fb8e7	0.07798939
12	0x3e212a9c	0.1573891
13	0xbe9ab260	-0.30214214
14	0x3cfd71e0	0.030938089
15	0x3e304b26	0.17216167
16	0xbbca028e	-0.0061648553
17	0x3f557c63	0.83392924
18	0xbcfc1cf9	-0.030775534
19	0xbd6cdb6c	-0.057826445
20	0x3cde26a2	0.027118031
21	0xbcb1e2b1	-0.02171454
22	0xbc892dd2	-0.016745482
23	0x3d8531ad	0.065036155
24	0xbd89ab75	-0.06722156
25	0xbc5adb67	-0.013357974
26	0xbca7e05d	-0.020492727
27	0xbde13608	-0.10996634
28	0xbd6a14cc	-0.05714874
29	0xbc6af870	-0.014341459
30	0x3dc26d07	0.094934516
31	0xbd5a6f9a	-0.053329088
32	0xbe0f8f68	-0.14019549
33	0xbdae0218	-0.08496493
34	0xbce1c099	-0.027557658
35	0x3be6fb0c	0.00704897
36	0x3e5bb6ba	0.21456423
37	0x3d37aa0d	0.044839907
38	0xbd46f205	-0.04857065
39	0x3e84b137	0.25916454
40	0xbda24e6c	-0.07925114
41	0xbe113082	-0.1417866
42	0xbbecb7a0	-0.0072240382
43	0x3dbbbb62	0.091666
44	0x3ca3e70a	0.020007629
45	0xbaf49d61	-0.0018662625
46	0x3d5f952f	0.054585632
47	0x3e884a6b	0.26619276
48	0xbda08c07	-0.07839208
49	0x3d0770ec	0.033066675
50	0xbd7304f8	-0.05933091
51	0x3db32105	0.08746532
52	0xbce49ab7	-0.027905805
53	0x3d9003c7	0.070319705
54	0xa6012e14	-4.4818313e-16
55	0x25de3a8b	3.8550531e-16
56	0x3ec3a944	0.38215077
57	0x3ca4231e	0.020036276
58	0xbdf1b99b	-0.118029796
59	0xbd478b2a	-0.0487167
60	0xbccb3e15	-0.024809876
61	0xbcd2326a	-0.025658805
62	0xbd049f02	-0.032378204
63	0xa58aa24f	-2.4049169e-16
64	0x3d6b66c5	0.057471056
65	0xbe482dff	-0.19548796
66	0x3ca8fbb5	0.020627836
67	0x3edfaa59	0.43684652
68	0xbe0f4b0d	-0.13993473
69	0x3dc03ff6	0.093871996
70	0xbb1540c6	-0.0022774204
71	0xa53e3f19	-1.6501251e-16
72	0xbd48ff38	-0.04907152
73	0xbb1d3a3a	-0.0023991005
74	0x3c5d3bb7	0.013503007
75	0xbd89f25a	-0.06735678
76	0xbc97de3c	-0.018538587
77	0x3e87c873	0.26520118
78	0x3ad76c72	0.0016435517
79	0xbbe9fd42	-0.0071407864
80	0xa7370a00	-2.5401773e-15
81	0xbd875bda	-0.06609316
82	0x3dc9cc6b	0.09853443
83	0xa71c8152	-2.1719454e-15
84	0x25f3cb22	4.2291429e-16
85	0xbe03f79e	-0.12887427
86	0xbe2dfd4f	-0.16991161
87	0x3d5bc3a0	0.05365336
88	0xbe97c100	-0.29639435
89	0xa365f440	-1.2465837e-17
90	0xa6e6cf26	-1.6015604e-15
91	0x3bb4388d	0.0054999054
92	0x3e13d190	0.1443541
93	0x3ea50e38	0.3223741
94	0xbe157d67	-0.14598618
95	0x3d34376c	0.043998167
96	0x3bdc1b45	0.006717118
97	0xbe3a7c99	-0.18211593
98	0xbda4e178	-0.08050817
99	0xbc0ee3a1	-0.008721263
100	0xbd3bfd7d	-0.045896042
101	0xbd854479	-0.06507201
102	0xbe76d105	-0.24103172
103	0x3ea78ce4	0.3272468
104	0xbc7aa59a	-0.015298272
105	0x39d26a12	0.0004013335
106	0xbd3b68a0	-0.045754075
107	0xbd82966a	-0.063763455
108	0xbcb6690d	-0.022266889
109	0xbdfa20d1	-0.122132905
110	0xbcbe2afd	-0.023213858
111	0xbe380c23	-0.1797338
112	0x3d113205	0.035448093
113	0x3e933366	0.2875015
114	0x3d92b12b	0.07162698
115	0x3cb0d2d2	0.021584902
116	0x3cb692d0	0.022286803
117	0xbcce205e	-0.025161918
118	0xa61dede1	-5.4792703e-16
119	0x3e7fca8a	0.24979606
120	0x3d634de5	0.055494208
121	0x3d13050e	0.035893492
122	0x3d54cf13	0.051955294
123	0xbc7f9702	-0.015599968
124	0x3efec5d0	0.49760294
125	0x3d42556a	0.04744474
126	0xa59a64ed	-2.6783131e-16
127	0x26d085c8	1.4469161e-15
128	0x3c58252e	0.013192458
129	0xa64818ee	-6.9422725e-16
130	0xbb92ee85	-0.004484
131	0xbdbb8a19	-0.091571994
132	0xbd8cf5eb	-0.06882843
133	0xbdadf9e0	-0.084949255
134	0x3d75fa7c	0.060053334
135	0xbd14cc39	-0.036327574
136	0x26236e7b	5.6701714e-16
137	0xbe147320	-0.14497042
138	0x3e378c0e	0.1792452
139	0x270e4012	1.9741191e-15
140	0x3d6b5ec9	0.05746344
141	0x3bf3fe15	0.0074460604
142	0xbd3eff5b	-0.046630245
143	0x3e8d8723	0.27642164
144	0x3d30a2e5	0.0431241
145	0x3c96e43e	0.018419381
146	0xbbf86d81	-0.0075814133
147	0x3c698aeb	0.014254312
148	0xbdb2deed	-0.08733926
149	0xbd42aad7	-0.047526207
150	0xbb01d2d6	-0.0019809506
151	0x3f866c8d	1.0501877
152	0x3d810bff	0.06301116
153	0x3dfe7f5e	0.12426637
154	0xbede30e7	-0.43396685
155	0x3e082c35	0.13298114
156	0x3e049e9f	0.12951134
157	0x3d52b1a5	0.051438946
158	0x3f8482a7	1.0352372
159	0xbd02c662	-0.031927474
160	0x3d0eb27f	0.034838196
161	0x3cf634f5	0.030054549
162	0xbe0918e9	-0.13388409
163	0xbcab3b67	-0.020902349
164	0x3dd0868e	0.10181914
165	0x3dc77d40	0.097406864
166	0x3bac0ece	0.0052507883
167	0xbd87848c	-0.06617078
168	0xbe168dd9	-0.14702548
169	0xbb947d0b	-0.004531508
170	0xbda4cab2	-0.080464736
171	0x3d4c3572	0.049855657
172	0x3d7d439b	0.06183205
173	0xbdcfeb36	-0.10152285
174	0xbdb01aa4	-0.08598831
175	0xbd9b9789	-0.075972624
176	0x3d97089d	0.0737469
177	0x3e57e11a	0.21081963
178	0x3d8c4f47	0.068510585
179	0xbd3dc41e	-0.04632961
180	0x3eb7dbdd	0.3590993
181	0xbda57f60	-0.080809355
182	0xbe4b5a3d	-0.19858642
183	0xbd4a7d34	-0.04943581
184	0x3e0f8409	0.14015211
185	0x3d2440b0	0.040100753
186	0xbd0211c9	-0.031755242
187	0x3d89e318	0.06732768
188	0x3e89ec73	0.2693821
189	0xbe066432	-0.13124159
190	0x3cbd7da7	0.023131205
191	0xbd280f93	-0.041030478
192	0x3db3ef6c	0.087859005
193	0x3d74a486	0.059727214
194	0x3d24f3e0	0.04027164
195	0x26c1ce35	1.3447958e-15
196	0xa690eb35	-1.005576e-15
197	0x3e95193e	0.2912082
198	0x3d9aa866	0.07551651
199	0xbdb41d57	-0.08794659
200	0xbd157326	-0.036486767
201	0xbcd4514c	-0.025917672
202	0xbc9c2db9	-0.019064771
203	0xbcc50bcf	-0.024053482
204	0xa62a6d1a	-5.912846e-16
205	0x3d2f975f	0.042868968
206	0xbe320bec	-0.1738736
207	0x3cbcd47e	0.023050543
208	0x3ed6abbc	0.41927898
209	0xbe3073e1	-0.17231704
210	0x3dabc6e0	0.08387542
211	0xb8dbf6bb	-0.00010488691
212	0xa6b99f31	-1.2880103e-15
213	0xbd15724d	-0.03648596
214	0xbae7da26	-0.0017688915
215	0x3c24a8a5	0.010049974
216	0xbd4e20e1	-0.050324325
217	0xbc61f6f3	-0.013791787
218	0x3e48d4f3	0.19612484
219	0x3a8bdf3a	0.0010671385
220	0xbbae45c9	-0.0053183776
221	0xa78450b6	-3.6724867e-15
222	0xbdd54ecc	-0.1041542
223	0x3da508a6	0.0805829
224	0x2505ba7c	1.1599094e-16
225	0x26bc03f3	1.3046191e-15
226	0xbdc9fe2a	-0.09862931
227	0xbe01a662	-0.12661126
228	0x3d26f7de	0.04076373
229	0xbe6c036f	-0.23048185
230	0xa644218c	-6.8046625e-16
231	0x2523d7e5	1.4211144e-16
232	0x3b880021	0.004150406
233	0x3e2eab05	0.17057426
234	0x3ea7b4fb	0.32755265
235	0xbddf6c4c	-0.10909328
236	0xbc60f4f5	-0.013730277
237	0x3be2294f	0.006901897
238	0xbe0b7f7c	-0.1362285
239	0xbd2dd05d	-0.04243504
240	0xbb9b538c	-0.004740184
241	0xbd0aef7f	-0.033919808
242	0xbd460f4c	-0.048354432
243	0xbe534a94	-0.20633918
244	0x3e8e993d	0.27851287
245	0xbc3aaf12	-0.011394279
246	0x3998180f	0.00029009624
247	0xbd0b17ed	-0.033958364
248	0xbd4283a1	-0.047488812
249	0xbcad9a5b	-0.021191766
250	0xbdb961e5	-0.09051875
251	0xbc6b5b52	-0.014365034
252	0xbe07f312	-0.13276318
253	0x3db0beca	0.0863014
254	0x3ea39d73	0.31956062
255	0x3df5d4c7	0.12003475

h1.bias f4 [10]
0	0xbd70a3f9	-0.058750127
1	0x3bf1c534	0.007378245
2	0x3c8809ba	0.0166062
3	0x3d870943	0.065935634
4	0xbcf53f79	-0.029937493
5	0x3deed788	0.11662203
6	0x3d10f7cf	0.03539258
7	0xbdd17ee9	-0.10229284
8	0xbd72f904	-0.05931951
9	0xbca2c8f0	-0.019871205

h2.weight f4 [10, 10]
0	0x3e06219d	0.1309876
1	0x3d7b050c	0.06128411
2	0x3e826021	0.25463966
3	0x3dc9637e	0.0983343
4	0xbca5a936	-0.020222288
5	0xbe7b0ce5	-0.24516638
6	0xbd43131f	-0.047625657
7	0x3e3998d5	0.18124707
8	0xbe87762e	-0.2645735
9	0x3e7c5392	0.24641255
10	0x3e993a3f	0.2992725
11	0x3e7e6f95	0.24847253
12	0xbe0b58e6	-0.13608131
13	0x3dea0ceb	0.11428245
14	0x3e023a54	0.12717563
15	0x3c0ceae7	0.008600927
16	0x3d4d756d	0.050160814
17	0xbe513e7d	-0.20433994
18	0xbe08b89e	-0.13351676
19	0xbe82a540	-0.255167
20	0xbdbf810e	-0.09350787
21	0x3dd0147e	0.101601586
22	0x3e896c41	0.26840404
23	0xbe6d7be6	-0.23191795
24	0xbdd7dfda	-0.10540743
25	0xbd11b0bd	-0.03556894
26	0x3d999fbd	0.07501171
27	0x3dfe9aec	0.12431893
28	0x3e87d4f1	0.2652965
29	0xbdfe122f	-0.12405812
30	0xbe9c8df9	-0.30577067
31	0xbdf143ce	-0.11780511
32	0xbe8413d8	-0.2579639
33	0x3da927aa	0.082595184
34	0xbe5d7a1a	-0.2162861
35	0x3c3f19f7	0.011663905
36	0xbe3b6363	-0.18299632
37	0x3e0a1598	0.134848
38	0x3e8308ca	0.25592643
39	0x3d309af8	0.04311654
40	0x3e1317ef	0.14364599
41	0x3b878c71	0.004136615
42	0x3e88b931	0.2670379
43	0xbdacbef4	-0.08434859
44	0x3e6352e2	0.22199586
45	0x3e01b188	0.12665379
46	0x3e61762b	0.22017734
47	0xbddbbcea	-0.10729392
48	0x3e567536	0.2094315
49	0xbd4be67f	-0.049780365
50	0xbde3355c	-0.11094162
51	0x3d472298	0.048616976
52	0x3e891034	0.26770175
53	0xbe7848f9	-0.24246587
54	0x3d44c3cd	0.048038293
55	0x3e6e1f63	0.2325416
56	0x3d2477d2	0.040153332
57	0x3e9323aa	0.28738147
58	0x3e3068f7	0.17227541
59	0x3e5c64ab	0.21522777
60	0x3e767a2d	0.24070044
61	0xbe5e4f06	-0.21709833
62	0xbb804093	-0.003913948
63	0xbd08e983	-0.03342582
64	0x3dde2acf	0.10848009
65	0xbe985090	-0.29748964
66	0x3cbc78f5	0.023006896
67	0xbe405f42	-0.18786338
68	0xbe063b71	-0.13108613
69	0xbe8cf8a8	-0.2753346
70	0x3e71f92f	0.23630212
71	0xbe86ef45	-0.26354423
72	0xbdef913a	-0.11697622
73	0x3de8fd2d	0.113764144
74	0xbea6c839	-0.32574633
75	0xbe104f79	-0.14092816
76	0x3e8ab8e4	0.27094185
77	0xbe4c477e	-0.19949147
78	0x3d917255	0.07101885
79	0x3e77332b	0.24140613
80	0xbe8f621b	-0.28004536
81	0xbc903f06	-0.017608177
82	0x3e821303	0.2540513
83	0x3cab27f6	0.020893078
84	0x3dd05eab	0.101743065
85	0xbea6beda	-0.32567483
86	0x3d96fae0	0.07372069
87	0xbe378b07	-0.17924128
88	0xbe407f84	-0.18798643
89	0x3e2929f9	0.16519918
90	0x3e895828	0.2682507
91	0xbe904c94	-0.28183424
92	0xbd84941b	-0.064735614
93	0xbd49e274	-0.04928823
94	0xbe0795af	-0.13240694
95	0x3d5ca648	0.053869516
96	0xbc87a1cd	-0.016556645
97	0xbe5ce89e	-0.21573111
98	0x3e916cd5	0.28403345
99	0x3e270e42	0.16314033

h2.bias f4 [10]
0	0xbe9e85e6	-0.3096153
1	0xbe370166	-0.17871627
2	0x3e886b77	0.2664449
3	0xbdd2c2e5	-0.102910794
4	0xbe54a84f	-0.2076733
5	0x3e9736b5	0.29533926
6	0xbe3b4013	-0.18286161
7	0x3cba1de4	0.022719331
8	0x3cee2e7f	0.029074905
9	0xbe736fb3	-0.23773079

out.weight f4 [1, 10]
0	0xbe50cfae	-0.20391724
1	0x3e2535af	0.1613376
2	0xbdb9a770	-0.09065139
3	0xbd211ffa	-0.039337136
4	0xbe8c7a0e	-0.2743687
5	0x3e988c94	0.29794753
6	0xbe3d0f59	-0.18462886
7	0xbe533ed3	-0.20629434
8	0x3e2d268e	0.16909239
9	0x3e13085f	0.14358662
