MejoresPesos/best_model_MLP_P.pth (torch, 8738 bytes, 5 tensors)

h1.weight f4 [10, 141]
0	0xbc91b0c2	-0.01778448
1	0xbdd4dcf4	-0.10393706
2	0xbae4a132	-0.001744306
3	0xbbbb5d8c	-0.0057179388
4	0xbcec88f7	-0.028873904
5	0xbb2f2636	-0.0026725656
6	0x3d891e4e	0.06695233
7	0xbd487052	-0.048935242
8	0xbda7dbf0	-0.081962466
9	0x3d9d1adc	0.07671139
10	0xbbfdf3c7	-0.007750008
11	0x3b204ea9	0.0024460948
12	0xbb1819f6	-0.0023208833
13	0x3c174bcf	0.009234383
14	0xbb89d539	-0.0042063263
15	0xbb2b6763	-0.0026154153
16	0x3bbb5ca8	0.0057178326
17	0xbc2813c1	-0.010258616
18	0x3cb4af9c	0.022056393
19	0x3cb37407	0.021905912
20	0xbc019fe8	-0.00791166
21	0xbb1f1664	-0.002427482
22	0x3c213e32	0.009841489
23	0xbb9371e4	-0.004499661
24	0xbb072472	-0.0020621088
25	0xb9defca0	-0.0004253136
26	0x3b01385b	0.0019717428
27	0xbbd2bf45	-0.0064314925
28	0xb9d58ad2	-0.00040729955
29	0x3b0df2b7	0.0021659562
30	0x3ae4219c	0.0017405036
31	0x3bfa8cc9	0.0076461774
32	0x3c30258f	0.010751142
33	0xbbc1919a	-0.0059072496
34	0xbb0fa695	-0.002191936
35	0x3bef8d7f	0.007310569
36	0x3b2fc4c7	0.002682017
37	0xb7bae2a9	-2.2278475e-05
38	0x3a85b01c	0.0010199579
39	0xb9e4c0de	-0.00043631246
40	0xbbaac284	-0.0052111764
41	0xbae54f6d	-0.0017494984
42	0xbbeddd4b	-0.007259046
43	0x3bd31b9a	0.0064424993
44	0x39669655	0.00021990512
45	0xb8f3a020	-0.000116169685
46	0xbc327082	-0.010891082
47	0xbc0c9b09	-0.008581885
48	0x3b1b0576	0.0023654378
49	0xbb5518b9	-0.0032515957
50	0x3a80fc3c	0.0009840797
51	0xbaf91cd1	-0.001900578
52	0xbbc129f6	-0.0058948947
53	0xbb8511cd	-0.00406096
54	0x3b04192d	0.0020156607
55	0x39dd3960	0.00042195152
56	0xb9e75897	-0.00044125758
57	0x3b623320	0.0034515336
58	0xb8f53168	-0.00011691713
59	0x39297b00	0.00016162917
60	0xbc24707f	-0.010036587
61	0xb86bd4b7	-5.6226472e-05
62	0xb84942c9	-4.7984333e-05
63	0x398662fb	0.00025632218
64	0xbb0dee3e	-0.0021656896
65	0x3ac577fa	0.0015065663
66	0x3a6ff8da	0.0009154208
67	0x39d6fbce	0.0004100487
68	0xb93fcd2e	-0.00018291615
69	0xbbec1986	-0.007205191
70	0x3c6c4ede	0.0144231
71	0xba1650e7	-0.0005734101
72	0xbb104985	-0.0022016477
73	0xb06568f3	-8.3458856e-10
74	0xbba30b09	-0.0049756807
75	0x393201d1	0.0001697608
76	0x3a862dbe	0.0010237021
77	0x3981b19d	0.0002473713
78	0x398b9c3c	0.0002662855
79	0x37a736f0	1.9933534e-05
80	0x37786a4d	1.4806702e-05
81	0x3a8eeab0	0.0010903683
82	0xbc1e2ac0	-0.009653747
83	0x3b2f1b59	0.0026719181
84	0xb9fec9d7	-0.00048597038
85	0xbbc94e6c	-0.006143382
86	0xbbb31160	-0.0054647177
87	0xbba30449	-0.004974876
88	0x3af72d2c	0.0018858067
89	0x3aa923ee	0.0012904385
90	0xb639ac24	-2.7667347e-06
91	0xbb4c69d9	-0.003119102
92	0xbb8e38b4	-0.0043402556
93	0x3a490c2c	0.0007669355
94	0x3b35f6be	0.0027765478
95	0x3b83215d	0.00400178
96	0x37a14810	1.9226252e-05
97	0x3a1da75b	0.00060140126
98	0xbbbd4d42	-0.005777032
99	0xbb9fb5f3	-0.004873985
100	0xbbb0a737	-0.0053910273
101	0x3adc8f4a	0.0016827371
102	0xba661205	-0.0008776489
103	0xbbaf191c	-0.0053435694
104	0x3a5dd11b	0.000846164
105	0xba96bee3	-0.001150098
106	0xbba2717c	-0.004957376
107	0xb90861f8	-0.00013006467
108	0x3a9e5438	0.0012079543
109	0xba66fea3	-0.00088117475
110	0x3b205dd8	0.0024469998
111	0xba810259	-0.0009842619
112	0xbba94914	-0.0051661823
113	0xbb5c21ec	-0.0033589555
114	0xba410d09	-0.0007364308
115	0x3b11e30d	0.0022260577
116	0x3b259d77	0.0025270858
117	0xb88d7340	-6.744871e-05
118	0xbb055b4f	-0.0020348614
119	0xbbc6d48b	-0.0060678176
120	0xb823d75a	-3.906279e-05
121	0x3a9b6c4e	0.0011857839
122	0x3bcb05b6	0.006195749
123	0x3bb991e5	0.005663144
124	0xbc4f32f5	-0.012646426
125	0xbb80aba2	-0.00392671
126	0xb6dcde4c	-6.5823897e-06
127	0xbaa2694a	-0.0012390998
128	0x3b5c70ea	0.0033636638
129	0x35fc5162	1.8799149e-06
130	0x3b2703ff	0.002548456
131	0x3aedb0de	0.0018134376
132	0x39bc9f91	0.0003597704
133	0x3b44f977	0.003005592
134	0x39053fb4	0.000127076
135	0x3a131450	0.0005610632
136	0x3aa75e84	0.0012769257
137	0x3b99e82c	0.0046968665
138	0xbb9c61bb	-0.0047723926
139	0xbaf673e0	-0.0018802844
140	0xba0017d5	-0.0004886364
141	0x3db4f36a	0.0883549
142	0x3c0a91ca	0.00845761
143	0x3da82887	0.08210855
144	0x3b6ec908	0.0036435742
145	0xbdc14332	-0.094366446
146	0xbd5b7ab9	-0.053583834
147	0x3dae62aa	0.085149124
148	0x3bfbc90b	0.0076838783
149	0x3d56d6bc	0.05245088
150	0xbc141931	-0.009039209
151	0x3fc8271b	1.5636934
152	0xb9892bdb	-0.0002616335
153	0xbba11d00	-0.004916787
154	0xbebc761b	-0.36808857
155	0x3c2e71b6	0.010647228
156	0x3b7b90fb	0.0038385976
157	0x3dccfa83	0.10008719
158	0x3f8514b3	1.0396942
159	0xbcc20567	-0.023684217
160	0xbc0e74ca	-0.008694837
161	0x3ac91526	0.0015341386
162	0xbb56164f	-0.0032667106
163	0xbc1bd327	-0.009510792
164	0x3c8c6ad3	0.017140782
165	0xbbbd1614	-0.005770454
166	0xbc31aec3	-0.010844889
167	0x3c734bfb	0.014849658
168	0x3d643012	0.055709906
169	0x3b821180	0.0039693713
170	0xbc8c30a8	-0.017113045
171	0x3c2e11bc	0.010624345
172	0xbc0973c0	-0.008389413
173	0xbd780f42	-0.060561426
174	0xbc8e695e	-0.017384227
175	0xbcb4f2c8	-0.022088423
176	0x3d4e0aeb	0.05030338
177	0xbcffa0cf	-0.03120461
178	0xbcde7d23	-0.02715928
179	0x3bebeb0a	0.0071996497
180	0x3c66f53e	0.014096556
181	0xbc460bbb	-0.012087758
182	0x3d571f1b	0.0525199
183	0xbc9bdd53	-0.019026434
184	0x3ba0e127	0.0049096528
185	0x3cdb93ad	0.026803816
186	0xbc02b921	-0.0079787085
187	0xbd8a9281	-0.06766225
188	0xbcd88146	-0.02642883
189	0xbcbad1be	-0.022805091
190	0xbd0a4946	-0.033761285
191	0xbc865fef	-0.016403167
192	0xbd4f1281	-0.050554756
193	0x3d8fe58e	0.07026206
194	0xbd48ce8d	-0.049025107
195	0xbd39dd46	-0.04537704
196	0x3d0caca0	0.034344316
197	0x3c67479a	0.014116192
198	0x3e5f5433	0.21809463
199	0xbd049a75	-0.032373864
200	0x3b2a6332	0.0025999066
201	0xbd90fecf	-0.07079851
202	0xbbfd28b5	-0.0077258
203	0xbb054b80	-0.002033919
204	0x3af41f8f	0.0018625128
205	0xbd9c7b43	-0.07640698
206	0x3d8b638d	0.06806097
207	0xbd2f6ad5	-0.042826492
208	0x3b5056c3	0.0031789995
209	0xbc586c64	-0.013209436
210	0xbc51bf01	-0.012801887
211	0xbcffa44b	-0.03120627
212	0xbc88ddf9	-0.016707407
213	0xbd532357	-0.051547375
214	0xbc9f16ca	-0.019420046
215	0xbc705ed7	-0.014671049
216	0xbcb8f092	-0.02257565
217	0xbd0c3c83	-0.034237396
218	0xbbb69eb8	-0.00557312
219	0x3ce41f7a	0.02784704
220	0xbcecbf1b	-0.02889972
221	0xbcac39e2	-0.021023694
222	0xbcab96c3	-0.020945912
223	0x3e037bf6	0.12840256
224	0x3c79cdca	0.015246818
225	0xbb1d8eeb	-0.0024041485
226	0xb9f76cfe	-0.00047192717
227	0xbd80ab24	-0.062826425
228	0x3c3154ce	0.010823442
229	0xbc8f38a3	-0.017483061
230	0xbcbd7f11	-0.023131879
231	0xbc0f3650	-0.008740976
232	0x3d4673bb	0.048450213
233	0x3dc8d56f	0.09806334
234	0xbc321bac	-0.010870855
235	0x3e3637bb	0.17794697
236	0x3d70daa1	0.05880225
237	0xba6f4e9d	-0.0009128841
238	0xbcf0df30	-0.0294033
239	0x3d2b3216	0.041795813
240	0xbe102d4c	-0.1407978
241	0x3d6626e5	0.056189436
242	0x3c22f91d	0.009947089
243	0xbdb4f26a	-0.08835299
244	0x3df0cd26	0.11757879
245	0xbc324dff	-0.0108828535
246	0xbcea646c	-0.028612338
247	0xbc00dace	-0.007864667
248	0xba1a6505	-0.0005889687
249	0x3e237536	0.15962681
250	0x3cb97fe7	0.022643996
251	0xbd3bda2c	-0.04586236
252	0x3d8accde	0.067773566
253	0x3e6d379a	0.23165742
254	0xbd07f4ba	-0.033192374
255	0x3bb355cd	0.0054728747

h1.bias f4 [10]
0	0xbbef6fae	-0.0073070144
1	0x3bd2ad58	0.0064293556
2	0x3c180169	0.00927768
3	0xbba041a1	-0.004890636
4	0x3b69b7b1	0.0035662467
5	0xbb3f1932	-0.0029159305
6	0x3a5b83f6	0.0008373851
7	0x3cccce6c	0.025000773
8	0xbb52c1c0	-0.003215894
9	0x3d9f154b	0.07767733

h2.weight f4 [10, 10]
0	0xbbe8ab6a	-0.0071005123
1	0xbe02c04d	-0.1276867
2	0xbd29a15d	-0.041413654
3	0xbc557610	-0.013028637
4	0xbcd5211a	-0.02601676
5	0xbce24f43	-0.027625686
6	0x3ce04d04	0.027380474
7	0xbc815f51	-0.01579252
8	0xba8997fa	-0.0010497563
9	0x3e11fc00	0.14256287
10	0x3cabbc72	0.020963881
11	0x3e6a570b	0.22884767
12	0xbd16b032	-0.036789127
13	0x3baa31e7	0.005193937
14	0xbc6eae82	-0.014567973
15	0xbb6e245c	-0.003633759
16	0x3cc7aecf	0.024375347
17	0xbce4ec75	-0.027944783
18	0x3ba69f33	0.005084896
19	0x3ec45409	0.38345364
20	0xbbfb2eb3	-0.007665479
21	0xbc75684f	-0.014978482
22	0xbc5c780d	-0.013456357
23	0x3c26dbd3	0.010184246
24	0xbbcfc3e2	-0.0063404897
25	0x3aa11098	0.001228827
26	0xbb411a56	-0.002946516
27	0xbc94b17f	-0.018151043
28	0x3a2e457a	0.0006647926
29	0x3c504f02	0.012714149
30	0xbc6a7b64	-0.014311645
31	0x3e88dcd7	0.26730987
32	0xbda5ad00	-0.08089638
33	0xbbe0e43f	-0.0068631466
34	0x3bfd6677	0.007733162
35	0xba5ea6cd	-0.0008493483
36	0xbc1722fc	-0.0092246495
37	0x3d27da3e	0.040979616
38	0xbb59836d	-0.0033189908
39	0x3ef9be1a	0.48777848
40	0xbb04d193	-0.0020266518
41	0xbdada716	-0.08479135
42	0x3c9cf7c8	0.01916112
43	0xbbdfa484	-0.0068250317
44	0x3cee9d15	0.029127637
45	0x3a78ba38	0.0009488198
46	0x3c16d793	0.00920667
47	0xbdea8a1a	-0.11452122
48	0xba70ac08	-0.0009180908
49	0xbe929e88	-0.28636575
50	0xbd57d460	-0.05269277
51	0xbcf285b3	-0.029604768
52	0x3d9667ed	0.07344041
53	0x3c1889a4	0.00931016
54	0x3ce809e5	0.02832503
55	0x3c4a81d3	0.012360054
56	0x3d64d72d	0.05586927
57	0xbce99f6c	-0.028518401
58	0x3c13eace	0.00902815
59	0x3e6b4f9e	0.2297959
60	0xbd24791f	-0.040154573
61	0xbd192df4	-0.03739734
62	0xbdf3c3d7	-0.11902588
63	0x3d699c5d	0.057033885
64	0xbc4807fb	-0.012208934
65	0x3c950547	0.018190993
66	0xbc9d2c7f	-0.019186256
67	0xbde439dc	-0.11143848
68	0xbca39ebe	-0.019973155
69	0xbc9ecac8	-0.019383803
70	0xbc520ca9	-0.012820401
71	0x3dd0338b	0.10166081
72	0x3c940522	0.018068854
73	0x3bc01b69	0.0058626425
74	0x3bcb9d55	0.006213824
75	0xbaf9f1e1	-0.0019069278
76	0xbb966fde	-0.0045909723
77	0x3bc4f588	0.006010715
78	0xbb433fb7	-0.0029792616
79	0x3e4a2800	0.19741821
80	0x3b7c1d68	0.0038469676
81	0x3e7da768	0.24770892
82	0x3db71f41	0.08941508
83	0x392f48af	0.00016716377
84	0xbc830b8a	-0.015996713
85	0x3b9793b0	0.00462576
86	0xbcefb9ef	-0.029263465
87	0xbd723c8a	-0.059139766
88	0xba1edefb	-0.00060604484
89	0x3ed11ae5	0.4084083
90	0xbbbdf4cc	-0.0057970043
91	0xbe355955	-0.17709859
92	0xbe0a07f3	-0.13479595
93	0x3e35278a	0.17690864
94	0xbe0f21c7	-0.13977729
95	0x3d3c5be0	0.045986056
96	0x3baf4168	0.005348373
97	0xbe4f998a	-0.20273414
98	0x3be9be09	0.0071332497
99	0xbdddc2f3	-0.10828199

h2.bias f4 [10]
0	0x3be554a0	0.0069986135
1	0x3e262896	0.1622642
2	0xbbf807c6	-0.007569286
3	0x3db0ad45	0.086267985
4	0xbd17f9ce	-0.037103467
5	0x3d9748fc	0.073869675
6	0xbcb414c0	-0.02198255
7	0x3da9b033	0.082855605
8	0xbdf53ff0	-0.11975086
9	0xbe39ec3d	-0.18156524

out.weight f4 [1, 10]
0	0x3cde4564	0.027132697
1	0x3d6fde35	0.058561523
2	0x3a6511bb	0.0008738299
3	0x3d33a964	0.043862715
4	0xbd006488	-0.031345874
5	0x3ce0bb3f	0.027433036
6	0xbd1a17ae	-0.03762024
7	0x3d9a44e7	0.07532673
8	0x3d670c79	0.05640838
9	0x3d845d7a	0.06463142
