MejoresPesos/best_model_MLP_P3.pth (torch, 11538 bytes, 11 tensors)

h1.weight f4 [10, 141]
0	0xbcadf6e5	-0.021235893
1	0x3b03cfa6	0.0020112782
2	0x3ce84904	0.028355129
3	0xbd0b266f	-0.0339722
4	0x3c83e98c	0.016102575
5	0x3cae868e	0.021304395
6	0xbd1eb768	-0.03874913
7	0x3bbdd55e	0.0057932576
8	0x3d40a37a	0.047030903
9	0xbd369ef8	-0.0445852
10	0x3c042c14	0.00806715
11	0x3c142122	0.009041103
12	0x3baeea1e	0.0053379675
13	0xbbade08f	-0.0053063105
14	0x3aa06003	0.0012235645
15	0x3ba48b0d	0.005021459
16	0xb9de7768	-0.00042432104
17	0xbc743576	-0.014905324
18	0xbd08dd71	-0.033414308
19	0x3c896ff3	0.016777014
20	0x3ae9c062	0.0017833824
21	0x39dcdf96	0.00042128254
22	0x3c9234d9	0.017847465
23	0x39df3e5f	0.00042580345
24	0xbaab298f	-0.001305865
25	0x3a99772d	0.0011708491
26	0xbbf79f45	-0.007556828
27	0xbb71415f	-0.0036812646
28	0x3c1b26dd	0.009469715
29	0x3ba346e6	0.004982817
30	0x3a4d273c	0.0007825976
31	0x3bc36e07	0.005964044
32	0xba7e1893	-0.0009692993
33	0x3bd58dab	0.0065171323
34	0x3c79cbf1	0.015246377
35	0xbc14c980	-0.0090812445
36	0xbba77e8e	-0.005111522
37	0x3b3bf069	0.0028677231
38	0x395bf9ee	0.00020978574
39	0xbb9b6147	-0.004741821
40	0x3aa6a7a3	0.0012714755
41	0x3a8dc53f	0.001081623
42	0xbc3bacc1	-0.011454762
43	0x3baa4f6c	0.005197456
44	0x3c436659	0.011926257
45	0x3c01743d	0.0079012485
46	0x3b66f6ac	0.0035242243
47	0x3b776f36	0.0037755496
48	0x3b81aa37	0.003957059
49	0xbb94624c	-0.0045283195
50	0xbb058b43	-0.0020377196
51	0x36956980	4.452828e-06
52	0x3bd3e218	0.0064661615
53	0x3bd1a06b	0.006397297
54	0x3b142cba	0.0022609667
55	0xba869684	-0.0010268246
56	0x3c0fd813	0.008779543
57	0x3cc655f4	0.024210908
58	0x3b0466bb	0.0020202834
59	0xbb32f14f	-0.0027304476
60	0xbafb042d	-0.0019151025
61	0x39b49929	0.0003444639
62	0x3b272214	0.002550249
63	0x3b2933cf	0.0025818234
64	0xbb8230c2	-0.0039730975
65	0xbaa989b7	-0.0012934719
66	0x3931a8cd	0.00016942919
67	0xbb9c8d2c	-0.004777571
68	0x3a773f00	0.000943169
69	0xbc522cb0	-0.012828037
70	0xbc0ed003	-0.008716586
71	0xbaa766fd	-0.0012771782
72	0x3b81d066	0.0039616106
73	0xb15893eb	-3.1516219e-09
74	0xbb23c14b	-0.0024987038
75	0xbbf0bc72	-0.007346683
76	0xbb098dd0	-0.0020989068
77	0x3b18da25	0.0023323384
78	0x3aa2b880	0.0012414604
79	0x3a6f5464	0.00091297016
80	0x3aaedc5e	0.0013340821
81	0x3c97eb06	0.018544685
82	0x3bda4037	0.006660487
83	0xbb232797	-0.0024895424
84	0x3b0a6422	0.0021116813
85	0xbbc4a719	-0.006001365
86	0xbab4cfd5	-0.0013794849
87	0x3b9fd0d7	0.0048771906
88	0xbb817021	-0.0039501344
89	0x3b86a180	0.004108608
90	0xb88bbeec	-6.6635985e-05
91	0x3c762d2c	0.015025418
92	0x3cca3368	0.024682716
93	0x3a00085f	0.000488406
94	0xbb11e40c	-0.002226117
95	0xbcdb70b4	-0.02678714
96	0x3baea49a	0.0053296806
97	0xba5f635b	-0.000852158
98	0x3c213628	0.009839572
99	0x3b67e793	0.0035385832
100	0xba4b212e	-0.00077487796
101	0xbbbf51f5	-0.0058386275
102	0xbc6856fe	-0.014180897
103	0xbbf59eab	-0.0074957213
104	0xbaf05398	-0.001833546
105	0x3b21d004	0.0024690637
106	0x3c21a4ef	0.009865983
107	0x3aa66447	0.001269468
108	0xbb13126c	-0.00224414
109	0x3ab931bd	0.0014129203
110	0x3accda42	0.0015629011
111	0x3b508abd	0.0031820976
112	0x3cb1e315	0.021714726
113	0xbaa9f782	-0.001296744
114	0x3b8301b2	0.003998005
115	0xbbb2675f	-0.0054444517
116	0xbb91fcd7	-0.0044551897
117	0xbb530c4e	-0.003220338
118	0x3b079a1d	0.0020691224
119	0x3c5aaac5	0.013346379
120	0xb8f70ecd	-0.00011780635
121	0x398a4e4a	0.0002637974
122	0xba8b2804	-0.0010616784
123	0xbb53481a	-0.003223902
124	0x3c5bd2c3	0.013416949
125	0x3c2ba1bb	0.010475571
126	0xb6cf0f08	-6.1708306e-06
127	0xb9f7ba01	-0.00047250095
128	0x3cac3e6c	0.021025859
129	0xb9d97c1a	-0.00041481928
130	0x3bee9257	0.0072806287
131	0x3b752727	0.003740737
132	0x3bd27013	0.0064220517
133	0xbc263380	-0.0101441145
134	0xbbe8927f	-0.007097542
135	0xb8c5537b	-9.4092415e-05
136	0xbba44178	-0.0050126873
137	0xbc4b3856	-0.012403568
138	0x3a16262b	0.00057277334
139	0x3ba646a2	0.005074338
140	0x398a0b25	0.00026329714
141	0x3c3870ba	0.011257345
142	0x3ddab68c	0.10679349
143	0x3c97b557	0.018519087
144	0x3bb830e9	0.005621065
145	0xbcf4bb5f	-0.029874502
146	0x3c917e4a	0.017760415
147	0x3b1980cc	0.0023422716
148	0x3bff0ff2	0.0077838833
149	0x3cca08d2	0.024662409
150	0xbd6ce5cf	-0.05783635
151	0x3b184f58	0.0023240652
152	0x3aae8d3d	0.0013317239
153	0xb9b3279a	-0.00034171046
154	0xbadb4b30	-0.0016730782
155	0x3819258c	3.651301e-05
156	0x3a171670	0.00057635363
157	0xbbbc058e	-0.005737967
158	0x3a92373a	0.0011155375
159	0x3a3ca66e	0.0007196431
160	0x3bd345f7	0.0064475494
161	0x3b3f3c1d	0.0029180117
162	0x3ae7631f	0.0017653442
163	0x3b147e7e	0.0022658403
164	0x3b97063f	0.004608899
165	0x3ace43d8	0.0015736772
166	0x3b0d60da	0.002157262
167	0x3b9f0aff	0.0048536058
168	0xbb99aab0	-0.004689537
169	0xbb329cbc	-0.0027254065
170	0x3b08422b	0.0020791392
171	0xbb1ca2fc	-0.0023900857
172	0x3b61a531	0.0034430737
173	0x3adb296b	0.0016720718
174	0x3b6df72c	0.0036310656
175	0x3a377bb4	0.0006999329
176	0xbbb14def	-0.0054109017
177	0xbb476d8d	-0.0030430288
178	0x3a39d04f	0.00070882303
179	0x3b3ab33d	0.0028488182
180	0x3914d34a	0.00014193091
181	0xb95e13d1	-0.00021178952
182	0x3aea2faa	0.0017866988
183	0xbae44d3f	-0.0017418041
184	0x3bd707d8	0.0065622143
185	0x3b9fa922	0.004872457
186	0x3b9a8f7d	0.004716812
187	0x3bfb8e4e	0.007676876
188	0xbb8eefe2	-0.0043620924
189	0x3bb9c1c4	0.0056688506
190	0xbb803dfa	-0.003913638
191	0x3b827791	0.0039815386
192	0xbb08f923	-0.002090045
193	0x3b3f14a2	0.0029156585
194	0xb9be648c	-0.00036314537
195	0xba8c573d	-0.0010707151
196	0xbabb5dfe	-0.001429498
197	0xbb33fc23	-0.0027463518
198	0x3c851b98	0.01624851
199	0x3ab08ea1	0.0013470241
200	0xb9d8735e	-0.00041284686
201	0xba1f9b91	-0.000608855
202	0x38bb1db1	8.922385e-05
203	0xb9a8a971	-0.000321697
204	0x3a39f949	0.00070943363
205	0xbb6ca277	-0.0036107579
206	0xbaaa2934	-0.001298225
207	0x3ac359c5	0.0014904073
208	0xb9085e93	-0.00013005202
209	0x39024b6b	0.00012425861
210	0xbc18d968	-0.009329177
211	0xba299672	-0.00064692565
212	0xba0255bc	-0.0004971882
213	0xbab277e5	-0.0013616054
214	0x2ff78a4d	4.5027307e-10
215	0x3a40744a	0.0007341547
216	0xbaf22e45	-0.0018476924
217	0xba04a94e	-0.0005060629
218	0x3a290129	0.0006447011
219	0x38d0d198	9.957253e-05
220	0xb6716972	-3.5973176e-06
221	0x39c4ef92	0.00037562527
222	0x3c0bb336	0.008526614
223	0x3b657b12	0.0035015983
224	0x3b4c099c	0.0031133657
225	0xba45e6d3	-0.0007549349
226	0x3aab926b	0.0013089901
227	0x381ea984	3.782801e-05
228	0x393bc1bf	0.00017905886
229	0xba4da3d4	-0.00078445417
230	0xba436bef	-0.0007454743
231	0xb6856d93	-3.976465e-06
232	0x3c0951cc	0.008381318
233	0x3be82e3c	0.0070855897
234	0x3a3b38b5	0.0007141934
235	0xbacef87c	-0.0015790607
236	0x3c622a61	0.013804049
237	0x3a6119b3	0.00085868983
238	0xba413563	-0.0007370321
239	0x3b77a6b8	0.003778858
240	0x3b724a4c	0.0036970554
241	0xbb6df718	-0.003631061
242	0xbab0a8b7	-0.0013478015
243	0x37b4271f	2.147589e-05
244	0xbb6b2207	-0.0035878436
245	0xba2499b7	-0.0006279009
246	0x397e80e3	0.00024271342
247	0x3b137685	0.0022501063
248	0x3a13aa1b	0.00056329527
249	0xbbe2481a	-0.006905568
250	0xba45d7da	-0.0007547118
251	0x3a2f493d	0.00066866336
252	0xba5667ee	-0.0008178939
253	0x3b2f2531	0.0026725049
254	0xb786c4e0	-1.6065722e-05
255	0x3b61ab18	0.0034434255

h1.bias f4 [10]
0	0x3ba8122f	0.005129121
1	0x3b373e35	0.0027960662
2	0xbc53ddfe	-0.012931345
3	0x3c98d2f3	0.018655276
4	0x3cbd017a	0.023071993
5	0x3929cb79	0.00016192895
6	0x3989f788	0.000263151
7	0xbade04ac	-0.0016938648
8	0x3b9bc0a0	0.0047531873
9	0x3babc34b	0.0052417866

h2.weight f4 [10, 10]
0	0x3da0f1b1	0.07858599
1	0xbd6b23d2	-0.057407208
2	0x3d1728f5	0.036904294
3	0xbe4e4187	-0.20142184
4	0xbdce4cd0	-0.100732446
5	0x3f21889e	0.63099086
6	0x3d43bec0	0.047789335
7	0xbe1ba0a1	-0.15197994
8	0x3e3636c0	0.17794323
9	0xbe1d2620	-0.15346575
10	0x3d0c718a	0.034287967
11	0x3da7e1e3	0.08197381
12	0xbcec20c1	-0.028824212
13	0x3e5f86f8	0.2182883
14	0xbdce22f4	-0.100652605
15	0x3eaaebe7	0.33383104
16	0x3d366654	0.04453118
17	0x3dd1b4d9	0.10239572
18	0xbe453f34	-0.19262391
19	0x3c31030a	0.010803947
20	0xbe8f223e	-0.27955812
21	0xbe00fbe1	-0.12596084
22	0x3db07f8a	0.08618076
23	0x3e2c1141	0.16803457
24	0x3e3a37cf	0.18185352
25	0xbec2bd7e	-0.38035196
26	0x3e521658	0.20516336
27	0xbe28cf20	-0.16485262
28	0x3d9d0dc6	0.07668643
29	0xbdd52347	-0.10407119
30	0x3e7fb66c	0.24971932
31	0x3e3cee2b	0.18450229
32	0xbeac0b4b	-0.33602366
33	0x3da59a8f	0.0808612
34	0x3e0ced99	0.13762511
35	0xbee21761	-0.44158462
36	0xbe74909e	-0.23883292
37	0x3e21145a	0.1573042
38	0x3dd6d81f	0.104904406
39	0x3b909b36	0.004413034
40	0x3daea4da	0.08527537
41	0x3d805200	0.0626564
42	0x3d3373e5	0.043811698
43	0xbe529e80	-0.20568275
44	0xbea716a0	-0.3263445
45	0xbeb41924	-0.3517543
46	0x3d017bee	0.03161233
47	0x3d10c257	0.035341587
48	0xbe386ed3	-0.18011026
49	0xbe439683	-0.19100384
50	0x3db743eb	0.08948501
51	0x3c7b5608	0.015340336
52	0xbc18c3f2	-0.009324061
53	0xbd21eef4	-0.039534524
54	0xbde519b4	-0.11186543
55	0xbe5120b9	-0.20422639
56	0x3c4cebc3	0.012507382
57	0x3cc42ac7	0.02394618
58	0xbc7f6fb0	-0.015590593
59	0xbc123062	-0.008922668
60	0xbe3e6d17	-0.18596302
61	0xbe1be01a	-0.15222207
62	0x3bb6153f	0.005556732
63	0x3e1d3b81	0.1535473
64	0xbdfcd1b0	-0.12344682
65	0xbe98bc98	-0.29831386
66	0x3dc8c86c	0.098038524
67	0xbd5d5c80	-0.054043293
68	0x3d9a6013	0.07537856
69	0x3df874bb	0.121316396
70	0xbd44ceee	-0.048048906
71	0x3d85cbcf	0.06533014
72	0xbe6c28da	-0.23062459
73	0x3d801507	0.06254011
74	0xbe9dfb8e	-0.30855983
75	0x3ee3db5b	0.44503292
76	0x3bd47ff0	0.006484978
77	0x3e737527	0.23775159
78	0xbca5568c	-0.02018287
79	0x3d04734c	0.03233652
80	0xbbf9103b	-0.007600812
81	0x3d509b51	0.05092937
82	0x3d6a0045	0.057129163
83	0xbe030806	-0.1279603
84	0xbe5bfeaf	-0.21483873
85	0xbe8f800a	-0.28027374
86	0x3c56fa87	0.013121254
87	0x3e1f85cf	0.15578388
88	0x3e724f36	0.23663029
89	0x3df927ae	0.121657714
90	0xbbc1fa51	-0.0059197326
91	0xbe0aeda8	-0.13567221
92	0xbe7ed355	-0.24885304
93	0xbe40bca2	-0.18821958
94	0x3e8824a0	0.26590443
95	0x3d0956cd	0.033530045
96	0x3dbd4658	0.09241933
97	0xbb37c35e	-0.0028040032
98	0x3c312b33	0.010813522
99	0xbd37eaf3	-0.0449018

h2.bias f4 [10]
0	0xbcf4b647	-0.029872073
1	0xbcaecdad	-0.021338308
2	0xbe18748c	-0.14888209
3	0xbe8ac08a	-0.2710002
4	0x3c525f44	0.012840096
5	0x3da1900e	0.078888044
6	0x3dfe6824	0.12422207
7	0xbdc7acf5	-0.09749786
8	0xbe803c8a	-0.25046188
9	0xbdd0c956	-0.10194652

h3.weight f4 [10, 10]
0	0xbc9a57f0	-0.01884076
1	0xbe2524d6	-0.16127333
2	0xbdebc35a	-0.1151187
3	0x3dd9e918	0.10640162
4	0xbe003b7c	-0.12522691
5	0xbe98e63c	-0.29863155
6	0xbe072a14	-0.13199645
7	0xbd5180e0	-0.051148295
8	0x3e822f6b	0.25426802
9	0x3e4abda6	0.19798908
10	0xbddf715a	-0.10910292
11	0x3e8147d9	0.25250128
12	0xbe228051	-0.15869261
13	0x3e570ffe	0.21002194
14	0xbd2f7bb8	-0.042842597
15	0xbe9b4381	-0.3032494
16	0x3e1175e8	0.14205134
17	0x3e57c752	0.21072128
18	0xbe930b97	-0.2871978
19	0x3deae400	0.11469269
20	0x3e84c439	0.25930956
21	0x3d869d94	0.065730244
22	0x3d50f628	0.051016003
23	0x3e054d44	0.13017756
24	0xbe0597cc	-0.13046187
25	0xbe0f9e13	-0.14025144
26	0xbde511c6	-0.11185031
27	0xbdbda492	-0.09259905
28	0x3c9efd70	0.019407958
29	0xbe78239b	-0.24232332
30	0x3e2dcbe8	0.16972315
31	0xbe740c56	-0.23832831
32	0xbe3f0fe3	-0.18658404
33	0xbd66e180	-0.056367397
34	0x3cc174d0	0.02361527
35	0x3da8382c	0.08213839
36	0xbe829fe6	-0.25512618
37	0xbde6c7ec	-0.11268601
38	0x3cec6c40	0.028860211
39	0xbe347126	-0.17621288
40	0xbdeed0de	-0.11660932
41	0x3d112788	0.03543809
42	0xbdc90e1a	-0.09817143
43	0x3e907a9d	0.28218547
44	0xbde930e8	-0.11386281
45	0x3e85a20b	0.2610019
46	0xbcda1e50	-0.026625782
47	0xbd3a8918	-0.0455409
48	0xbe47e89a	-0.19522324
49	0xbdfc6108	-0.12323195
50	0x3e1e81cc	0.15479201
51	0xbe1bc524	-0.15211922
52	0x3e19ee1c	0.15032238
53	0xbd17ec90	-0.037090838
54	0x3d8e607c	0.06951997
55	0x3e92ee53	0.28697452
56	0xbe90db2f	-0.28292224
57	0xbe6f3be4	-0.2336269
58	0xbe838a86	-0.25691622
59	0xbe3a577e	-0.18197438
60	0x3da53960	0.08067584
61	0xbe31bd3e	-0.17357346
62	0x3cc8baa0	0.024503052
63	0xbe81979e	-0.25310987
64	0x3e96c30f	0.29445693
65	0x3b8b5d40	0.0042530596
66	0xbe7fbcec	-0.24974412
67	0x3e353116	0.17694506
68	0xbe95e137	-0.29273388
69	0x3d9a931c	0.0754759
70	0xbe5d38f2	-0.21603754
71	0xbd320b90	-0.043468058
72	0x3e34515a	0.17609158
73	0xbdc1bf98	-0.09460372
74	0x3e917a89	0.284138
75	0x3cc9e510	0.024645358
76	0xbc48e540	-0.012261689
77	0xbcae1b80	-0.021253347
78	0xbcfcd190	-0.030861646
79	0x3e735a12	0.23764828
80	0x3e8b0ffb	0.2716063
81	0xbe07b6a1	-0.13253261
82	0xbe378f45	-0.17925747
83	0xbe19f347	-0.15034209
84	0x3e79621e	0.24353835
85	0x3da4572c	0.08024439
86	0x3d3a9c30	0.04555911
87	0x3e8b37c5	0.27190986
88	0xbe7a94c2	-0.24470809
89	0xbe4b55f2	-0.19857004
90	0x3d9de15c	0.077089995
91	0xbe839ada	-0.2570408
92	0xbe34ae7d	-0.17644687
93	0x3e523176	0.2052668
94	0x3e673402	0.22578433
95	0xbe7b9304	-0.24567801
96	0x3e06a572	0.1314905
97	0xbcb79d20	-0.02241379
98	0x3e9890a9	0.29797867
99	0xbe02585b	-0.12729017

h3.bias f4 [10]
0	0x3d015b10	0.031580985
1	0x3e8ce065	0.2751495
2	0xbe2ea24c	-0.17054099
3	0x3e6fbcce	0.23411867
4	0xbdcc6d3a	-0.09981771
5	0x3bf3c9c0	0.007439822
6	0xbe84b962	-0.25922686
7	0xbe484b3a	-0.19559947
8	0x3deeb5ac	0.11655745
9	0x3db91bd0	0.09038508

h4.weight f4 [10, 10]
0	0xbe7982b2	-0.24366263
1	0x3e1b49b4	0.15164834
2	0x3e6393c6	0.2222434
3	0x3cc69260	0.024239719
4	0xbe62e374	-0.22157079
5	0xbe8cce0e	-0.27500957
6	0xbe8c0ebd	-0.27354994
7	0xbdd64882	-0.104630485
8	0x3e57f18e	0.2108824
9	0xbe5b1396	-0.2139419
10	0xbd8dacda	-0.069177344
11	0xbc78ff80	-0.015197635
12	0xbe1e58aa	-0.1546351
13	0x3d288f58	0.04115233
14	0xbe35e052	-0.17761353
15	0x3ba0be00	0.0049054623
16	0xbe29a6f3	-0.16567592
17	0xbdc071f0	-0.09396732
18	0x3e8a95e7	0.2706749
19	0xbe9502d2	-0.29103714
20	0xbe1bd934	-0.15219575
21	0xbe021273	-0.1270235
22	0x3d88218c	0.066470236
23	0x3e81e5a9	0.2537053
24	0xbe639802	-0.22225955
25	0xbc434220	-0.011917621
26	0xbe2e3623	-0.17012839
27	0xbe22be60	-0.15892935
28	0x3d796068	0.060882956
29	0x3e9fa315	0.3117911
30	0xbe70e03c	-0.23523039
31	0x3e67e0ba	0.2264432
32	0x3d4adff0	0.04952997
33	0x3e31f80a	0.17379776
34	0xbd923cd2	-0.07140507
35	0x3e4ee31e	0.20203826
36	0x3e8462e3	0.25856695
37	0x3e5e2932	0.21695402
38	0xbca222a0	-0.019791901
39	0x3e8afcd3	0.27146015
40	0x3d8c0314	0.068365246
41	0xbdf7b29a	-0.120946124
42	0x3e992d41	0.29917338
43	0xbd8269ec	-0.06367859
44	0x3e65a986	0.2242795
45	0x3e961175	0.29310194
46	0x3e1b90d6	0.1519197
47	0x3e8850f9	0.26624277
48	0x3e5a0fda	0.2129511
49	0x3e3f7d12	0.18700054
50	0xbd5d2870	-0.053993642
51	0xbe5f91d1	-0.21832968
52	0x3e03f084	0.12884718
53	0xbda25c7c	-0.07927796
54	0xbe811255	-0.252093
55	0xbe2fd3aa	-0.17170587
56	0x3d77daa8	0.06051126
57	0xbdbd4568	-0.09241754
58	0xbe9164bd	-0.2839717
59	0xbe462a9a	-0.19352189
60	0xbe930af6	-0.287193
61	0xbe8d38f2	-0.27582508
62	0xbe96de77	-0.29466602
63	0x3e5cf63e	0.21578309
64	0xbe501862	-0.20321801
65	0xbe9a4067	-0.3012726
66	0xbe250d47	-0.16118346
67	0x3dd084a8	0.10181552
68	0xbe0c335e	-0.1369147
69	0xbd7fce58	-0.062452644
70	0xbe82265f	-0.254199
71	0xbb433780	-0.002978772
72	0x3e7b062e	0.24514076
73	0xbe5f0282	-0.217783
74	0x3dd43cf4	0.103631884
75	0x3e40d4e6	0.18831214
76	0x3dba84f0	0.09107387
77	0xbde8defc	-0.11370656
78	0x3b617680	0.0034402907
79	0xbbde3dc0	-0.0067822635
80	0xbe7cb74f	-0.24679302
81	0x3e56a782	0.20962337
82	0x3e35213c	0.17688459
83	0x3d0d53a0	0.03450358
84	0x3e951b4d	0.2912239
85	0xbe26bcbd	-0.16282935
86	0xbe75d5f8	-0.24007404
87	0x3d6eee78	0.05833289
88	0x3e378f30	0.17925715
89	0x3dbed954	0.09318796
90	0xbe91d153	-0.28480014
91	0xbe4fc398	-0.20289457
92	0x3cb76a50	0.022389561
93	0x3e8a98b9	0.27069643
94	0x3e4cf74e	0.20016214
95	0xbe9aab41	-0.3020878
96	0x3e36450e	0.1779978
97	0xbb7dcc00	-0.003872633
98	0xbbe3d980	-0.0069534183
99	0x3e27e78a	0.16396919

h4.bias f4 [10]
0	0x3da521cc	0.08063087
1	0x3e93bea7	0.28856394
2	0x3e7adf9a	0.2449936
3	0xbd8094a0	-0.06278348
4	0xbe7d5ae6	-0.24741706
5	0xbd29ff50	-0.04150325
6	0xbe9e9b72	-0.3097797
7	0x3dbd74b4	0.09250775
8	0xbd896bc4	-0.06710008
9	0x3e856841	0.26056102

h5.weight f4 [10, 10]
0	0x3e3947ea	0.1809384
1	0xbdd1e7cc	-0.1024929
2	0x3dc00a08	0.09376913
3	0xbdbd0716	-0.09229867
4	0xbdfd0646	-0.12354712
5	0xbea0666d	-0.31328145
6	0x3e7837b6	0.24240002
7	0x3da27878	0.07933134
8	0x3e4b8a0a	0.19876876
9	0x3e89bf59	0.269038
10	0x3e9d1d4f	0.30686423
11	0x3e37065e	0.17873523
12	0x3e1740b0	0.1477077
13	0x3dd23d5c	0.102656096
14	0xbe544a8a	-0.2073156
15	0x3e921e5f	0.28538796
16	0x3e384116	0.17993578
17	0x3e830cc7	0.25595686
18	0x3e1b4546	0.15163144
19	0x3d4055d8	0.046956867
20	0xbe299b3a	-0.1656312
21	0x3a806e00	0.0009798408
22	0xbcaa4d70	-0.020788878
23	0x3d975a28	0.07390243
24	0x3d859390	0.06522286
25	0x3dce0578	0.10059637
26	0xbe609c3a	-0.21934596
27	0x3d00e748	0.031470567
28	0x3ddac3f4	0.10681906
29	0xbdc01908	-0.09379774
30	0xbe6f2d0e	-0.23357031
31	0x3e87b525	0.2650539
32	0x3e9328a5	0.28741947
33	0x3e47aa1e	0.19498488
34	0x3e02a90e	0.12759802
35	0xbcaa0b70	-0.020757407
36	0xbe37e4de	-0.179584
37	0xbbd9ef80	-0.006650865
38	0x3cf4d6a0	0.029887497
39	0xbd7f1f70	-0.06228584
40	0xbdb23ca4	-0.087029725
41	0x3e303db2	0.17211035
42	0x3e17723c	0.1478967
43	0x3e1db9e6	0.15402946
44	0xbc7d12e0	-0.015446395
45	0xbe5068df	-0.20352505
46	0xbd8da854	-0.06916872
47	0xbe898696	-0.26860493
48	0xbe5d1b7e	-0.21592519
49	0xbc905670	-0.017619342
50	0x3e05150c	0.1299631
51	0xbdb86130	-0.09002912
52	0xbe848268	-0.25880742
53	0x3d90e4a0	0.07074857
54	0x3dc7c9d8	0.097552955
55	0xbe876603	-0.26445016
56	0x3e323872	0.17404345
57	0x3dbf1084	0.09329322
58	0xbe2b0774	-0.16702062
59	0x3cb24c50	0.021764904
60	0x3e827593	0.25480327
61	0xbaba9200	-0.0014234185
62	0x3d892e4c	0.066982836
63	0x3e763766	0.2404457
64	0xbd58b4a0	-0.052906632
65	0xbbe8eb40	-0.007108122
66	0x3e8bcb65	0.27303615
67	0xbe8d69a0	-0.27619648
68	0xbdfdb652	-0.123882905
69	0x3e95dc75	0.29269758
70	0x3daa3b64	0.08312109
71	0x3e863f57	0.262202
72	0xbe7bcda6	-0.24590167
73	0x3de68bbc	0.11257121
74	0x3d6d1d18	0.057889074
75	0xba7d3a00	-0.0009659827
76	0xbe7ce001	-0.24694826
77	0xbe95318e	-0.2913937
78	0x3e4abbda	0.19798222
79	0x3e42360e	0.18965933
80	0xbe16accd	-0.14714356
81	0x3e3e41da	0.18579808
82	0x3be24040	0.006904632
83	0xbe2745f4	-0.16335279
84	0x3d30f138	0.043198794
85	0xbe24acc7	-0.16081534
86	0xbded7f64	-0.115965635
87	0x3cc656e0	0.024211347
88	0xbe1420cf	-0.1446564
89	0xbe6cf4e0	-0.23140287
90	0x3d5642b8	0.05230972
91	0xbd6b4f68	-0.057448775
92	0x3da04448	0.078255236
93	0x3d331b18	0.04372701
94	0xbe33b0be	-0.1754789
95	0x3d999b38	0.07500309
96	0xbdce90b6	-0.10086195
97	0xbce51140	-0.027962327
98	0xbe9d53ef	-0.307281
99	0x3d892e50	0.066982865

h5.bias f4 [10]
0	0x3e4e7cbe	0.20164773
1	0xbe35a62a	-0.17739168
2	0xbe3f9382	-0.18708614
3	0x3e42f602	0.19039157
4	0x3da1db84	0.079031974
5	0x3e9c4fe7	0.3052971
6	0x3b419f00	0.0029544234
7	0x3e70dede	0.23522517
8	0x3e2132bc	0.1574201
9	0xbe83db97	-0.2575347

out.weight f4 [1, 10]
0	0x3e86bad5	0.26314417
1	0xbd997398	-0.07492751
2	0x3c854056	0.01626603
3	0x3e9c592b	0.3053678
4	0xbd6d0eaa	-0.057875313
5	0xbd9b7886	-0.075913474
6	0xbdaa9174	-0.08328524
7	0xbd887d6b	-0.066645466
8	0x3ead4035	0.3383805
9	0x3e6bc5a2	0.2302461
