MejoresPesos/best_model_MLP_P.pth (torch, 8738 bytes, 5 tensors)

h1.weight f4 [10, 141]
0.0045620482 0.02750231 -0.003325054 -0.014465171 -0.019521791 0.015787864 0.020518664 0.022465704
-0.006600311 -0.023092128 -0.0033256062 -0.0002736739 -0.0001223025 0.0057457183 -0.00023507795 -0.00047644746
-0.0047161886 -0.00210335 -0.005495966 0.0004246056 0.006685816 -0.0007101627 -0.010121516 0.00076624827
0.0012516762 3.874341e-05 -0.003087292 0.0015772566 -0.009181862 -0.00090105546 5.0645547e-05 0.0011753738
-0.0002378352 -0.00048841385 0.004988279 0.0013047007 -0.0014055121 0.0025883464 -0.0008295103 -0.00089254096
0.0006377529 -5.466131e-05 -0.003130002 0.00041892088 0.0020547085 0.00034916666 -0.0018679883 -0.0005930575
0.0032839777 -0.0022987302 0.0004907816 -0.00032473923 -0.004674736 3.11657e-05 -1.9834797e-05 0.00050919387
-0.00018685311 -0.004324311 -0.0024954604 0.00022369988 -0.003991829 6.629947e-06 3.3816577e-05 -0.00019552466
0.0018172486 0.00037502416 -0.0009373374 0.00075729156 -0.00011031557 -0.0028050274 0.01586621 -3.659615e-05
0.00032193592 4.2910817e-10 0.00030672006 -0.0002946498 -0.0006400587 -4.492043e-05 -0.00038283507 -1.3092544e-05
6.945619e-05 0.0019119367 0.0014739335 -0.0015268633 -0.0010105628 -0.0011790032 -0.000976702 -0.0045864447
-9.14682e-05 -9.694355e-06 1.0831011e-06 -0.001040807 -0.004214997 0.00061234605 -0.004305975 -0.0042400365
0.0015151016 0.0011015808 0.0011330422 -0.0013896656 0.00011016576 -0.00051652204 0.00026112446 -2.6878823e-05
0.0004932911 0.00020505338 0.00097608636 2.9285004e-06 -0.0009580662 0.0010200893 0.0013013227 -0.00032272722
0.010371177 0.0021650007 0.0067756562 -0.00055541005 -0.0016934549 -0.002253742 0.0008047126 -0.0038835392
5.7220015e-05 0.0044264286 0.0032321126 0.0021042314 -0.0013185696 -0.007039055 5.387317e-07 0.00083591003
-0.0013758821 -1.4913397e-05 -0.00021766982 -0.0027917298 -0.00135431 0.00066503393 -0.00011374513 0.00088702835
-0.0036372389 0.007681554 -0.009541962 -0.00018731182 0.0010420269 0.007301671 -0.0084552895 -0.0063895644
-0.041489314 -0.013952853 0.022474555 -0.018784883 -0.004431997 -0.032758713 -0.016939323 -0.0014564197
-0.00075515226 -0.001010787 2.2260152e-05 -6.833823e-06 -0.0012671085 0.0015204889 0.00053184776 0.01217248
0.0068072486 0.0025100068 -0.00028994156 0.0029474332 -0.0027880976 -0.011393529 0.00019503052 0.009472743
0.00063649856 -0.008779295 -0.002010843 -0.0019215756 -0.0016779292 -0.0030546207 -0.0010208539 -0.00034548534
0.002205619 0.0040840246 0.0020989296 0.0005958919 0.0013654528 0.0013363926 -0.0073751556 0.000220719
0.0024158366 -0.00024229064 0.0032235147 -0.012481353 0.00046511652 0.0062738517 -0.004834104 0.002965093
0.0013193662 -0.0073964405 0.0017013415 -0.00036288705 -0.00028860895 0.0020168284 -0.010027141 -0.004743161
0.00044003056 0.0032174245 5.8174896e-06 2.0661824e-05 -0.00023563359 -0.002068079 -0.0021446743 -0.00013854666
-0.0025010929 -9.367716e-05 -0.008924107 0.014941476 -0.0004846121 0.00068793807 -1.2816873e-10 -0.0008152799
0.00041431145 0.00020575838 9.423417e-05 -0.00066697237 2.3604427e-05 -4.38813e-06 -0.0030472684 -0.0021543002
0.000585111 -0.0011010465 -0.000913648 0.0016427122 0.0038478381 -9.243843e-05 -0.00012675895 5.454021e-06
-0.002232335 -0.011713575 0.00040669975 -0.0008285597 -0.024287008 0.00029745244 -6.9354595e-05 0.0013986443
-0.002371052 -0.00063005905 0.0007786054 0.003778475 -0.0042663775 0.0017357027 2.486616e-05 0.0006199
8.933766e-06 -0.008120744 0.0012169385 0.0019303536 -0.00041709217 0.015274155 0.002159093 0.0042408737
00000000: 3c7d 953b 864c e13c 26e9 59bb 53ff 6cbc
00000010: 2aec 9fbc 8d55 813c c216 a83c ff09 b83c
00000020: 6c47 d8bb b42b bdbc 6af2 59bb e47b 8fb9
00000030: 543e 00b9 9446 bc3b 427f 76b9 b2cb f9b9
00000040: 428a 9abb 5bd8 09bb 8117 b4bb 999d de39
00000050: b114 db3b 362a 3aba b7d4 25bc 0dde 483a
00000060: 490f a43a 6b80 2238 2a54 4abb f3bb ce3a
00000070: 856f 16bc cf34 6cba 3e6c 5438 000f 9a3a
00000080: 6663 79b9 e608 00ba b874 a33b 7e02 ab3a
00000090: 2939 b8ba 3fa1 293b 7e73 59ba 69f9 69ba
000000a0: df2e 273a 2244 65b8 b820 4dbb 9ca2 db39
000000b0: 4aa8 063b 5b10 b739 49d7 f4ba 6a77 1bba
000000c0: 0138 573b 4ba6 16bb cca7 003a c341 aab9
000000d0: 872e 99bb eab7 0238 e762 a6b7 6c7b 053a
000000e0: 00ee 43b9 f3b2 8dbb e18a 23bb fb90 6a39
000000f0: e4cd 82bb d076 de36 46d6 0d38 c005 4db9
00000100: bf30 ee3a e49e c439 a6b7 75ba fa84 463a
00000110: 3859 e7b8 8dd4 37bb dbf9 813c d17e 19b8
00000120: 82c9 a839 9be7 eb2f 45cf a039 3a7b 9ab9
00000130: 9dc9 27ba f268 3cb8 41b7 c8b9 0ca8 5bb7
00000140: 02a9 9138 f399 fa3a 0031 c13a 0821 c8ba
00000150: dc74 84ba c888 9aba ae04 80ba e349 96bb
00000160: 9ed2 bfb8 f0a4 22b7 125f 9135 b06b 88ba
00000170: f51d 8abb d985 203a 2319 8dbb 01f0 8abb
00000180: 6096 c63a eb62 903a 9682 943a 7125 b6ba
00000190: cb08 e738 3567 07ba 88e7 8839 d579 e1b7
000001a0: 3550 013a 9903 5739 0ce0 7f3a 4187 4436
000001b0: bc26 7bba 84b4 853a 2591 aa3a b733 a9b9
000001c0: dfeb 293c afe2 0d3b 5306 de3b f098 11ba
000001d0: ebf6 ddba 84b3 13bb 59f3 523a fa82 7ebb
000001e0: 86ff 6f38 930b 913b dad1 533b 25e7 093b
000001f0: dbd3 acba e0a7 e6bb 5c9d 1035 f920 5b3a
00000200: f156 b4ba 8d34 7ab7 4c3e 64b9 74f5 36bb
00000210: 1a83 b1ba ac55 2e3a 748a eeb8 7787 683a
00000220: be5e 6ebb 8cb5 fb3b e455 1cbc 2269 44b9
00000230: 9f94 883a db42 ef3b 0e88 0abc 8d5f d1bb
00000240: b3f0 29bd 829a 64bc 8f1c b83c c1e2 99bc
00000250: 493a 91bb 002e 06bd 56c4 8abc 56e5 beba
00000260: 69f5 45ba 627c 84ba 50bb ba37 184e e5b6
00000270: 1b15 a6ba 244b c73a b36b 0b3a 156f 473c
00000280: 570f df3b ed7e 243b 4c03 98b9 b929 413b
00000290: 84b8 36bb edab 3abc 1b81 4c39 9033 1b3c
000002a0: b2da 263a 08d7 0fbc 59c8 03bb 61dd fbba
000002b0: f6ed dbba 0830 48bb 2cce 85ba 4222 b5b9
000002c0: 258c 103b 48d3 853b 328e 093b a135 1c3a
000002d0: fef8 b23a e529 af3a 4aab f1bb ce70 6739
000002e0: 0353 1e3b 660f 7eb9 9a41 533b 977e 4cbc
000002f0: e2da f339 e294 cd3b 6767 9ebb 0152 423b
00000300: 95ee ac3a d75d f2bb 8cff de3a e041 beb9
00000310: 7050 97b9 c42c 043b e148 24bc 856c 9bbb
00000320: e7b3 e639 6ddb 523b db33 c336 ee52 ad37
00000330: 6914 77b9 9c88 07bb aa8d 0cbb d646 11b9
00000340: 60e9 23bb 8b74 c4b8 6b36 12bc 18cd 743c
00000350: 8913 feb9 be56 343a 4aec 0caf 82b8 55ba
00000360: f137 d939 d8c0 5739 969f c538 c2d7 2eba
00000370: 1f02 c637 c03d 93b6 aeb4 47bb 292f 0dbb
00000380: 2262 193a fd50 90ba e181 6fba 4650 d73a
00000390: 032c 7c3b 81db c1b8 99ea 04b9 af01 b736
000003a0: 5e4c 12bb 4bea 3fbc 513a d539 b333 59ba
000003b0: 8cf5 c6bc 64f3 9b39 7772 91b8 b752 b73a
000003c0: a763 1bbb 8c2a 25ba 531b 4c3a 4ba0 773b
000003d0: f8cc 8bbb 8580 e33a ac97 d037 c980 223a
000003e0: 3ce2 1537 de0c 05bc ae81 9f3a eb03 fd3a
000003f0: 2aad dab9 7340 7a3c 927f 0d3b 07f7 8a3b

h1.bias f4 [10]
-0.0021108652 -0.003567076 0.008254966 -0.060852956 -0.005437512 0.010644899 -0.0067715286 -0.020161439
-0.0009513341 0.009169633
00000000: 7156 0abb 9bc5 69bb d63f 073c f340 79bd
00000010: 282d b2bb f167 2e3c b3e3 ddbb 9a29 a5bc
00000020: f362 79ba 3a3c 163c

h2.weight f4 [10, 10]
0.00586662 0.009095236 -0.018825717 -0.3820219 0.0074720494 -0.022928564 0.00545122 -0.0061471355
0.0077036065 -0.004539136 0.0017211586 -0.0004721376 0.004213152 0.27721986 0.036212754 -0.010461533
-0.0036806252 0.009660108 0.009756131 0.016084248 -0.0015146139 0.00269806 0.0025624607 -0.40842623
-0.0027282678 -0.049663782 0.0017613285 0.0066217366 -0.0016022896 0.02224448 0.0038740241 -0.0084725
-0.0048389332 -0.38407025 0.004554504 0.012513137 -0.0012991363 0.014032004 0.002679358 -0.009972887
-0.012553118 -0.004142212 0.015199 -0.3844812 -0.0043879454 -0.0100781545 -0.007933308 0.018705951
0.00075360056 0.017119782 -0.0064493045 6.442614e-05 0.007216174 0.30299658 -0.017407108 -0.022367958
0.0066839308 0.01739015 0.008162798 -0.05738144 0.004363244 0.0024577484 -0.01496495 0.28469396
-0.046599295 0.002150966 0.0063463836 0.05224925 -0.0031425988 -0.014680858 -0.004353517 -0.00055534835
0.00033008665 0.2704756 0.034715828 -0.01206925 0.0052390434 0.007877708 0.00660436 0.010095823
0.004152877 -0.0031065699 0.008763135 -0.3820058 0.011464433 0.021012539 0.008277428 0.014060006
-0.005829337 -0.012260732 0.010199697 0.003473024 -0.022498189 0.27713823 0.0233341 -0.0024891628
0.012912954 0.017279357 -0.00425727 0.022857916
00000000: c73c c03b 2f04 153c 6438 9abc 6098 c3be
00000010: 18d8 f43b afd4 bbbc 26a0 b23b e96d c9bb
00000020: 896e fc3b 08bd 94bb 8098 e13a 3c89 f7b9
00000030: 7b0e 8a3b c3ef 8d3e d353 143d da66 2bbc
00000040: a536 71bb 6e45 1e3c 2ed8 1f3c 1dc3 833c
00000050: 0286 c6ba efd1 303b f5ee 273b 3e1d d1be
00000060: bdcc 32bb 406c 4bbd 61dc e63a 27fb d83b
00000070: eb03 d2ba 0e3a b63c 57e3 7d3b 3ed0 0abc
00000080: ea8f 9ebb dba4 c4be f33d 953b e703 4d3c
00000090: c847 aaba 7ee6 653c 2b98 2f3b 5265 23bc
000000a0: 98ab 4dbc 65bb 87bb 3a05 793c b8da c4be
000000b0: c1c8 8fbb d81e 25bc b5fa 01bc 393d 993c
000000c0: 478d 453a c93e 8c3c b054 d3bb 851c 8738
000000d0: a875 ec3b 5e22 9b3e 5a99 8ebc 023d b7bc
000000e0: e004 db3b ca75 8e3c 42bd 053c cd08 6bbd
000000f0: 8bf9 8e3b 2d12 213b 8d2f 75bc 68c3 913e
00000100: e7de 3ebd 39f7 0c3b 53f5 cf3b 4f03 563d
00000110: 0ff4 4dbb fb87 70bc f3a7 8ebb cc94 11ba
00000120: 7b0f ad39 c77b 8a3e 2f32 0e3d 1bbe 45bc
00000130: 48ac ab3b 8111 013c 6369 d83b f368 253c
00000140: db14 883b 9897 4bbb 4193 0f3c 4496 c3be
00000150: 51d5 3b3c 7d22 ac3c 0d9e 073c f05b 663c
00000160: 0604 bfbb 3de1 48bc a11c 273c ac9b 633b
00000170: 1f4e b8bc 10e5 8d3e 2827 bf3c 3921 23bb
00000180: db90 533c 708d 8d3c 9280 8bbb 8640 bb3c

h2.bias f4 [10]
0.11361786 -0.01212939 -0.052627604 0.08205773 -0.019083641 -0.11654589 -0.045487598 -0.013799055
0.082256995 -0.042913318
00000000: 7bb0 e83d 59ba 46bc 0b90 57bd e20d a83d
00000010: 4c55 9cbc 9daf eebd 3451 3abd 6e15 62bc
00000020: 5b76 a83d e0c5 2fbd

out.weight f4 [1, 10]
0.04867917 -0.028471129 0.060728073 0.045159824 0.056914095 -0.02669099 -0.021889742 -0.024682945
0.045484897 -0.027948584
00000000: cf63 473d 493c e9bc 00be 783d 82f9 383d
00000010: c11e 693d 10a7 dabc 1e52 b3bc e333 cabc
00000020: 5f4e 3a3d 6ef4 e4bc
